name: "forward"

layer{
  type: "PlaceholderOp"
  top: "arg0_1"
  layer_param{
    shape: [1, 128]
    dtype: "TensorDType.Int64"
  }
}

layer{
  type: "PlaceholderOp"
  top: "arg1_1"
  layer_param{
    shape: [65024, 4096]
    dtype: "TensorDType.Float16"
  }
}

layer{
  type: "PlaceholderOp"
  top: "arg2_1"
  layer_param{
    shape: [4096]
    dtype: "TensorDType.Float16"
  }
}

layer{
  type: "PlaceholderOp"
  top: "arg3_1"
  layer_param{
    shape: [4608, 4096]
    dtype: "TensorDType.Float16"
  }
}

layer{
  type: "PlaceholderOp"
  top: "arg4_1"
  layer_param{
    shape: [4608]
    dtype: "TensorDType.Float16"
  }
}

layer{
  type: "PlaceholderOp"
  top: "arg5_1"
  layer_param{
    shape: [4096, 4096]
    dtype: "TensorDType.Float16"
  }
}

layer{
  type: "PlaceholderOp"
  top: "arg6_1"
  layer_param{
    shape: [4096]
    dtype: "TensorDType.Float16"
  }
}

layer{
  type: "PlaceholderOp"
  top: "arg7_1"
  layer_param{
    shape: [27392, 4096]
    dtype: "TensorDType.Float16"
  }
}

layer{
  type: "PlaceholderOp"
  top: "arg8_1"
  layer_param{
    shape: [4096, 13696]
    dtype: "TensorDType.Float16"
  }
}

layer{
  type: "PlaceholderOp"
  top: "arg9_1"
  layer_param{
    shape: [4096]
    dtype: "TensorDType.Float16"
  }
}

layer{
  type: "PlaceholderOp"
  top: "arg10_1"
  layer_param{
    shape: [4608, 4096]
    dtype: "TensorDType.Float16"
  }
}

layer{
  type: "PlaceholderOp"
  top: "arg11_1"
  layer_param{
    shape: [4608]
    dtype: "TensorDType.Float16"
  }
}

layer{
  type: "PlaceholderOp"
  top: "arg12_1"
  layer_param{
    shape: [4096, 4096]
    dtype: "TensorDType.Float16"
  }
}

layer{
  type: "PlaceholderOp"
  top: "arg13_1"
  layer_param{
    shape: [4096]
    dtype: "TensorDType.Float16"
  }
}

layer{
  type: "PlaceholderOp"
  top: "arg14_1"
  layer_param{
    shape: [27392, 4096]
    dtype: "TensorDType.Float16"
  }
}

layer{
  type: "PlaceholderOp"
  top: "arg15_1"
  layer_param{
    shape: [4096, 13696]
    dtype: "TensorDType.Float16"
  }
}

layer{
  type: "PlaceholderOp"
  top: "arg16_1"
  layer_param{
    shape: [4096]
    dtype: "TensorDType.Float16"
  }
}

layer{
  type: "PlaceholderOp"
  top: "arg17_1"
  layer_param{
    shape: [4608, 4096]
    dtype: "TensorDType.Float16"
  }
}

layer{
  type: "PlaceholderOp"
  top: "arg18_1"
  layer_param{
    shape: [4608]
    dtype: "TensorDType.Float16"
  }
}

layer{
  type: "PlaceholderOp"
  top: "arg19_1"
  layer_param{
    shape: [4096, 4096]
    dtype: "TensorDType.Float16"
  }
}

layer{
  type: "PlaceholderOp"
  top: "arg20_1"
  layer_param{
    shape: [4096]
    dtype: "TensorDType.Float16"
  }
}

layer{
  type: "PlaceholderOp"
  top: "arg21_1"
  layer_param{
    shape: [27392, 4096]
    dtype: "TensorDType.Float16"
  }
}

layer{
  type: "PlaceholderOp"
  top: "arg22_1"
  layer_param{
    shape: [4096, 13696]
    dtype: "TensorDType.Float16"
  }
}

layer{
  type: "PlaceholderOp"
  top: "arg23_1"
  layer_param{
    shape: [4096]
    dtype: "TensorDType.Float16"
  }
}

layer{
  type: "PlaceholderOp"
  top: "arg24_1"
  layer_param{
    shape: [4608, 4096]
    dtype: "TensorDType.Float16"
  }
}

layer{
  type: "PlaceholderOp"
  top: "arg25_1"
  layer_param{
    shape: [4608]
    dtype: "TensorDType.Float16"
  }
}

layer{
  type: "PlaceholderOp"
  top: "arg26_1"
  layer_param{
    shape: [4096, 4096]
    dtype: "TensorDType.Float16"
  }
}

layer{
  type: "PlaceholderOp"
  top: "arg27_1"
  layer_param{
    shape: [4096]
    dtype: "TensorDType.Float16"
  }
}

layer{
  type: "PlaceholderOp"
  top: "arg28_1"
  layer_param{
    shape: [27392, 4096]
    dtype: "TensorDType.Float16"
  }
}

layer{
  type: "PlaceholderOp"
  top: "arg29_1"
  layer_param{
    shape: [4096, 13696]
    dtype: "TensorDType.Float16"
  }
}

layer{
  type: "PlaceholderOp"
  top: "arg30_1"
  layer_param{
    shape: [4096]
    dtype: "TensorDType.Float16"
  }
}

layer{
  type: "PlaceholderOp"
  top: "arg31_1"
  layer_param{
    shape: [4608, 4096]
    dtype: "TensorDType.Float16"
  }
}

layer{
  type: "PlaceholderOp"
  top: "arg32_1"
  layer_param{
    shape: [4608]
    dtype: "TensorDType.Float16"
  }
}

layer{
  type: "PlaceholderOp"
  top: "arg33_1"
  layer_param{
    shape: [4096, 4096]
    dtype: "TensorDType.Float16"
  }
}

layer{
  type: "PlaceholderOp"
  top: "arg34_1"
  layer_param{
    shape: [4096]
    dtype: "TensorDType.Float16"
  }
}

layer{
  type: "PlaceholderOp"
  top: "arg35_1"
  layer_param{
    shape: [27392, 4096]
    dtype: "TensorDType.Float16"
  }
}

layer{
  type: "PlaceholderOp"
  top: "arg36_1"
  layer_param{
    shape: [4096, 13696]
    dtype: "TensorDType.Float16"
  }
}

layer{
  type: "PlaceholderOp"
  top: "arg37_1"
  layer_param{
    shape: [4096]
    dtype: "TensorDType.Float16"
  }
}

layer{
  type: "PlaceholderOp"
  top: "arg38_1"
  layer_param{
    shape: [4608, 4096]
    dtype: "TensorDType.Float16"
  }
}

layer{
  type: "PlaceholderOp"
  top: "arg39_1"
  layer_param{
    shape: [4608]
    dtype: "TensorDType.Float16"
  }
}

layer{
  type: "PlaceholderOp"
  top: "arg40_1"
  layer_param{
    shape: [4096, 4096]
    dtype: "TensorDType.Float16"
  }
}

layer{
  type: "PlaceholderOp"
  top: "arg41_1"
  layer_param{
    shape: [4096]
    dtype: "TensorDType.Float16"
  }
}

layer{
  type: "PlaceholderOp"
  top: "arg42_1"
  layer_param{
    shape: [27392, 4096]
    dtype: "TensorDType.Float16"
  }
}

layer{
  type: "PlaceholderOp"
  top: "arg43_1"
  layer_param{
    shape: [4096, 13696]
    dtype: "TensorDType.Float16"
  }
}

layer{
  type: "PlaceholderOp"
  top: "arg44_1"
  layer_param{
    shape: [4096]
    dtype: "TensorDType.Float16"
  }
}

layer{
  type: "PlaceholderOp"
  top: "arg45_1"
  layer_param{
    shape: [4608, 4096]
    dtype: "TensorDType.Float16"
  }
}

layer{
  type: "PlaceholderOp"
  top: "arg46_1"
  layer_param{
    shape: [4608]
    dtype: "TensorDType.Float16"
  }
}

layer{
  type: "PlaceholderOp"
  top: "arg47_1"
  layer_param{
    shape: [4096, 4096]
    dtype: "TensorDType.Float16"
  }
}

layer{
  type: "PlaceholderOp"
  top: "arg48_1"
  layer_param{
    shape: [4096]
    dtype: "TensorDType.Float16"
  }
}

layer{
  type: "PlaceholderOp"
  top: "arg49_1"
  layer_param{
    shape: [27392, 4096]
    dtype: "TensorDType.Float16"
  }
}

layer{
  type: "PlaceholderOp"
  top: "arg50_1"
  layer_param{
    shape: [4096, 13696]
    dtype: "TensorDType.Float16"
  }
}

layer{
  type: "PlaceholderOp"
  top: "arg51_1"
  layer_param{
    shape: [4096]
    dtype: "TensorDType.Float16"
  }
}

layer{
  type: "PlaceholderOp"
  top: "arg52_1"
  layer_param{
    shape: [4608, 4096]
    dtype: "TensorDType.Float16"
  }
}

layer{
  type: "PlaceholderOp"
  top: "arg53_1"
  layer_param{
    shape: [4608]
    dtype: "TensorDType.Float16"
  }
}

layer{
  type: "PlaceholderOp"
  top: "arg54_1"
  layer_param{
    shape: [4096, 4096]
    dtype: "TensorDType.Float16"
  }
}

layer{
  type: "PlaceholderOp"
  top: "arg55_1"
  layer_param{
    shape: [4096]
    dtype: "TensorDType.Float16"
  }
}

layer{
  type: "PlaceholderOp"
  top: "arg56_1"
  layer_param{
    shape: [27392, 4096]
    dtype: "TensorDType.Float16"
  }
}

layer{
  type: "PlaceholderOp"
  top: "arg57_1"
  layer_param{
    shape: [4096, 13696]
    dtype: "TensorDType.Float16"
  }
}

layer{
  type: "PlaceholderOp"
  top: "arg58_1"
  layer_param{
    shape: [4096]
    dtype: "TensorDType.Float16"
  }
}

layer{
  type: "PlaceholderOp"
  top: "arg59_1"
  layer_param{
    shape: [4608, 4096]
    dtype: "TensorDType.Float16"
  }
}

layer{
  type: "PlaceholderOp"
  top: "arg60_1"
  layer_param{
    shape: [4608]
    dtype: "TensorDType.Float16"
  }
}

layer{
  type: "PlaceholderOp"
  top: "arg61_1"
  layer_param{
    shape: [4096, 4096]
    dtype: "TensorDType.Float16"
  }
}

layer{
  type: "PlaceholderOp"
  top: "arg62_1"
  layer_param{
    shape: [4096]
    dtype: "TensorDType.Float16"
  }
}

layer{
  type: "PlaceholderOp"
  top: "arg63_1"
  layer_param{
    shape: [27392, 4096]
    dtype: "TensorDType.Float16"
  }
}

layer{
  type: "PlaceholderOp"
  top: "arg64_1"
  layer_param{
    shape: [4096, 13696]
    dtype: "TensorDType.Float16"
  }
}

layer{
  type: "PlaceholderOp"
  top: "arg65_1"
  layer_param{
    shape: [4096]
    dtype: "TensorDType.Float16"
  }
}

layer{
  type: "PlaceholderOp"
  top: "arg66_1"
  layer_param{
    shape: [4608, 4096]
    dtype: "TensorDType.Float16"
  }
}

layer{
  type: "PlaceholderOp"
  top: "arg67_1"
  layer_param{
    shape: [4608]
    dtype: "TensorDType.Float16"
  }
}

layer{
  type: "PlaceholderOp"
  top: "arg68_1"
  layer_param{
    shape: [4096, 4096]
    dtype: "TensorDType.Float16"
  }
}

layer{
  type: "PlaceholderOp"
  top: "arg69_1"
  layer_param{
    shape: [4096]
    dtype: "TensorDType.Float16"
  }
}

layer{
  type: "PlaceholderOp"
  top: "arg70_1"
  layer_param{
    shape: [27392, 4096]
    dtype: "TensorDType.Float16"
  }
}

layer{
  type: "PlaceholderOp"
  top: "arg71_1"
  layer_param{
    shape: [4096, 13696]
    dtype: "TensorDType.Float16"
  }
}

layer{
  type: "PlaceholderOp"
  top: "arg72_1"
  layer_param{
    shape: [4096]
    dtype: "TensorDType.Float16"
  }
}

layer{
  type: "PlaceholderOp"
  top: "arg73_1"
  layer_param{
    shape: [4608, 4096]
    dtype: "TensorDType.Float16"
  }
}

layer{
  type: "PlaceholderOp"
  top: "arg74_1"
  layer_param{
    shape: [4608]
    dtype: "TensorDType.Float16"
  }
}

layer{
  type: "PlaceholderOp"
  top: "arg75_1"
  layer_param{
    shape: [4096, 4096]
    dtype: "TensorDType.Float16"
  }
}

layer{
  type: "PlaceholderOp"
  top: "arg76_1"
  layer_param{
    shape: [4096]
    dtype: "TensorDType.Float16"
  }
}

layer{
  type: "PlaceholderOp"
  top: "arg77_1"
  layer_param{
    shape: [27392, 4096]
    dtype: "TensorDType.Float16"
  }
}

layer{
  type: "PlaceholderOp"
  top: "arg78_1"
  layer_param{
    shape: [4096, 13696]
    dtype: "TensorDType.Float16"
  }
}

layer{
  type: "PlaceholderOp"
  top: "arg79_1"
  layer_param{
    shape: [4096]
    dtype: "TensorDType.Float16"
  }
}

layer{
  type: "PlaceholderOp"
  top: "arg80_1"
  layer_param{
    shape: [4608, 4096]
    dtype: "TensorDType.Float16"
  }
}

layer{
  type: "PlaceholderOp"
  top: "arg81_1"
  layer_param{
    shape: [4608]
    dtype: "TensorDType.Float16"
  }
}

layer{
  type: "PlaceholderOp"
  top: "arg82_1"
  layer_param{
    shape: [4096, 4096]
    dtype: "TensorDType.Float16"
  }
}

layer{
  type: "PlaceholderOp"
  top: "arg83_1"
  layer_param{
    shape: [4096]
    dtype: "TensorDType.Float16"
  }
}

layer{
  type: "PlaceholderOp"
  top: "arg84_1"
  layer_param{
    shape: [27392, 4096]
    dtype: "TensorDType.Float16"
  }
}

layer{
  type: "PlaceholderOp"
  top: "arg85_1"
  layer_param{
    shape: [4096, 13696]
    dtype: "TensorDType.Float16"
  }
}

layer{
  type: "PlaceholderOp"
  top: "arg86_1"
  layer_param{
    shape: [4096]
    dtype: "TensorDType.Float16"
  }
}

layer{
  type: "PlaceholderOp"
  top: "arg87_1"
  layer_param{
    shape: [4608, 4096]
    dtype: "TensorDType.Float16"
  }
}

layer{
  type: "PlaceholderOp"
  top: "arg88_1"
  layer_param{
    shape: [4608]
    dtype: "TensorDType.Float16"
  }
}

layer{
  type: "PlaceholderOp"
  top: "arg89_1"
  layer_param{
    shape: [4096, 4096]
    dtype: "TensorDType.Float16"
  }
}

layer{
  type: "PlaceholderOp"
  top: "arg90_1"
  layer_param{
    shape: [4096]
    dtype: "TensorDType.Float16"
  }
}

layer{
  type: "PlaceholderOp"
  top: "arg91_1"
  layer_param{
    shape: [27392, 4096]
    dtype: "TensorDType.Float16"
  }
}

layer{
  type: "PlaceholderOp"
  top: "arg92_1"
  layer_param{
    shape: [4096, 13696]
    dtype: "TensorDType.Float16"
  }
}

layer{
  type: "PlaceholderOp"
  top: "arg93_1"
  layer_param{
    shape: [4096]
    dtype: "TensorDType.Float16"
  }
}

layer{
  type: "PlaceholderOp"
  top: "arg94_1"
  layer_param{
    shape: [4608, 4096]
    dtype: "TensorDType.Float16"
  }
}

layer{
  type: "PlaceholderOp"
  top: "arg95_1"
  layer_param{
    shape: [4608]
    dtype: "TensorDType.Float16"
  }
}

layer{
  type: "PlaceholderOp"
  top: "arg96_1"
  layer_param{
    shape: [4096, 4096]
    dtype: "TensorDType.Float16"
  }
}

layer{
  type: "PlaceholderOp"
  top: "arg97_1"
  layer_param{
    shape: [4096]
    dtype: "TensorDType.Float16"
  }
}

layer{
  type: "PlaceholderOp"
  top: "arg98_1"
  layer_param{
    shape: [27392, 4096]
    dtype: "TensorDType.Float16"
  }
}

layer{
  type: "PlaceholderOp"
  top: "arg99_1"
  layer_param{
    shape: [4096, 13696]
    dtype: "TensorDType.Float16"
  }
}

layer{
  type: "PlaceholderOp"
  top: "arg100_1"
  layer_param{
    shape: [4096]
    dtype: "TensorDType.Float16"
  }
}

layer{
  type: "PlaceholderOp"
  top: "arg101_1"
  layer_param{
    shape: [4608, 4096]
    dtype: "TensorDType.Float16"
  }
}

layer{
  type: "PlaceholderOp"
  top: "arg102_1"
  layer_param{
    shape: [4608]
    dtype: "TensorDType.Float16"
  }
}

layer{
  type: "PlaceholderOp"
  top: "arg103_1"
  layer_param{
    shape: [4096, 4096]
    dtype: "TensorDType.Float16"
  }
}

layer{
  type: "PlaceholderOp"
  top: "arg104_1"
  layer_param{
    shape: [4096]
    dtype: "TensorDType.Float16"
  }
}

layer{
  type: "PlaceholderOp"
  top: "arg105_1"
  layer_param{
    shape: [27392, 4096]
    dtype: "TensorDType.Float16"
  }
}

layer{
  type: "PlaceholderOp"
  top: "arg106_1"
  layer_param{
    shape: [4096, 13696]
    dtype: "TensorDType.Float16"
  }
}

layer{
  type: "PlaceholderOp"
  top: "arg107_1"
  layer_param{
    shape: [4096]
    dtype: "TensorDType.Float16"
  }
}

layer{
  type: "PlaceholderOp"
  top: "arg108_1"
  layer_param{
    shape: [4608, 4096]
    dtype: "TensorDType.Float16"
  }
}

layer{
  type: "PlaceholderOp"
  top: "arg109_1"
  layer_param{
    shape: [4608]
    dtype: "TensorDType.Float16"
  }
}

layer{
  type: "PlaceholderOp"
  top: "arg110_1"
  layer_param{
    shape: [4096, 4096]
    dtype: "TensorDType.Float16"
  }
}

layer{
  type: "PlaceholderOp"
  top: "arg111_1"
  layer_param{
    shape: [4096]
    dtype: "TensorDType.Float16"
  }
}

layer{
  type: "PlaceholderOp"
  top: "arg112_1"
  layer_param{
    shape: [27392, 4096]
    dtype: "TensorDType.Float16"
  }
}

layer{
  type: "PlaceholderOp"
  top: "arg113_1"
  layer_param{
    shape: [4096, 13696]
    dtype: "TensorDType.Float16"
  }
}

layer{
  type: "PlaceholderOp"
  top: "arg114_1"
  layer_param{
    shape: [4096]
    dtype: "TensorDType.Float16"
  }
}

layer{
  type: "PlaceholderOp"
  top: "arg115_1"
  layer_param{
    shape: [4608, 4096]
    dtype: "TensorDType.Float16"
  }
}

layer{
  type: "PlaceholderOp"
  top: "arg116_1"
  layer_param{
    shape: [4608]
    dtype: "TensorDType.Float16"
  }
}

layer{
  type: "PlaceholderOp"
  top: "arg117_1"
  layer_param{
    shape: [4096, 4096]
    dtype: "TensorDType.Float16"
  }
}

layer{
  type: "PlaceholderOp"
  top: "arg118_1"
  layer_param{
    shape: [4096]
    dtype: "TensorDType.Float16"
  }
}

layer{
  type: "PlaceholderOp"
  top: "arg119_1"
  layer_param{
    shape: [27392, 4096]
    dtype: "TensorDType.Float16"
  }
}

layer{
  type: "PlaceholderOp"
  top: "arg120_1"
  layer_param{
    shape: [4096, 13696]
    dtype: "TensorDType.Float16"
  }
}

layer{
  type: "PlaceholderOp"
  top: "arg121_1"
  layer_param{
    shape: [4096]
    dtype: "TensorDType.Float16"
  }
}

layer{
  type: "PlaceholderOp"
  top: "arg122_1"
  layer_param{
    shape: [4608, 4096]
    dtype: "TensorDType.Float16"
  }
}

layer{
  type: "PlaceholderOp"
  top: "arg123_1"
  layer_param{
    shape: [4608]
    dtype: "TensorDType.Float16"
  }
}

layer{
  type: "PlaceholderOp"
  top: "arg124_1"
  layer_param{
    shape: [4096, 4096]
    dtype: "TensorDType.Float16"
  }
}

layer{
  type: "PlaceholderOp"
  top: "arg125_1"
  layer_param{
    shape: [4096]
    dtype: "TensorDType.Float16"
  }
}

layer{
  type: "PlaceholderOp"
  top: "arg126_1"
  layer_param{
    shape: [27392, 4096]
    dtype: "TensorDType.Float16"
  }
}

layer{
  type: "PlaceholderOp"
  top: "arg127_1"
  layer_param{
    shape: [4096, 13696]
    dtype: "TensorDType.Float16"
  }
}

layer{
  type: "PlaceholderOp"
  top: "arg128_1"
  layer_param{
    shape: [4096]
    dtype: "TensorDType.Float16"
  }
}

layer{
  type: "PlaceholderOp"
  top: "arg129_1"
  layer_param{
    shape: [4608, 4096]
    dtype: "TensorDType.Float16"
  }
}

layer{
  type: "PlaceholderOp"
  top: "arg130_1"
  layer_param{
    shape: [4608]
    dtype: "TensorDType.Float16"
  }
}

layer{
  type: "PlaceholderOp"
  top: "arg131_1"
  layer_param{
    shape: [4096, 4096]
    dtype: "TensorDType.Float16"
  }
}

layer{
  type: "PlaceholderOp"
  top: "arg132_1"
  layer_param{
    shape: [4096]
    dtype: "TensorDType.Float16"
  }
}

layer{
  type: "PlaceholderOp"
  top: "arg133_1"
  layer_param{
    shape: [27392, 4096]
    dtype: "TensorDType.Float16"
  }
}

layer{
  type: "PlaceholderOp"
  top: "arg134_1"
  layer_param{
    shape: [4096, 13696]
    dtype: "TensorDType.Float16"
  }
}

layer{
  type: "PlaceholderOp"
  top: "arg135_1"
  layer_param{
    shape: [4096]
    dtype: "TensorDType.Float16"
  }
}

layer{
  type: "PlaceholderOp"
  top: "arg136_1"
  layer_param{
    shape: [4608, 4096]
    dtype: "TensorDType.Float16"
  }
}

layer{
  type: "PlaceholderOp"
  top: "arg137_1"
  layer_param{
    shape: [4608]
    dtype: "TensorDType.Float16"
  }
}

layer{
  type: "PlaceholderOp"
  top: "arg138_1"
  layer_param{
    shape: [4096, 4096]
    dtype: "TensorDType.Float16"
  }
}

layer{
  type: "PlaceholderOp"
  top: "arg139_1"
  layer_param{
    shape: [4096]
    dtype: "TensorDType.Float16"
  }
}

layer{
  type: "PlaceholderOp"
  top: "arg140_1"
  layer_param{
    shape: [27392, 4096]
    dtype: "TensorDType.Float16"
  }
}

layer{
  type: "PlaceholderOp"
  top: "arg141_1"
  layer_param{
    shape: [4096, 13696]
    dtype: "TensorDType.Float16"
  }
}

layer{
  type: "PlaceholderOp"
  top: "arg142_1"
  layer_param{
    shape: [4096]
    dtype: "TensorDType.Float16"
  }
}

layer{
  type: "PlaceholderOp"
  top: "arg143_1"
  layer_param{
    shape: [4608, 4096]
    dtype: "TensorDType.Float16"
  }
}

layer{
  type: "PlaceholderOp"
  top: "arg144_1"
  layer_param{
    shape: [4608]
    dtype: "TensorDType.Float16"
  }
}

layer{
  type: "PlaceholderOp"
  top: "arg145_1"
  layer_param{
    shape: [4096, 4096]
    dtype: "TensorDType.Float16"
  }
}

layer{
  type: "PlaceholderOp"
  top: "arg146_1"
  layer_param{
    shape: [4096]
    dtype: "TensorDType.Float16"
  }
}

layer{
  type: "PlaceholderOp"
  top: "arg147_1"
  layer_param{
    shape: [27392, 4096]
    dtype: "TensorDType.Float16"
  }
}

layer{
  type: "PlaceholderOp"
  top: "arg148_1"
  layer_param{
    shape: [4096, 13696]
    dtype: "TensorDType.Float16"
  }
}

layer{
  type: "PlaceholderOp"
  top: "arg149_1"
  layer_param{
    shape: [4096]
    dtype: "TensorDType.Float16"
  }
}

layer{
  type: "PlaceholderOp"
  top: "arg150_1"
  layer_param{
    shape: [4608, 4096]
    dtype: "TensorDType.Float16"
  }
}

layer{
  type: "PlaceholderOp"
  top: "arg151_1"
  layer_param{
    shape: [4608]
    dtype: "TensorDType.Float16"
  }
}

layer{
  type: "PlaceholderOp"
  top: "arg152_1"
  layer_param{
    shape: [4096, 4096]
    dtype: "TensorDType.Float16"
  }
}

layer{
  type: "PlaceholderOp"
  top: "arg153_1"
  layer_param{
    shape: [4096]
    dtype: "TensorDType.Float16"
  }
}

layer{
  type: "PlaceholderOp"
  top: "arg154_1"
  layer_param{
    shape: [27392, 4096]
    dtype: "TensorDType.Float16"
  }
}

layer{
  type: "PlaceholderOp"
  top: "arg155_1"
  layer_param{
    shape: [4096, 13696]
    dtype: "TensorDType.Float16"
  }
}

layer{
  type: "PlaceholderOp"
  top: "arg156_1"
  layer_param{
    shape: [4096]
    dtype: "TensorDType.Float16"
  }
}

layer{
  type: "PlaceholderOp"
  top: "arg157_1"
  layer_param{
    shape: [4608, 4096]
    dtype: "TensorDType.Float16"
  }
}

layer{
  type: "PlaceholderOp"
  top: "arg158_1"
  layer_param{
    shape: [4608]
    dtype: "TensorDType.Float16"
  }
}

layer{
  type: "PlaceholderOp"
  top: "arg159_1"
  layer_param{
    shape: [4096, 4096]
    dtype: "TensorDType.Float16"
  }
}

layer{
  type: "PlaceholderOp"
  top: "arg160_1"
  layer_param{
    shape: [4096]
    dtype: "TensorDType.Float16"
  }
}

layer{
  type: "PlaceholderOp"
  top: "arg161_1"
  layer_param{
    shape: [27392, 4096]
    dtype: "TensorDType.Float16"
  }
}

layer{
  type: "PlaceholderOp"
  top: "arg162_1"
  layer_param{
    shape: [4096, 13696]
    dtype: "TensorDType.Float16"
  }
}

layer{
  type: "PlaceholderOp"
  top: "arg163_1"
  layer_param{
    shape: [4096]
    dtype: "TensorDType.Float16"
  }
}

layer{
  type: "PlaceholderOp"
  top: "arg164_1"
  layer_param{
    shape: [4608, 4096]
    dtype: "TensorDType.Float16"
  }
}

layer{
  type: "PlaceholderOp"
  top: "arg165_1"
  layer_param{
    shape: [4608]
    dtype: "TensorDType.Float16"
  }
}

layer{
  type: "PlaceholderOp"
  top: "arg166_1"
  layer_param{
    shape: [4096, 4096]
    dtype: "TensorDType.Float16"
  }
}

layer{
  type: "PlaceholderOp"
  top: "arg167_1"
  layer_param{
    shape: [4096]
    dtype: "TensorDType.Float16"
  }
}

layer{
  type: "PlaceholderOp"
  top: "arg168_1"
  layer_param{
    shape: [27392, 4096]
    dtype: "TensorDType.Float16"
  }
}

layer{
  type: "PlaceholderOp"
  top: "arg169_1"
  layer_param{
    shape: [4096, 13696]
    dtype: "TensorDType.Float16"
  }
}

layer{
  type: "PlaceholderOp"
  top: "arg170_1"
  layer_param{
    shape: [4096]
    dtype: "TensorDType.Float16"
  }
}

layer{
  type: "PlaceholderOp"
  top: "arg171_1"
  layer_param{
    shape: [4608, 4096]
    dtype: "TensorDType.Float16"
  }
}

layer{
  type: "PlaceholderOp"
  top: "arg172_1"
  layer_param{
    shape: [4608]
    dtype: "TensorDType.Float16"
  }
}

layer{
  type: "PlaceholderOp"
  top: "arg173_1"
  layer_param{
    shape: [4096, 4096]
    dtype: "TensorDType.Float16"
  }
}

layer{
  type: "PlaceholderOp"
  top: "arg174_1"
  layer_param{
    shape: [4096]
    dtype: "TensorDType.Float16"
  }
}

layer{
  type: "PlaceholderOp"
  top: "arg175_1"
  layer_param{
    shape: [27392, 4096]
    dtype: "TensorDType.Float16"
  }
}

layer{
  type: "PlaceholderOp"
  top: "arg176_1"
  layer_param{
    shape: [4096, 13696]
    dtype: "TensorDType.Float16"
  }
}

layer{
  type: "PlaceholderOp"
  top: "arg177_1"
  layer_param{
    shape: [4096]
    dtype: "TensorDType.Float16"
  }
}

layer{
  type: "PlaceholderOp"
  top: "arg178_1"
  layer_param{
    shape: [4608, 4096]
    dtype: "TensorDType.Float16"
  }
}

layer{
  type: "PlaceholderOp"
  top: "arg179_1"
  layer_param{
    shape: [4608]
    dtype: "TensorDType.Float16"
  }
}

layer{
  type: "PlaceholderOp"
  top: "arg180_1"
  layer_param{
    shape: [4096, 4096]
    dtype: "TensorDType.Float16"
  }
}

layer{
  type: "PlaceholderOp"
  top: "arg181_1"
  layer_param{
    shape: [4096]
    dtype: "TensorDType.Float16"
  }
}

layer{
  type: "PlaceholderOp"
  top: "arg182_1"
  layer_param{
    shape: [27392, 4096]
    dtype: "TensorDType.Float16"
  }
}

layer{
  type: "PlaceholderOp"
  top: "arg183_1"
  layer_param{
    shape: [4096, 13696]
    dtype: "TensorDType.Float16"
  }
}

layer{
  type: "PlaceholderOp"
  top: "arg184_1"
  layer_param{
    shape: [4096]
    dtype: "TensorDType.Float16"
  }
}

layer{
  type: "PlaceholderOp"
  top: "arg185_1"
  layer_param{
    shape: [4608, 4096]
    dtype: "TensorDType.Float16"
  }
}

layer{
  type: "PlaceholderOp"
  top: "arg186_1"
  layer_param{
    shape: [4608]
    dtype: "TensorDType.Float16"
  }
}

layer{
  type: "PlaceholderOp"
  top: "arg187_1"
  layer_param{
    shape: [4096, 4096]
    dtype: "TensorDType.Float16"
  }
}

layer{
  type: "PlaceholderOp"
  top: "arg188_1"
  layer_param{
    shape: [4096]
    dtype: "TensorDType.Float16"
  }
}

layer{
  type: "PlaceholderOp"
  top: "arg189_1"
  layer_param{
    shape: [27392, 4096]
    dtype: "TensorDType.Float16"
  }
}

layer{
  type: "PlaceholderOp"
  top: "arg190_1"
  layer_param{
    shape: [4096, 13696]
    dtype: "TensorDType.Float16"
  }
}

layer{
  type: "PlaceholderOp"
  top: "arg191_1"
  layer_param{
    shape: [4096]
    dtype: "TensorDType.Float16"
  }
}

layer{
  type: "PlaceholderOp"
  top: "arg192_1"
  layer_param{
    shape: [4608, 4096]
    dtype: "TensorDType.Float16"
  }
}

layer{
  type: "PlaceholderOp"
  top: "arg193_1"
  layer_param{
    shape: [4608]
    dtype: "TensorDType.Float16"
  }
}

layer{
  type: "PlaceholderOp"
  top: "arg194_1"
  layer_param{
    shape: [4096, 4096]
    dtype: "TensorDType.Float16"
  }
}

layer{
  type: "PlaceholderOp"
  top: "arg195_1"
  layer_param{
    shape: [4096]
    dtype: "TensorDType.Float16"
  }
}

layer{
  type: "PlaceholderOp"
  top: "arg196_1"
  layer_param{
    shape: [27392, 4096]
    dtype: "TensorDType.Float16"
  }
}

layer{
  type: "PlaceholderOp"
  top: "arg197_1"
  layer_param{
    shape: [4096, 13696]
    dtype: "TensorDType.Float16"
  }
}

layer{
  type: "PlaceholderOp"
  top: "arg198_1"
  layer_param{
    shape: [4096]
    dtype: "TensorDType.Float16"
  }
}

layer{
  type: "PlaceholderOp"
  top: "arg199_1"
  layer_param{
    shape: [65024, 4096]
    dtype: "TensorDType.Float16"
  }
}

layer{
  type: "EmbeddingOp"
  top: "embedding"
  bottom: "arg1_1"
  bottom: "arg0_1"
  layer_param{
    shape: [1, 128, 4096]
    dtype: "TensorDType.Float16"
  }
}

layer{
  type: "TransposeOp"
  top: "transpose"
  bottom: "embedding"
  layer_param{
    attr_0: 0
    attr_1: 1
    shape: [128, 1, 4096]
    dtype: "TensorDType.Float16"
  }
}

layer{
  type: "ArangeOp"
  top: "arange"
  layer_param{
    attr_0: 0
    attr_1: 64
    attr_2: 2
    shape: [32]
    dtype: "TensorDType.Float16"
  }
}

layer{
  type: "DivOp"
  top: "div"
  bottom: "arange"
  layer_param{
    attr_0: 64
    shape: [32]
    dtype: "TensorDType.Float16"
  }
}

layer{
  type: "PowOp"
  top: "pow_1"
  bottom: "div"
  layer_param{
    attr_0: "div"
    shape: [32]
    dtype: "TensorDType.Float16"
  }
}

layer{
  type: "ReciprocalOp"
  top: "reciprocal"
  bottom: "pow_1"
  layer_param{
    shape: [32]
    dtype: "TensorDType.Float16"
  }
}

layer{
  type: "MulOp"
  top: "mul"
  bottom: "reciprocal"
  layer_param{
    attr_0: 1.0
    shape: [32]
    dtype: "TensorDType.Float16"
  }
}

layer{
  type: "ArangeOp"
  top: "arange_1"
  layer_param{
    attr_0: 32768
    shape: [32768]
    dtype: "TensorDType.Float16"
  }
}

layer{
  type: "ViewOp"
  top: "view"
  bottom: "arange_1"
  layer_param{
    attr_0: [32768, 1]
    shape: [32768, 1]
    dtype: "TensorDType.Float16"
  }
}

layer{
  type: "MulOp"
  top: "mul_1"
  bottom: "view"
  bottom: "mul"
  layer_param{
    shape: [32768, 32]
    dtype: "TensorDType.Float16"
  }
}

layer{
  type: "CosOp"
  top: "cos"
  bottom: "mul_1"
  layer_param{
    shape: [32768, 32]
    dtype: "TensorDType.Float32"
  }
}

layer{
  type: "SinOp"
  top: "sin"
  bottom: "mul_1"
  layer_param{
    shape: [32768, 32]
    dtype: "TensorDType.Float32"
  }
}

layer{
  type: "StackOp"
  top: "stack"
  bottom: "cos"
  bottom: "sin"
  layer_param{
    attr_0: -1
    shape: [32768, 32, 2]
    dtype: "TensorDType.Float32"
  }
}

layer{
  type: "UnsqueezeOp"
  top: "unsqueeze"
  bottom: "stack"
  layer_param{
    attr_0: 0
    shape: [1, 32768, 32, 2]
    dtype: "TensorDType.Float16"
  }
}

layer{
  type: "SliceOp"
  top: "slice_1"
  bottom: "unsqueeze"
  layer_param{
    attr_0: 1
    attr_1: 0
    attr_2: 128
    shape: [1, 128, 32, 2]
    dtype: "TensorDType.Float16"
  }
}

layer{
  type: "TransposeOp"
  top: "transpose_1"
  bottom: "slice_1"
  layer_param{
    attr_0: 0
    attr_1: 1
    shape: [128, 1, 32, 2]
    dtype: "TensorDType.Float16"
  }
}

layer{
  type: "PowOp"
  top: "pow_2"
  bottom: "transpose"
  layer_param{
    attr_0: 2
    shape: [128, 1, 4096]
    dtype: "TensorDType.Float32"
  }
}

layer{
  type: "MeanOp"
  top: "mean"
  bottom: "pow_2"
  layer_param{
    attr_0: [-1]
    attr_1: True
    shape: [128, 1, 1]
    dtype: "TensorDType.Float32"
  }
}

layer{
  type: "AddOp"
  top: "add"
  bottom: "mean"
  layer_param{
    attr_0: 1e-05
    shape: [128, 1, 1]
    dtype: "TensorDType.Float32"
  }
}

layer{
  type: "RsqrtOp"
  top: "rsqrt"
  bottom: "add"
  layer_param{
    shape: [128, 1, 1]
    dtype: "TensorDType.Float32"
  }
}

layer{
  type: "MulOp"
  top: "mul_2"
  bottom: "transpose"
  bottom: "rsqrt"
  layer_param{
    shape: [128, 1, 4096]
    dtype: "TensorDType.Float32"
  }
}

layer{
  type: "ViewOp"
  top: "view_1"
  bottom: "fuse_ln_mul_3"
  layer_param{
    attr_0: [128, 4096]
    shape: [128, 4096]
    dtype: "TensorDType.Float16"
  }
}

layer{
  type: "TransposeOp"
  top: "t"
  bottom: "arg3_1"
  layer_param{
    shape: [4096, 4608]
    dtype: "TensorDType.Float16"
  }
}

layer{
  type: "AddMMOp"
  top: "addmm"
  bottom: "arg4_1"
  bottom: "view_1"
  bottom: "t"
  layer_param{
    shape: [128, 4608]
    dtype: "TensorDType.Float16"
  }
}

layer{
  type: "ViewOp"
  top: "view_2"
  bottom: "addmm"
  layer_param{
    attr_0: [128, 1, 4608]
    shape: [128, 1, 4608]
    dtype: "TensorDType.Float16"
  }
}

layer{
  type: "SplitWithSizeOp"
  top: "split_with_sizes"
  bottom: "view_2"
  layer_param{
    attr_0: [4096, 256, 256]
    attr_1: -1
    shape{
      output_0: [128, 1, 4096]
      output_1: [128, 1, 256]
      output_2: [128, 1, 256]
    }
  }
}

layer{
  type: "GetItemOp"
  top: "getitem"
  bottom: "split_with_sizes"
  layer_param{
    attr_0: 0
    shape: [128, 1, 4096]
    dtype: "TensorDType.Float16"
  }
}

layer{
  type: "GetItemOp"
  top: "getitem_1"
  bottom: "split_with_sizes"
  layer_param{
    attr_0: 1
    shape: [128, 1, 256]
    dtype: "TensorDType.Float16"
  }
}

layer{
  type: "GetItemOp"
  top: "getitem_2"
  bottom: "split_with_sizes"
  layer_param{
    attr_0: 2
    shape: [128, 1, 256]
    dtype: "TensorDType.Float16"
  }
}

layer{
  type: "ViewOp"
  top: "view_3"
  bottom: "getitem"
  layer_param{
    attr_0: [128, 1, 32, 128]
    shape: [128, 1, 32, 128]
    dtype: "TensorDType.Float16"
  }
}

layer{
  type: "ViewOp"
  top: "view_4"
  bottom: "getitem_1"
  layer_param{
    attr_0: [128, 1, 2, 128]
    shape: [128, 1, 2, 128]
    dtype: "TensorDType.Float16"
  }
}

layer{
  type: "ViewOp"
  top: "view_5"
  bottom: "getitem_2"
  layer_param{
    attr_0: [128, 1, 2, 128]
    shape: [128, 1, 2, 128]
    dtype: "TensorDType.Float16"
  }
}

layer{
  type: "SliceOp"
  top: "slice_2"
  bottom: "view_3"
  layer_param{
    attr_0: 3
    attr_1: 0
    attr_2: 64
    shape: [128, 1, 32, 64]
    dtype: "TensorDType.Float16"
  }
}

layer{
  type: "SliceOp"
  top: "slice_3"
  bottom: "view_3"
  layer_param{
    attr_0: 3
    attr_1: 64
    attr_2: 9223372036854775807
    shape: [128, 1, 32, 64]
    dtype: "TensorDType.Float16"
  }
}

layer{
  type: "SliceOp"
  top: "slice_4"
  bottom: "transpose_1"
  layer_param{
    attr_0: 0
    attr_1: 0
    attr_2: 128
    shape: [128, 1, 32, 2]
    dtype: "TensorDType.Float16"
  }
}

layer{
  type: "ViewOp"
  top: "view_6"
  bottom: "slice_2"
  layer_param{
    attr_0: [128, 1, 32, 32, 2]
    shape: [128, 1, 32, 32, 2]
    dtype: "TensorDType.Float16"
  }
}

layer{
  type: "ViewOp"
  top: "view_7"
  bottom: "slice_4"
  layer_param{
    attr_0: [128, -1, 1, 32, 2]
    shape: [128, 1, 1, 32, 2]
    dtype: "TensorDType.Float16"
  }
}

layer{
  type: "SelectOp"
  top: "select"
  bottom: "view_6"
  layer_param{
    attr_0: 4
    attr_1: 0
    shape: [128, 1, 32, 32]
    dtype: "TensorDType.Float16"
  }
}

layer{
  type: "SelectOp"
  top: "select_1"
  bottom: "view_7"
  layer_param{
    attr_0: 4
    attr_1: 0
    shape: [128, 1, 1, 32]
    dtype: "TensorDType.Float16"
  }
}

layer{
  type: "MulOp"
  top: "mul_4"
  bottom: "select"
  bottom: "select_1"
  layer_param{
    shape: [128, 1, 32, 32]
    dtype: "TensorDType.Float16"
  }
}

layer{
  type: "SelectOp"
  top: "select_2"
  bottom: "view_6"
  layer_param{
    attr_0: 4
    attr_1: 1
    shape: [128, 1, 32, 32]
    dtype: "TensorDType.Float16"
  }
}

layer{
  type: "SelectOp"
  top: "select_3"
  bottom: "view_7"
  layer_param{
    attr_0: 4
    attr_1: 1
    shape: [128, 1, 1, 32]
    dtype: "TensorDType.Float16"
  }
}

layer{
  type: "MulOp"
  top: "mul_5"
  bottom: "select_2"
  bottom: "select_3"
  layer_param{
    shape: [128, 1, 32, 32]
    dtype: "TensorDType.Float16"
  }
}

layer{
  type: "SubOp"
  top: "sub"
  bottom: "mul_4"
  bottom: "mul_5"
  layer_param{
    shape: [128, 1, 32, 32]
    dtype: "TensorDType.Float16"
  }
}

layer{
  type: "SelectOp"
  top: "select_4"
  bottom: "view_6"
  layer_param{
    attr_0: 4
    attr_1: 1
    shape: [128, 1, 32, 32]
    dtype: "TensorDType.Float16"
  }
}

layer{
  type: "SelectOp"
  top: "select_5"
  bottom: "view_7"
  layer_param{
    attr_0: 4
    attr_1: 0
    shape: [128, 1, 1, 32]
    dtype: "TensorDType.Float16"
  }
}

layer{
  type: "MulOp"
  top: "mul_6"
  bottom: "select_4"
  bottom: "select_5"
  layer_param{
    shape: [128, 1, 32, 32]
    dtype: "TensorDType.Float16"
  }
}

layer{
  type: "SelectOp"
  top: "select_6"
  bottom: "view_6"
  layer_param{
    attr_0: 4
    attr_1: 0
    shape: [128, 1, 32, 32]
    dtype: "TensorDType.Float16"
  }
}

layer{
  type: "SelectOp"
  top: "select_7"
  bottom: "view_7"
  layer_param{
    attr_0: 4
    attr_1: 1
    shape: [128, 1, 1, 32]
    dtype: "TensorDType.Float16"
  }
}

layer{
  type: "MulOp"
  top: "mul_7"
  bottom: "select_6"
  bottom: "select_7"
  layer_param{
    shape: [128, 1, 32, 32]
    dtype: "TensorDType.Float16"
  }
}

layer{
  type: "AddOp"
  top: "add_1"
  bottom: "mul_6"
  bottom: "mul_7"
  layer_param{
    shape: [128, 1, 32, 32]
    dtype: "TensorDType.Float16"
  }
}

layer{
  type: "StackOp"
  top: "stack_1"
  bottom: "sub"
  bottom: "add_1"
  layer_param{
    attr_0: -1
    shape: [128, 1, 32, 32, 2]
    dtype: "TensorDType.Float16"
  }
}

layer{
  type: "ViewOp"
  top: "view_8"
  bottom: "stack_1"
  layer_param{
    attr_0: [128, 1, 32, 64]
    shape: [128, 1, 32, 64]
    dtype: "TensorDType.Float16"
  }
}

layer{
  type: "CatOp"
  top: "cat"
  bottom: "view_8"
  bottom: "slice_3"
  layer_param{
    attr_0: -1
    shape: [128, 1, 32, 128]
    dtype: "TensorDType.Float16"
  }
}

layer{
  type: "SliceOp"
  top: "slice_5"
  bottom: "view_4"
  layer_param{
    attr_0: 3
    attr_1: 0
    attr_2: 64
    shape: [128, 1, 2, 64]
    dtype: "TensorDType.Float16"
  }
}

layer{
  type: "SliceOp"
  top: "slice_6"
  bottom: "view_4"
  layer_param{
    attr_0: 3
    attr_1: 64
    attr_2: 9223372036854775807
    shape: [128, 1, 2, 64]
    dtype: "TensorDType.Float16"
  }
}

layer{
  type: "SliceOp"
  top: "slice_7"
  bottom: "transpose_1"
  layer_param{
    attr_0: 0
    attr_1: 0
    attr_2: 128
    shape: [128, 1, 32, 2]
    dtype: "TensorDType.Float16"
  }
}

layer{
  type: "ViewOp"
  top: "view_9"
  bottom: "slice_5"
  layer_param{
    attr_0: [128, 1, 2, 32, 2]
    shape: [128, 1, 2, 32, 2]
    dtype: "TensorDType.Float16"
  }
}

layer{
  type: "ViewOp"
  top: "view_10"
  bottom: "slice_7"
  layer_param{
    attr_0: [128, -1, 1, 32, 2]
    shape: [128, 1, 1, 32, 2]
    dtype: "TensorDType.Float16"
  }
}

layer{
  type: "SelectOp"
  top: "select_8"
  bottom: "view_9"
  layer_param{
    attr_0: 4
    attr_1: 0
    shape: [128, 1, 2, 32]
    dtype: "TensorDType.Float16"
  }
}

layer{
  type: "SelectOp"
  top: "select_9"
  bottom: "view_10"
  layer_param{
    attr_0: 4
    attr_1: 0
    shape: [128, 1, 1, 32]
    dtype: "TensorDType.Float16"
  }
}

layer{
  type: "MulOp"
  top: "mul_8"
  bottom: "select_8"
  bottom: "select_9"
  layer_param{
    shape: [128, 1, 2, 32]
    dtype: "TensorDType.Float16"
  }
}

layer{
  type: "SelectOp"
  top: "select_10"
  bottom: "view_9"
  layer_param{
    attr_0: 4
    attr_1: 1
    shape: [128, 1, 2, 32]
    dtype: "TensorDType.Float16"
  }
}

layer{
  type: "SelectOp"
  top: "select_11"
  bottom: "view_10"
  layer_param{
    attr_0: 4
    attr_1: 1
    shape: [128, 1, 1, 32]
    dtype: "TensorDType.Float16"
  }
}

layer{
  type: "MulOp"
  top: "mul_9"
  bottom: "select_10"
  bottom: "select_11"
  layer_param{
    shape: [128, 1, 2, 32]
    dtype: "TensorDType.Float16"
  }
}

layer{
  type: "SubOp"
  top: "sub_1"
  bottom: "mul_8"
  bottom: "mul_9"
  layer_param{
    shape: [128, 1, 2, 32]
    dtype: "TensorDType.Float16"
  }
}

layer{
  type: "SelectOp"
  top: "select_12"
  bottom: "view_9"
  layer_param{
    attr_0: 4
    attr_1: 1
    shape: [128, 1, 2, 32]
    dtype: "TensorDType.Float16"
  }
}

layer{
  type: "SelectOp"
  top: "select_13"
  bottom: "view_10"
  layer_param{
    attr_0: 4
    attr_1: 0
    shape: [128, 1, 1, 32]
    dtype: "TensorDType.Float16"
  }
}

layer{
  type: "MulOp"
  top: "mul_10"
  bottom: "select_12"
  bottom: "select_13"
  layer_param{
    shape: [128, 1, 2, 32]
    dtype: "TensorDType.Float16"
  }
}

layer{
  type: "SelectOp"
  top: "select_14"
  bottom: "view_9"
  layer_param{
    attr_0: 4
    attr_1: 0
    shape: [128, 1, 2, 32]
    dtype: "TensorDType.Float16"
  }
}

layer{
  type: "SelectOp"
  top: "select_15"
  bottom: "view_10"
  layer_param{
    attr_0: 4
    attr_1: 1
    shape: [128, 1, 1, 32]
    dtype: "TensorDType.Float16"
  }
}

layer{
  type: "MulOp"
  top: "mul_11"
  bottom: "select_14"
  bottom: "select_15"
  layer_param{
    shape: [128, 1, 2, 32]
    dtype: "TensorDType.Float16"
  }
}

layer{
  type: "AddOp"
  top: "add_2"
  bottom: "mul_10"
  bottom: "mul_11"
  layer_param{
    shape: [128, 1, 2, 32]
    dtype: "TensorDType.Float16"
  }
}

layer{
  type: "StackOp"
  top: "stack_2"
  bottom: "sub_1"
  bottom: "add_2"
  layer_param{
    attr_0: -1
    shape: [128, 1, 2, 32, 2]
    dtype: "TensorDType.Float16"
  }
}

layer{
  type: "ViewOp"
  top: "view_11"
  bottom: "stack_2"
  layer_param{
    attr_0: [128, 1, 2, 64]
    shape: [128, 1, 2, 64]
    dtype: "TensorDType.Float16"
  }
}

layer{
  type: "CatOp"
  top: "cat_1"
  bottom: "view_11"
  bottom: "slice_6"
  layer_param{
    attr_0: -1
    shape: [128, 1, 2, 128]
    dtype: "TensorDType.Float16"
  }
}

layer{
  type: "UnsqueezeOp"
  top: "unsqueeze_1"
  bottom: "cat_1"
  layer_param{
    attr_0: -2
    shape: [128, 1, 2, 1, 128]
    dtype: "TensorDType.Float16"
  }
}

layer{
  type: "ExpandOp"
  top: "expand"
  bottom: "unsqueeze_1"
  layer_param{
    attr_0: [-1, -1, -1, 16, -1]
    shape: [128, 1, 2, 16, 128]
    dtype: "TensorDType.Float16"
  }
}

layer{
  type: "CloneOp"
  top: "clone"
  bottom: "expand"
  layer_param{
    shape: [128, 1, 2, 16, 128]
    dtype: "TensorDType.Float16"
  }
}

layer{
  type: "ViewOp"
  top: "view_12"
  bottom: "clone"
  layer_param{
    attr_0: [128, 1, 32, 128]
    shape: [128, 1, 32, 128]
    dtype: "TensorDType.Float16"
  }
}

layer{
  type: "UnsqueezeOp"
  top: "unsqueeze_2"
  bottom: "view_5"
  layer_param{
    attr_0: -2
    shape: [128, 1, 2, 1, 128]
    dtype: "TensorDType.Float16"
  }
}

layer{
  type: "ExpandOp"
  top: "expand_1"
  bottom: "unsqueeze_2"
  layer_param{
    attr_0: [-1, -1, -1, 16, -1]
    shape: [128, 1, 2, 16, 128]
    dtype: "TensorDType.Float16"
  }
}

layer{
  type: "CloneOp"
  top: "clone_1"
  bottom: "expand_1"
  layer_param{
    shape: [128, 1, 2, 16, 128]
    dtype: "TensorDType.Float16"
  }
}

layer{
  type: "ViewOp"
  top: "view_13"
  bottom: "clone_1"
  layer_param{
    attr_0: [128, 1, 32, 128]
    shape: [128, 1, 32, 128]
    dtype: "TensorDType.Float16"
  }
}

layer{
  type: "PermuteOp"
  top: "permute"
  bottom: "cat"
  layer_param{
    attr_0: [1, 2, 0, 3]
    shape: [1, 32, 128, 128]
    dtype: "TensorDType.Float16"
  }
}

layer{
  type: "PermuteOp"
  top: "permute_1"
  bottom: "view_12"
  layer_param{
    attr_0: [1, 2, 0, 3]
    shape: [1, 32, 128, 128]
    dtype: "TensorDType.Float16"
  }
}

layer{
  type: "PermuteOp"
  top: "permute_2"
  bottom: "view_13"
  layer_param{
    attr_0: [1, 2, 0, 3]
    shape: [1, 32, 128, 128]
    dtype: "TensorDType.Float16"
  }
}

layer{
  type: "ScaledDotProductFlashAttentionForCpuOp"
  top: "_scaled_dot_product_flash_attention_for_cpu"
  bottom: "permute"
  bottom: "permute_1"
  bottom: "permute_2"
  layer_param{
    attr_0: 0.0
    attr_1: True
    shape{
      output_0: [1, 32, 128, 128]
      output_1: [1, 32, 128]
    }
  }
}

layer{
  type: "GetItemOp"
  top: "getitem_3"
  bottom: "_scaled_dot_product_flash_attention_for_cpu"
  layer_param{
    attr_0: 0
    shape: [1, 32, 128, 128]
    dtype: "TensorDType.Float16"
  }
}

layer{
  type: "PermuteOp"
  top: "permute_3"
  bottom: "getitem_3"
  layer_param{
    attr_0: [2, 0, 1, 3]
    shape: [128, 1, 32, 128]
    dtype: "TensorDType.Float16"
  }
}

layer{
  type: "ViewOp"
  top: "view_14"
  bottom: "permute_3"
  layer_param{
    attr_0: [128, 1, 4096]
    shape: [128, 1, 4096]
    dtype: "TensorDType.Float16"
  }
}

layer{
  type: "TransposeOp"
  top: "t_1"
  bottom: "arg5_1"
  layer_param{
    shape: [4096, 4096]
    dtype: "TensorDType.Float16"
  }
}

layer{
  type: "ViewOp"
  top: "view_15"
  bottom: "view_14"
  layer_param{
    attr_0: [128, 4096]
    shape: [128, 4096]
    dtype: "TensorDType.Float16"
  }
}

layer{
  type: "MatmulOp"
  top: "mm"
  bottom: "view_15"
  bottom: "t_1"
  layer_param{
    shape: [128, 4096]
    dtype: "TensorDType.Float16"
  }
}

layer{
  type: "ViewOp"
  top: "_unsafe_view"
  bottom: "mm"
  layer_param{
    attr_0: [128, 1, 4096]
    shape: [128, 1, 4096]
    dtype: "TensorDType.Float16"
  }
}

layer{
  type: "CloneOp"
  top: "clone_2"
  bottom: "_unsafe_view"
  layer_param{
    shape: [128, 1, 4096]
    dtype: "TensorDType.Float16"
  }
}

layer{
  type: "AddOp"
  top: "add_3"
  bottom: "transpose"
  bottom: "clone_2"
  layer_param{
    shape: [128, 1, 4096]
    dtype: "TensorDType.Float16"
  }
}

layer{
  type: "PowOp"
  top: "pow_3"
  bottom: "add_3"
  layer_param{
    attr_0: 2
    shape: [128, 1, 4096]
    dtype: "TensorDType.Float32"
  }
}

layer{
  type: "MeanOp"
  top: "mean_1"
  bottom: "pow_3"
  layer_param{
    attr_0: [-1]
    attr_1: True
    shape: [128, 1, 1]
    dtype: "TensorDType.Float32"
  }
}

layer{
  type: "AddOp"
  top: "add_4"
  bottom: "mean_1"
  layer_param{
    attr_0: 1e-05
    shape: [128, 1, 1]
    dtype: "TensorDType.Float32"
  }
}

layer{
  type: "RsqrtOp"
  top: "rsqrt_1"
  bottom: "add_4"
  layer_param{
    shape: [128, 1, 1]
    dtype: "TensorDType.Float32"
  }
}

layer{
  type: "MulOp"
  top: "mul_12"
  bottom: "add_3"
  bottom: "rsqrt_1"
  layer_param{
    shape: [128, 1, 4096]
    dtype: "TensorDType.Float32"
  }
}

layer{
  type: "TransposeOp"
  top: "t_2"
  bottom: "arg7_1"
  layer_param{
    shape: [4096, 27392]
    dtype: "TensorDType.Float16"
  }
}

layer{
  type: "ViewOp"
  top: "view_16"
  bottom: "fuse_ln_mul_13"
  layer_param{
    attr_0: [128, 4096]
    shape: [128, 4096]
    dtype: "TensorDType.Float16"
  }
}

layer{
  type: "MatmulOp"
  top: "mm_1"
  bottom: "view_16"
  bottom: "t_2"
  layer_param{
    shape: [128, 27392]
    dtype: "TensorDType.Float16"
  }
}

layer{
  type: "ViewOp"
  top: "_unsafe_view_1"
  bottom: "mm_1"
  layer_param{
    attr_0: [128, 1, 27392]
    shape: [128, 1, 27392]
    dtype: "TensorDType.Float16"
  }
}

layer{
  type: "SplitOp"
  top: "split"
  bottom: "_unsafe_view_1"
  layer_param{
    attr_0: 13696
    attr_1: -1
    shape{
      output_0: [128, 1, 13696]
      output_1: [128, 1, 13696]
    }
  }
}

layer{
  type: "GetItemOp"
  top: "getitem_5"
  bottom: "split"
  layer_param{
    attr_0: 0
    shape: [128, 1, 13696]
    dtype: "TensorDType.Float16"
  }
}

layer{
  type: "GetItemOp"
  top: "getitem_6"
  bottom: "split"
  layer_param{
    attr_0: 1
    shape: [128, 1, 13696]
    dtype: "TensorDType.Float16"
  }
}

layer{
  type: "SiluOp"
  top: "silu"
  bottom: "getitem_5"
  layer_param{
    shape: [128, 1, 13696]
    dtype: "TensorDType.Float16"
  }
}

layer{
  type: "MulOp"
  top: "mul_14"
  bottom: "silu"
  bottom: "getitem_6"
  layer_param{
    shape: [128, 1, 13696]
    dtype: "TensorDType.Float16"
  }
}

layer{
  type: "TransposeOp"
  top: "t_3"
  bottom: "arg8_1"
  layer_param{
    shape: [13696, 4096]
    dtype: "TensorDType.Float16"
  }
}

layer{
  type: "ViewOp"
  top: "view_17"
  bottom: "mul_14"
  layer_param{
    attr_0: [128, 13696]
    shape: [128, 13696]
    dtype: "TensorDType.Float16"
  }
}

layer{
  type: "MatmulOp"
  top: "mm_2"
  bottom: "view_17"
  bottom: "t_3"
  layer_param{
    shape: [128, 4096]
    dtype: "TensorDType.Float16"
  }
}

layer{
  type: "ViewOp"
  top: "_unsafe_view_2"
  bottom: "mm_2"
  layer_param{
    attr_0: [128, 1, 4096]
    shape: [128, 1, 4096]
    dtype: "TensorDType.Float16"
  }
}

layer{
  type: "CloneOp"
  top: "clone_3"
  bottom: "_unsafe_view_2"
  layer_param{
    shape: [128, 1, 4096]
    dtype: "TensorDType.Float16"
  }
}

layer{
  type: "AddOp"
  top: "add_5"
  bottom: "add_3"
  bottom: "clone_3"
  layer_param{
    shape: [128, 1, 4096]
    dtype: "TensorDType.Float16"
  }
}

layer{
  type: "PowOp"
  top: "pow_4"
  bottom: "add_5"
  layer_param{
    attr_0: 2
    shape: [128, 1, 4096]
    dtype: "TensorDType.Float32"
  }
}

layer{
  type: "MeanOp"
  top: "mean_2"
  bottom: "pow_4"
  layer_param{
    attr_0: [-1]
    attr_1: True
    shape: [128, 1, 1]
    dtype: "TensorDType.Float32"
  }
}

layer{
  type: "AddOp"
  top: "add_6"
  bottom: "mean_2"
  layer_param{
    attr_0: 1e-05
    shape: [128, 1, 1]
    dtype: "TensorDType.Float32"
  }
}

layer{
  type: "RsqrtOp"
  top: "rsqrt_2"
  bottom: "add_6"
  layer_param{
    shape: [128, 1, 1]
    dtype: "TensorDType.Float32"
  }
}

layer{
  type: "MulOp"
  top: "mul_15"
  bottom: "add_5"
  bottom: "rsqrt_2"
  layer_param{
    shape: [128, 1, 4096]
    dtype: "TensorDType.Float32"
  }
}

layer{
  type: "ViewOp"
  top: "view_18"
  bottom: "fuse_ln_mul_16"
  layer_param{
    attr_0: [128, 4096]
    shape: [128, 4096]
    dtype: "TensorDType.Float16"
  }
}

layer{
  type: "TransposeOp"
  top: "t_4"
  bottom: "arg10_1"
  layer_param{
    shape: [4096, 4608]
    dtype: "TensorDType.Float16"
  }
}

layer{
  type: "AddMMOp"
  top: "addmm_1"
  bottom: "arg11_1"
  bottom: "view_18"
  bottom: "t_4"
  layer_param{
    shape: [128, 4608]
    dtype: "TensorDType.Float16"
  }
}

layer{
  type: "ViewOp"
  top: "view_19"
  bottom: "addmm_1"
  layer_param{
    attr_0: [128, 1, 4608]
    shape: [128, 1, 4608]
    dtype: "TensorDType.Float16"
  }
}

layer{
  type: "SplitWithSizeOp"
  top: "split_with_sizes_1"
  bottom: "view_19"
  layer_param{
    attr_0: [4096, 256, 256]
    attr_1: -1
    shape{
      output_0: [128, 1, 4096]
      output_1: [128, 1, 256]
      output_2: [128, 1, 256]
    }
  }
}

layer{
  type: "GetItemOp"
  top: "getitem_7"
  bottom: "split_with_sizes_1"
  layer_param{
    attr_0: 0
    shape: [128, 1, 4096]
    dtype: "TensorDType.Float16"
  }
}

layer{
  type: "GetItemOp"
  top: "getitem_8"
  bottom: "split_with_sizes_1"
  layer_param{
    attr_0: 1
    shape: [128, 1, 256]
    dtype: "TensorDType.Float16"
  }
}

layer{
  type: "GetItemOp"
  top: "getitem_9"
  bottom: "split_with_sizes_1"
  layer_param{
    attr_0: 2
    shape: [128, 1, 256]
    dtype: "TensorDType.Float16"
  }
}

layer{
  type: "ViewOp"
  top: "view_20"
  bottom: "getitem_7"
  layer_param{
    attr_0: [128, 1, 32, 128]
    shape: [128, 1, 32, 128]
    dtype: "TensorDType.Float16"
  }
}

layer{
  type: "ViewOp"
  top: "view_21"
  bottom: "getitem_8"
  layer_param{
    attr_0: [128, 1, 2, 128]
    shape: [128, 1, 2, 128]
    dtype: "TensorDType.Float16"
  }
}

layer{
  type: "ViewOp"
  top: "view_22"
  bottom: "getitem_9"
  layer_param{
    attr_0: [128, 1, 2, 128]
    shape: [128, 1, 2, 128]
    dtype: "TensorDType.Float16"
  }
}

layer{
  type: "SliceOp"
  top: "slice_8"
  bottom: "view_20"
  layer_param{
    attr_0: 3
    attr_1: 0
    attr_2: 64
    shape: [128, 1, 32, 64]
    dtype: "TensorDType.Float16"
  }
}

layer{
  type: "SliceOp"
  top: "slice_9"
  bottom: "view_20"
  layer_param{
    attr_0: 3
    attr_1: 64
    attr_2: 9223372036854775807
    shape: [128, 1, 32, 64]
    dtype: "TensorDType.Float16"
  }
}

layer{
  type: "SliceOp"
  top: "slice_10"
  bottom: "transpose_1"
  layer_param{
    attr_0: 0
    attr_1: 0
    attr_2: 128
    shape: [128, 1, 32, 2]
    dtype: "TensorDType.Float16"
  }
}

layer{
  type: "ViewOp"
  top: "view_23"
  bottom: "slice_8"
  layer_param{
    attr_0: [128, 1, 32, 32, 2]
    shape: [128, 1, 32, 32, 2]
    dtype: "TensorDType.Float16"
  }
}

layer{
  type: "ViewOp"
  top: "view_24"
  bottom: "slice_10"
  layer_param{
    attr_0: [128, -1, 1, 32, 2]
    shape: [128, 1, 1, 32, 2]
    dtype: "TensorDType.Float16"
  }
}

layer{
  type: "SelectOp"
  top: "select_16"
  bottom: "view_23"
  layer_param{
    attr_0: 4
    attr_1: 0
    shape: [128, 1, 32, 32]
    dtype: "TensorDType.Float16"
  }
}

layer{
  type: "SelectOp"
  top: "select_17"
  bottom: "view_24"
  layer_param{
    attr_0: 4
    attr_1: 0
    shape: [128, 1, 1, 32]
    dtype: "TensorDType.Float16"
  }
}

layer{
  type: "MulOp"
  top: "mul_17"
  bottom: "select_16"
  bottom: "select_17"
  layer_param{
    shape: [128, 1, 32, 32]
    dtype: "TensorDType.Float16"
  }
}

layer{
  type: "SelectOp"
  top: "select_18"
  bottom: "view_23"
  layer_param{
    attr_0: 4
    attr_1: 1
    shape: [128, 1, 32, 32]
    dtype: "TensorDType.Float16"
  }
}

layer{
  type: "SelectOp"
  top: "select_19"
  bottom: "view_24"
  layer_param{
    attr_0: 4
    attr_1: 1
    shape: [128, 1, 1, 32]
    dtype: "TensorDType.Float16"
  }
}

layer{
  type: "MulOp"
  top: "mul_18"
  bottom: "select_18"
  bottom: "select_19"
  layer_param{
    shape: [128, 1, 32, 32]
    dtype: "TensorDType.Float16"
  }
}

layer{
  type: "SubOp"
  top: "sub_2"
  bottom: "mul_17"
  bottom: "mul_18"
  layer_param{
    shape: [128, 1, 32, 32]
    dtype: "TensorDType.Float16"
  }
}

layer{
  type: "SelectOp"
  top: "select_20"
  bottom: "view_23"
  layer_param{
    attr_0: 4
    attr_1: 1
    shape: [128, 1, 32, 32]
    dtype: "TensorDType.Float16"
  }
}

layer{
  type: "SelectOp"
  top: "select_21"
  bottom: "view_24"
  layer_param{
    attr_0: 4
    attr_1: 0
    shape: [128, 1, 1, 32]
    dtype: "TensorDType.Float16"
  }
}

layer{
  type: "MulOp"
  top: "mul_19"
  bottom: "select_20"
  bottom: "select_21"
  layer_param{
    shape: [128, 1, 32, 32]
    dtype: "TensorDType.Float16"
  }
}

layer{
  type: "SelectOp"
  top: "select_22"
  bottom: "view_23"
  layer_param{
    attr_0: 4
    attr_1: 0
    shape: [128, 1, 32, 32]
    dtype: "TensorDType.Float16"
  }
}

layer{
  type: "SelectOp"
  top: "select_23"
  bottom: "view_24"
  layer_param{
    attr_0: 4
    attr_1: 1
    shape: [128, 1, 1, 32]
    dtype: "TensorDType.Float16"
  }
}

layer{
  type: "MulOp"
  top: "mul_20"
  bottom: "select_22"
  bottom: "select_23"
  layer_param{
    shape: [128, 1, 32, 32]
    dtype: "TensorDType.Float16"
  }
}

layer{
  type: "AddOp"
  top: "add_7"
  bottom: "mul_19"
  bottom: "mul_20"
  layer_param{
    shape: [128, 1, 32, 32]
    dtype: "TensorDType.Float16"
  }
}

layer{
  type: "StackOp"
  top: "stack_3"
  bottom: "sub_2"
  bottom: "add_7"
  layer_param{
    attr_0: -1
    shape: [128, 1, 32, 32, 2]
    dtype: "TensorDType.Float16"
  }
}

layer{
  type: "ViewOp"
  top: "view_25"
  bottom: "stack_3"
  layer_param{
    attr_0: [128, 1, 32, 64]
    shape: [128, 1, 32, 64]
    dtype: "TensorDType.Float16"
  }
}

layer{
  type: "CatOp"
  top: "cat_2"
  bottom: "view_25"
  bottom: "slice_9"
  layer_param{
    attr_0: -1
    shape: [128, 1, 32, 128]
    dtype: "TensorDType.Float16"
  }
}

layer{
  type: "SliceOp"
  top: "slice_11"
  bottom: "view_21"
  layer_param{
    attr_0: 3
    attr_1: 0
    attr_2: 64
    shape: [128, 1, 2, 64]
    dtype: "TensorDType.Float16"
  }
}

layer{
  type: "SliceOp"
  top: "slice_12"
  bottom: "view_21"
  layer_param{
    attr_0: 3
    attr_1: 64
    attr_2: 9223372036854775807
    shape: [128, 1, 2, 64]
    dtype: "TensorDType.Float16"
  }
}

layer{
  type: "SliceOp"
  top: "slice_13"
  bottom: "transpose_1"
  layer_param{
    attr_0: 0
    attr_1: 0
    attr_2: 128
    shape: [128, 1, 32, 2]
    dtype: "TensorDType.Float16"
  }
}

layer{
  type: "ViewOp"
  top: "view_26"
  bottom: "slice_11"
  layer_param{
    attr_0: [128, 1, 2, 32, 2]
    shape: [128, 1, 2, 32, 2]
    dtype: "TensorDType.Float16"
  }
}

layer{
  type: "ViewOp"
  top: "view_27"
  bottom: "slice_13"
  layer_param{
    attr_0: [128, -1, 1, 32, 2]
    shape: [128, 1, 1, 32, 2]
    dtype: "TensorDType.Float16"
  }
}

layer{
  type: "SelectOp"
  top: "select_24"
  bottom: "view_26"
  layer_param{
    attr_0: 4
    attr_1: 0
    shape: [128, 1, 2, 32]
    dtype: "TensorDType.Float16"
  }
}

layer{
  type: "SelectOp"
  top: "select_25"
  bottom: "view_27"
  layer_param{
    attr_0: 4
    attr_1: 0
    shape: [128, 1, 1, 32]
    dtype: "TensorDType.Float16"
  }
}

layer{
  type: "MulOp"
  top: "mul_21"
  bottom: "select_24"
  bottom: "select_25"
  layer_param{
    shape: [128, 1, 2, 32]
    dtype: "TensorDType.Float16"
  }
}

layer{
  type: "SelectOp"
  top: "select_26"
  bottom: "view_26"
  layer_param{
    attr_0: 4
    attr_1: 1
    shape: [128, 1, 2, 32]
    dtype: "TensorDType.Float16"
  }
}

layer{
  type: "SelectOp"
  top: "select_27"
  bottom: "view_27"
  layer_param{
    attr_0: 4
    attr_1: 1
    shape: [128, 1, 1, 32]
    dtype: "TensorDType.Float16"
  }
}

layer{
  type: "MulOp"
  top: "mul_22"
  bottom: "select_26"
  bottom: "select_27"
  layer_param{
    shape: [128, 1, 2, 32]
    dtype: "TensorDType.Float16"
  }
}

layer{
  type: "SubOp"
  top: "sub_3"
  bottom: "mul_21"
  bottom: "mul_22"
  layer_param{
    shape: [128, 1, 2, 32]
    dtype: "TensorDType.Float16"
  }
}

layer{
  type: "SelectOp"
  top: "select_28"
  bottom: "view_26"
  layer_param{
    attr_0: 4
    attr_1: 1
    shape: [128, 1, 2, 32]
    dtype: "TensorDType.Float16"
  }
}

layer{
  type: "SelectOp"
  top: "select_29"
  bottom: "view_27"
  layer_param{
    attr_0: 4
    attr_1: 0
    shape: [128, 1, 1, 32]
    dtype: "TensorDType.Float16"
  }
}

layer{
  type: "MulOp"
  top: "mul_23"
  bottom: "select_28"
  bottom: "select_29"
  layer_param{
    shape: [128, 1, 2, 32]
    dtype: "TensorDType.Float16"
  }
}

layer{
  type: "SelectOp"
  top: "select_30"
  bottom: "view_26"
  layer_param{
    attr_0: 4
    attr_1: 0
    shape: [128, 1, 2, 32]
    dtype: "TensorDType.Float16"
  }
}

layer{
  type: "SelectOp"
  top: "select_31"
  bottom: "view_27"
  layer_param{
    attr_0: 4
    attr_1: 1
    shape: [128, 1, 1, 32]
    dtype: "TensorDType.Float16"
  }
}

layer{
  type: "MulOp"
  top: "mul_24"
  bottom: "select_30"
  bottom: "select_31"
  layer_param{
    shape: [128, 1, 2, 32]
    dtype: "TensorDType.Float16"
  }
}

layer{
  type: "AddOp"
  top: "add_8"
  bottom: "mul_23"
  bottom: "mul_24"
  layer_param{
    shape: [128, 1, 2, 32]
    dtype: "TensorDType.Float16"
  }
}

layer{
  type: "StackOp"
  top: "stack_4"
  bottom: "sub_3"
  bottom: "add_8"
  layer_param{
    attr_0: -1
    shape: [128, 1, 2, 32, 2]
    dtype: "TensorDType.Float16"
  }
}

layer{
  type: "ViewOp"
  top: "view_28"
  bottom: "stack_4"
  layer_param{
    attr_0: [128, 1, 2, 64]
    shape: [128, 1, 2, 64]
    dtype: "TensorDType.Float16"
  }
}

layer{
  type: "CatOp"
  top: "cat_3"
  bottom: "view_28"
  bottom: "slice_12"
  layer_param{
    attr_0: -1
    shape: [128, 1, 2, 128]
    dtype: "TensorDType.Float16"
  }
}

layer{
  type: "UnsqueezeOp"
  top: "unsqueeze_3"
  bottom: "cat_3"
  layer_param{
    attr_0: -2
    shape: [128, 1, 2, 1, 128]
    dtype: "TensorDType.Float16"
  }
}

layer{
  type: "ExpandOp"
  top: "expand_2"
  bottom: "unsqueeze_3"
  layer_param{
    attr_0: [-1, -1, -1, 16, -1]
    shape: [128, 1, 2, 16, 128]
    dtype: "TensorDType.Float16"
  }
}

layer{
  type: "CloneOp"
  top: "clone_4"
  bottom: "expand_2"
  layer_param{
    shape: [128, 1, 2, 16, 128]
    dtype: "TensorDType.Float16"
  }
}

layer{
  type: "ViewOp"
  top: "view_29"
  bottom: "clone_4"
  layer_param{
    attr_0: [128, 1, 32, 128]
    shape: [128, 1, 32, 128]
    dtype: "TensorDType.Float16"
  }
}

layer{
  type: "UnsqueezeOp"
  top: "unsqueeze_4"
  bottom: "view_22"
  layer_param{
    attr_0: -2
    shape: [128, 1, 2, 1, 128]
    dtype: "TensorDType.Float16"
  }
}

layer{
  type: "ExpandOp"
  top: "expand_3"
  bottom: "unsqueeze_4"
  layer_param{
    attr_0: [-1, -1, -1, 16, -1]
    shape: [128, 1, 2, 16, 128]
    dtype: "TensorDType.Float16"
  }
}

layer{
  type: "CloneOp"
  top: "clone_5"
  bottom: "expand_3"
  layer_param{
    shape: [128, 1, 2, 16, 128]
    dtype: "TensorDType.Float16"
  }
}

layer{
  type: "ViewOp"
  top: "view_30"
  bottom: "clone_5"
  layer_param{
    attr_0: [128, 1, 32, 128]
    shape: [128, 1, 32, 128]
    dtype: "TensorDType.Float16"
  }
}

layer{
  type: "PermuteOp"
  top: "permute_4"
  bottom: "cat_2"
  layer_param{
    attr_0: [1, 2, 0, 3]
    shape: [1, 32, 128, 128]
    dtype: "TensorDType.Float16"
  }
}

layer{
  type: "PermuteOp"
  top: "permute_5"
  bottom: "view_29"
  layer_param{
    attr_0: [1, 2, 0, 3]
    shape: [1, 32, 128, 128]
    dtype: "TensorDType.Float16"
  }
}

layer{
  type: "PermuteOp"
  top: "permute_6"
  bottom: "view_30"
  layer_param{
    attr_0: [1, 2, 0, 3]
    shape: [1, 32, 128, 128]
    dtype: "TensorDType.Float16"
  }
}

layer{
  type: "ScaledDotProductFlashAttentionForCpuOp"
  top: "_scaled_dot_product_flash_attention_for_cpu_1"
  bottom: "permute_4"
  bottom: "permute_5"
  bottom: "permute_6"
  layer_param{
    attr_0: 0.0
    attr_1: True
    shape{
      output_0: [1, 32, 128, 128]
      output_1: [1, 32, 128]
    }
  }
}

layer{
  type: "GetItemOp"
  top: "getitem_10"
  bottom: "_scaled_dot_product_flash_attention_for_cpu_1"
  layer_param{
    attr_0: 0
    shape: [1, 32, 128, 128]
    dtype: "TensorDType.Float16"
  }
}

layer{
  type: "PermuteOp"
  top: "permute_7"
  bottom: "getitem_10"
  layer_param{
    attr_0: [2, 0, 1, 3]
    shape: [128, 1, 32, 128]
    dtype: "TensorDType.Float16"
  }
}

layer{
  type: "ViewOp"
  top: "view_31"
  bottom: "permute_7"
  layer_param{
    attr_0: [128, 1, 4096]
    shape: [128, 1, 4096]
    dtype: "TensorDType.Float16"
  }
}

layer{
  type: "TransposeOp"
  top: "t_5"
  bottom: "arg12_1"
  layer_param{
    shape: [4096, 4096]
    dtype: "TensorDType.Float16"
  }
}

layer{
  type: "ViewOp"
  top: "view_32"
  bottom: "view_31"
  layer_param{
    attr_0: [128, 4096]
    shape: [128, 4096]
    dtype: "TensorDType.Float16"
  }
}

layer{
  type: "MatmulOp"
  top: "mm_3"
  bottom: "view_32"
  bottom: "t_5"
  layer_param{
    shape: [128, 4096]
    dtype: "TensorDType.Float16"
  }
}

layer{
  type: "ViewOp"
  top: "_unsafe_view_3"
  bottom: "mm_3"
  layer_param{
    attr_0: [128, 1, 4096]
    shape: [128, 1, 4096]
    dtype: "TensorDType.Float16"
  }
}

layer{
  type: "CloneOp"
  top: "clone_6"
  bottom: "_unsafe_view_3"
  layer_param{
    shape: [128, 1, 4096]
    dtype: "TensorDType.Float16"
  }
}

layer{
  type: "AddOp"
  top: "add_9"
  bottom: "add_5"
  bottom: "clone_6"
  layer_param{
    shape: [128, 1, 4096]
    dtype: "TensorDType.Float16"
  }
}

layer{
  type: "PowOp"
  top: "pow_5"
  bottom: "add_9"
  layer_param{
    attr_0: 2
    shape: [128, 1, 4096]
    dtype: "TensorDType.Float32"
  }
}

layer{
  type: "MeanOp"
  top: "mean_3"
  bottom: "pow_5"
  layer_param{
    attr_0: [-1]
    attr_1: True
    shape: [128, 1, 1]
    dtype: "TensorDType.Float32"
  }
}

layer{
  type: "AddOp"
  top: "add_10"
  bottom: "mean_3"
  layer_param{
    attr_0: 1e-05
    shape: [128, 1, 1]
    dtype: "TensorDType.Float32"
  }
}

layer{
  type: "RsqrtOp"
  top: "rsqrt_3"
  bottom: "add_10"
  layer_param{
    shape: [128, 1, 1]
    dtype: "TensorDType.Float32"
  }
}

layer{
  type: "MulOp"
  top: "mul_25"
  bottom: "add_9"
  bottom: "rsqrt_3"
  layer_param{
    shape: [128, 1, 4096]
    dtype: "TensorDType.Float32"
  }
}

layer{
  type: "TransposeOp"
  top: "t_6"
  bottom: "arg14_1"
  layer_param{
    shape: [4096, 27392]
    dtype: "TensorDType.Float16"
  }
}

layer{
  type: "ViewOp"
  top: "view_33"
  bottom: "fuse_ln_mul_26"
  layer_param{
    attr_0: [128, 4096]
    shape: [128, 4096]
    dtype: "TensorDType.Float16"
  }
}

layer{
  type: "MatmulOp"
  top: "mm_4"
  bottom: "view_33"
  bottom: "t_6"
  layer_param{
    shape: [128, 27392]
    dtype: "TensorDType.Float16"
  }
}

layer{
  type: "ViewOp"
  top: "_unsafe_view_4"
  bottom: "mm_4"
  layer_param{
    attr_0: [128, 1, 27392]
    shape: [128, 1, 27392]
    dtype: "TensorDType.Float16"
  }
}

layer{
  type: "SplitOp"
  top: "split_1"
  bottom: "_unsafe_view_4"
  layer_param{
    attr_0: 13696
    attr_1: -1
    shape{
      output_0: [128, 1, 13696]
      output_1: [128, 1, 13696]
    }
  }
}

layer{
  type: "GetItemOp"
  top: "getitem_12"
  bottom: "split_1"
  layer_param{
    attr_0: 0
    shape: [128, 1, 13696]
    dtype: "TensorDType.Float16"
  }
}

layer{
  type: "GetItemOp"
  top: "getitem_13"
  bottom: "split_1"
  layer_param{
    attr_0: 1
    shape: [128, 1, 13696]
    dtype: "TensorDType.Float16"
  }
}

layer{
  type: "SiluOp"
  top: "silu_1"
  bottom: "getitem_12"
  layer_param{
    shape: [128, 1, 13696]
    dtype: "TensorDType.Float16"
  }
}

layer{
  type: "MulOp"
  top: "mul_27"
  bottom: "silu_1"
  bottom: "getitem_13"
  layer_param{
    shape: [128, 1, 13696]
    dtype: "TensorDType.Float16"
  }
}

layer{
  type: "TransposeOp"
  top: "t_7"
  bottom: "arg15_1"
  layer_param{
    shape: [13696, 4096]
    dtype: "TensorDType.Float16"
  }
}

layer{
  type: "ViewOp"
  top: "view_34"
  bottom: "mul_27"
  layer_param{
    attr_0: [128, 13696]
    shape: [128, 13696]
    dtype: "TensorDType.Float16"
  }
}

layer{
  type: "MatmulOp"
  top: "mm_5"
  bottom: "view_34"
  bottom: "t_7"
  layer_param{
    shape: [128, 4096]
    dtype: "TensorDType.Float16"
  }
}

layer{
  type: "ViewOp"
  top: "_unsafe_view_5"
  bottom: "mm_5"
  layer_param{
    attr_0: [128, 1, 4096]
    shape: [128, 1, 4096]
    dtype: "TensorDType.Float16"
  }
}

layer{
  type: "CloneOp"
  top: "clone_7"
  bottom: "_unsafe_view_5"
  layer_param{
    shape: [128, 1, 4096]
    dtype: "TensorDType.Float16"
  }
}

layer{
  type: "AddOp"
  top: "add_11"
  bottom: "add_9"
  bottom: "clone_7"
  layer_param{
    shape: [128, 1, 4096]
    dtype: "TensorDType.Float16"
  }
}

layer{
  type: "PowOp"
  top: "pow_6"
  bottom: "add_11"
  layer_param{
    attr_0: 2
    shape: [128, 1, 4096]
    dtype: "TensorDType.Float32"
  }
}

layer{
  type: "MeanOp"
  top: "mean_4"
  bottom: "pow_6"
  layer_param{
    attr_0: [-1]
    attr_1: True
    shape: [128, 1, 1]
    dtype: "TensorDType.Float32"
  }
}

layer{
  type: "AddOp"
  top: "add_12"
  bottom: "mean_4"
  layer_param{
    attr_0: 1e-05
    shape: [128, 1, 1]
    dtype: "TensorDType.Float32"
  }
}

layer{
  type: "RsqrtOp"
  top: "rsqrt_4"
  bottom: "add_12"
  layer_param{
    shape: [128, 1, 1]
    dtype: "TensorDType.Float32"
  }
}

layer{
  type: "MulOp"
  top: "mul_28"
  bottom: "add_11"
  bottom: "rsqrt_4"
  layer_param{
    shape: [128, 1, 4096]
    dtype: "TensorDType.Float32"
  }
}

layer{
  type: "ViewOp"
  top: "view_35"
  bottom: "fuse_ln_mul_29"
  layer_param{
    attr_0: [128, 4096]
    shape: [128, 4096]
    dtype: "TensorDType.Float16"
  }
}

layer{
  type: "TransposeOp"
  top: "t_8"
  bottom: "arg17_1"
  layer_param{
    shape: [4096, 4608]
    dtype: "TensorDType.Float16"
  }
}

layer{
  type: "AddMMOp"
  top: "addmm_2"
  bottom: "arg18_1"
  bottom: "view_35"
  bottom: "t_8"
  layer_param{
    shape: [128, 4608]
    dtype: "TensorDType.Float16"
  }
}

layer{
  type: "ViewOp"
  top: "view_36"
  bottom: "addmm_2"
  layer_param{
    attr_0: [128, 1, 4608]
    shape: [128, 1, 4608]
    dtype: "TensorDType.Float16"
  }
}

layer{
  type: "SplitWithSizeOp"
  top: "split_with_sizes_2"
  bottom: "view_36"
  layer_param{
    attr_0: [4096, 256, 256]
    attr_1: -1
    shape{
      output_0: [128, 1, 4096]
      output_1: [128, 1, 256]
      output_2: [128, 1, 256]
    }
  }
}

layer{
  type: "GetItemOp"
  top: "getitem_14"
  bottom: "split_with_sizes_2"
  layer_param{
    attr_0: 0
    shape: [128, 1, 4096]
    dtype: "TensorDType.Float16"
  }
}

layer{
  type: "GetItemOp"
  top: "getitem_15"
  bottom: "split_with_sizes_2"
  layer_param{
    attr_0: 1
    shape: [128, 1, 256]
    dtype: "TensorDType.Float16"
  }
}

layer{
  type: "GetItemOp"
  top: "getitem_16"
  bottom: "split_with_sizes_2"
  layer_param{
    attr_0: 2
    shape: [128, 1, 256]
    dtype: "TensorDType.Float16"
  }
}

layer{
  type: "ViewOp"
  top: "view_37"
  bottom: "getitem_14"
  layer_param{
    attr_0: [128, 1, 32, 128]
    shape: [128, 1, 32, 128]
    dtype: "TensorDType.Float16"
  }
}

layer{
  type: "ViewOp"
  top: "view_38"
  bottom: "getitem_15"
  layer_param{
    attr_0: [128, 1, 2, 128]
    shape: [128, 1, 2, 128]
    dtype: "TensorDType.Float16"
  }
}

layer{
  type: "ViewOp"
  top: "view_39"
  bottom: "getitem_16"
  layer_param{
    attr_0: [128, 1, 2, 128]
    shape: [128, 1, 2, 128]
    dtype: "TensorDType.Float16"
  }
}

layer{
  type: "SliceOp"
  top: "slice_14"
  bottom: "view_37"
  layer_param{
    attr_0: 3
    attr_1: 0
    attr_2: 64
    shape: [128, 1, 32, 64]
    dtype: "TensorDType.Float16"
  }
}

layer{
  type: "SliceOp"
  top: "slice_15"
  bottom: "view_37"
  layer_param{
    attr_0: 3
    attr_1: 64
    attr_2: 9223372036854775807
    shape: [128, 1, 32, 64]
    dtype: "TensorDType.Float16"
  }
}

layer{
  type: "SliceOp"
  top: "slice_16"
  bottom: "transpose_1"
  layer_param{
    attr_0: 0
    attr_1: 0
    attr_2: 128
    shape: [128, 1, 32, 2]
    dtype: "TensorDType.Float16"
  }
}

layer{
  type: "ViewOp"
  top: "view_40"
  bottom: "slice_14"
  layer_param{
    attr_0: [128, 1, 32, 32, 2]
    shape: [128, 1, 32, 32, 2]
    dtype: "TensorDType.Float16"
  }
}

layer{
  type: "ViewOp"
  top: "view_41"
  bottom: "slice_16"
  layer_param{
    attr_0: [128, -1, 1, 32, 2]
    shape: [128, 1, 1, 32, 2]
    dtype: "TensorDType.Float16"
  }
}

layer{
  type: "SelectOp"
  top: "select_32"
  bottom: "view_40"
  layer_param{
    attr_0: 4
    attr_1: 0
    shape: [128, 1, 32, 32]
    dtype: "TensorDType.Float16"
  }
}

layer{
  type: "SelectOp"
  top: "select_33"
  bottom: "view_41"
  layer_param{
    attr_0: 4
    attr_1: 0
    shape: [128, 1, 1, 32]
    dtype: "TensorDType.Float16"
  }
}

layer{
  type: "MulOp"
  top: "mul_30"
  bottom: "select_32"
  bottom: "select_33"
  layer_param{
    shape: [128, 1, 32, 32]
    dtype: "TensorDType.Float16"
  }
}

layer{
  type: "SelectOp"
  top: "select_34"
  bottom: "view_40"
  layer_param{
    attr_0: 4
    attr_1: 1
    shape: [128, 1, 32, 32]
    dtype: "TensorDType.Float16"
  }
}

layer{
  type: "SelectOp"
  top: "select_35"
  bottom: "view_41"
  layer_param{
    attr_0: 4
    attr_1: 1
    shape: [128, 1, 1, 32]
    dtype: "TensorDType.Float16"
  }
}

layer{
  type: "MulOp"
  top: "mul_31"
  bottom: "select_34"
  bottom: "select_35"
  layer_param{
    shape: [128, 1, 32, 32]
    dtype: "TensorDType.Float16"
  }
}

layer{
  type: "SubOp"
  top: "sub_4"
  bottom: "mul_30"
  bottom: "mul_31"
  layer_param{
    shape: [128, 1, 32, 32]
    dtype: "TensorDType.Float16"
  }
}

layer{
  type: "SelectOp"
  top: "select_36"
  bottom: "view_40"
  layer_param{
    attr_0: 4
    attr_1: 1
    shape: [128, 1, 32, 32]
    dtype: "TensorDType.Float16"
  }
}

layer{
  type: "SelectOp"
  top: "select_37"
  bottom: "view_41"
  layer_param{
    attr_0: 4
    attr_1: 0
    shape: [128, 1, 1, 32]
    dtype: "TensorDType.Float16"
  }
}

layer{
  type: "MulOp"
  top: "mul_32"
  bottom: "select_36"
  bottom: "select_37"
  layer_param{
    shape: [128, 1, 32, 32]
    dtype: "TensorDType.Float16"
  }
}

layer{
  type: "SelectOp"
  top: "select_38"
  bottom: "view_40"
  layer_param{
    attr_0: 4
    attr_1: 0
    shape: [128, 1, 32, 32]
    dtype: "TensorDType.Float16"
  }
}

layer{
  type: "SelectOp"
  top: "select_39"
  bottom: "view_41"
  layer_param{
    attr_0: 4
    attr_1: 1
    shape: [128, 1, 1, 32]
    dtype: "TensorDType.Float16"
  }
}

layer{
  type: "MulOp"
  top: "mul_33"
  bottom: "select_38"
  bottom: "select_39"
  layer_param{
    shape: [128, 1, 32, 32]
    dtype: "TensorDType.Float16"
  }
}

layer{
  type: "AddOp"
  top: "add_13"
  bottom: "mul_32"
  bottom: "mul_33"
  layer_param{
    shape: [128, 1, 32, 32]
    dtype: "TensorDType.Float16"
  }
}

layer{
  type: "StackOp"
  top: "stack_5"
  bottom: "sub_4"
  bottom: "add_13"
  layer_param{
    attr_0: -1
    shape: [128, 1, 32, 32, 2]
    dtype: "TensorDType.Float16"
  }
}

layer{
  type: "ViewOp"
  top: "view_42"
  bottom: "stack_5"
  layer_param{
    attr_0: [128, 1, 32, 64]
    shape: [128, 1, 32, 64]
    dtype: "TensorDType.Float16"
  }
}

layer{
  type: "CatOp"
  top: "cat_4"
  bottom: "view_42"
  bottom: "slice_15"
  layer_param{
    attr_0: -1
    shape: [128, 1, 32, 128]
    dtype: "TensorDType.Float16"
  }
}

layer{
  type: "SliceOp"
  top: "slice_17"
  bottom: "view_38"
  layer_param{
    attr_0: 3
    attr_1: 0
    attr_2: 64
    shape: [128, 1, 2, 64]
    dtype: "TensorDType.Float16"
  }
}

layer{
  type: "SliceOp"
  top: "slice_18"
  bottom: "view_38"
  layer_param{
    attr_0: 3
    attr_1: 64
    attr_2: 9223372036854775807
    shape: [128, 1, 2, 64]
    dtype: "TensorDType.Float16"
  }
}

layer{
  type: "SliceOp"
  top: "slice_19"
  bottom: "transpose_1"
  layer_param{
    attr_0: 0
    attr_1: 0
    attr_2: 128
    shape: [128, 1, 32, 2]
    dtype: "TensorDType.Float16"
  }
}

layer{
  type: "ViewOp"
  top: "view_43"
  bottom: "slice_17"
  layer_param{
    attr_0: [128, 1, 2, 32, 2]
    shape: [128, 1, 2, 32, 2]
    dtype: "TensorDType.Float16"
  }
}

layer{
  type: "ViewOp"
  top: "view_44"
  bottom: "slice_19"
  layer_param{
    attr_0: [128, -1, 1, 32, 2]
    shape: [128, 1, 1, 32, 2]
    dtype: "TensorDType.Float16"
  }
}

layer{
  type: "SelectOp"
  top: "select_40"
  bottom: "view_43"
  layer_param{
    attr_0: 4
    attr_1: 0
    shape: [128, 1, 2, 32]
    dtype: "TensorDType.Float16"
  }
}

layer{
  type: "SelectOp"
  top: "select_41"
  bottom: "view_44"
  layer_param{
    attr_0: 4
    attr_1: 0
    shape: [128, 1, 1, 32]
    dtype: "TensorDType.Float16"
  }
}

layer{
  type: "MulOp"
  top: "mul_34"
  bottom: "select_40"
  bottom: "select_41"
  layer_param{
    shape: [128, 1, 2, 32]
    dtype: "TensorDType.Float16"
  }
}

layer{
  type: "SelectOp"
  top: "select_42"
  bottom: "view_43"
  layer_param{
    attr_0: 4
    attr_1: 1
    shape: [128, 1, 2, 32]
    dtype: "TensorDType.Float16"
  }
}

layer{
  type: "SelectOp"
  top: "select_43"
  bottom: "view_44"
  layer_param{
    attr_0: 4
    attr_1: 1
    shape: [128, 1, 1, 32]
    dtype: "TensorDType.Float16"
  }
}

layer{
  type: "MulOp"
  top: "mul_35"
  bottom: "select_42"
  bottom: "select_43"
  layer_param{
    shape: [128, 1, 2, 32]
    dtype: "TensorDType.Float16"
  }
}

layer{
  type: "SubOp"
  top: "sub_5"
  bottom: "mul_34"
  bottom: "mul_35"
  layer_param{
    shape: [128, 1, 2, 32]
    dtype: "TensorDType.Float16"
  }
}

layer{
  type: "SelectOp"
  top: "select_44"
  bottom: "view_43"
  layer_param{
    attr_0: 4
    attr_1: 1
    shape: [128, 1, 2, 32]
    dtype: "TensorDType.Float16"
  }
}

layer{
  type: "SelectOp"
  top: "select_45"
  bottom: "view_44"
  layer_param{
    attr_0: 4
    attr_1: 0
    shape: [128, 1, 1, 32]
    dtype: "TensorDType.Float16"
  }
}

layer{
  type: "MulOp"
  top: "mul_36"
  bottom: "select_44"
  bottom: "select_45"
  layer_param{
    shape: [128, 1, 2, 32]
    dtype: "TensorDType.Float16"
  }
}

layer{
  type: "SelectOp"
  top: "select_46"
  bottom: "view_43"
  layer_param{
    attr_0: 4
    attr_1: 0
    shape: [128, 1, 2, 32]
    dtype: "TensorDType.Float16"
  }
}

layer{
  type: "SelectOp"
  top: "select_47"
  bottom: "view_44"
  layer_param{
    attr_0: 4
    attr_1: 1
    shape: [128, 1, 1, 32]
    dtype: "TensorDType.Float16"
  }
}

layer{
  type: "MulOp"
  top: "mul_37"
  bottom: "select_46"
  bottom: "select_47"
  layer_param{
    shape: [128, 1, 2, 32]
    dtype: "TensorDType.Float16"
  }
}

layer{
  type: "AddOp"
  top: "add_14"
  bottom: "mul_36"
  bottom: "mul_37"
  layer_param{
    shape: [128, 1, 2, 32]
    dtype: "TensorDType.Float16"
  }
}

layer{
  type: "StackOp"
  top: "stack_6"
  bottom: "sub_5"
  bottom: "add_14"
  layer_param{
    attr_0: -1
    shape: [128, 1, 2, 32, 2]
    dtype: "TensorDType.Float16"
  }
}

layer{
  type: "ViewOp"
  top: "view_45"
  bottom: "stack_6"
  layer_param{
    attr_0: [128, 1, 2, 64]
    shape: [128, 1, 2, 64]
    dtype: "TensorDType.Float16"
  }
}

layer{
  type: "CatOp"
  top: "cat_5"
  bottom: "view_45"
  bottom: "slice_18"
  layer_param{
    attr_0: -1
    shape: [128, 1, 2, 128]
    dtype: "TensorDType.Float16"
  }
}

layer{
  type: "UnsqueezeOp"
  top: "unsqueeze_5"
  bottom: "cat_5"
  layer_param{
    attr_0: -2
    shape: [128, 1, 2, 1, 128]
    dtype: "TensorDType.Float16"
  }
}

layer{
  type: "ExpandOp"
  top: "expand_4"
  bottom: "unsqueeze_5"
  layer_param{
    attr_0: [-1, -1, -1, 16, -1]
    shape: [128, 1, 2, 16, 128]
    dtype: "TensorDType.Float16"
  }
}

layer{
  type: "CloneOp"
  top: "clone_8"
  bottom: "expand_4"
  layer_param{
    shape: [128, 1, 2, 16, 128]
    dtype: "TensorDType.Float16"
  }
}

layer{
  type: "ViewOp"
  top: "view_46"
  bottom: "clone_8"
  layer_param{
    attr_0: [128, 1, 32, 128]
    shape: [128, 1, 32, 128]
    dtype: "TensorDType.Float16"
  }
}

layer{
  type: "UnsqueezeOp"
  top: "unsqueeze_6"
  bottom: "view_39"
  layer_param{
    attr_0: -2
    shape: [128, 1, 2, 1, 128]
    dtype: "TensorDType.Float16"
  }
}

layer{
  type: "ExpandOp"
  top: "expand_5"
  bottom: "unsqueeze_6"
  layer_param{
    attr_0: [-1, -1, -1, 16, -1]
    shape: [128, 1, 2, 16, 128]
    dtype: "TensorDType.Float16"
  }
}

layer{
  type: "CloneOp"
  top: "clone_9"
  bottom: "expand_5"
  layer_param{
    shape: [128, 1, 2, 16, 128]
    dtype: "TensorDType.Float16"
  }
}

layer{
  type: "ViewOp"
  top: "view_47"
  bottom: "clone_9"
  layer_param{
    attr_0: [128, 1, 32, 128]
    shape: [128, 1, 32, 128]
    dtype: "TensorDType.Float16"
  }
}

layer{
  type: "PermuteOp"
  top: "permute_8"
  bottom: "cat_4"
  layer_param{
    attr_0: [1, 2, 0, 3]
    shape: [1, 32, 128, 128]
    dtype: "TensorDType.Float16"
  }
}

layer{
  type: "PermuteOp"
  top: "permute_9"
  bottom: "view_46"
  layer_param{
    attr_0: [1, 2, 0, 3]
    shape: [1, 32, 128, 128]
    dtype: "TensorDType.Float16"
  }
}

layer{
  type: "PermuteOp"
  top: "permute_10"
  bottom: "view_47"
  layer_param{
    attr_0: [1, 2, 0, 3]
    shape: [1, 32, 128, 128]
    dtype: "TensorDType.Float16"
  }
}

layer{
  type: "ScaledDotProductFlashAttentionForCpuOp"
  top: "_scaled_dot_product_flash_attention_for_cpu_2"
  bottom: "permute_8"
  bottom: "permute_9"
  bottom: "permute_10"
  layer_param{
    attr_0: 0.0
    attr_1: True
    shape{
      output_0: [1, 32, 128, 128]
      output_1: [1, 32, 128]
    }
  }
}

layer{
  type: "GetItemOp"
  top: "getitem_17"
  bottom: "_scaled_dot_product_flash_attention_for_cpu_2"
  layer_param{
    attr_0: 0
    shape: [1, 32, 128, 128]
    dtype: "TensorDType.Float16"
  }
}

layer{
  type: "PermuteOp"
  top: "permute_11"
  bottom: "getitem_17"
  layer_param{
    attr_0: [2, 0, 1, 3]
    shape: [128, 1, 32, 128]
    dtype: "TensorDType.Float16"
  }
}

layer{
  type: "ViewOp"
  top: "view_48"
  bottom: "permute_11"
  layer_param{
    attr_0: [128, 1, 4096]
    shape: [128, 1, 4096]
    dtype: "TensorDType.Float16"
  }
}

layer{
  type: "TransposeOp"
  top: "t_9"
  bottom: "arg19_1"
  layer_param{
    shape: [4096, 4096]
    dtype: "TensorDType.Float16"
  }
}

layer{
  type: "ViewOp"
  top: "view_49"
  bottom: "view_48"
  layer_param{
    attr_0: [128, 4096]
    shape: [128, 4096]
    dtype: "TensorDType.Float16"
  }
}

layer{
  type: "MatmulOp"
  top: "mm_6"
  bottom: "view_49"
  bottom: "t_9"
  layer_param{
    shape: [128, 4096]
    dtype: "TensorDType.Float16"
  }
}

layer{
  type: "ViewOp"
  top: "_unsafe_view_6"
  bottom: "mm_6"
  layer_param{
    attr_0: [128, 1, 4096]
    shape: [128, 1, 4096]
    dtype: "TensorDType.Float16"
  }
}

layer{
  type: "CloneOp"
  top: "clone_10"
  bottom: "_unsafe_view_6"
  layer_param{
    shape: [128, 1, 4096]
    dtype: "TensorDType.Float16"
  }
}

layer{
  type: "AddOp"
  top: "add_15"
  bottom: "add_11"
  bottom: "clone_10"
  layer_param{
    shape: [128, 1, 4096]
    dtype: "TensorDType.Float16"
  }
}

layer{
  type: "PowOp"
  top: "pow_7"
  bottom: "add_15"
  layer_param{
    attr_0: 2
    shape: [128, 1, 4096]
    dtype: "TensorDType.Float32"
  }
}

layer{
  type: "MeanOp"
  top: "mean_5"
  bottom: "pow_7"
  layer_param{
    attr_0: [-1]
    attr_1: True
    shape: [128, 1, 1]
    dtype: "TensorDType.Float32"
  }
}

layer{
  type: "AddOp"
  top: "add_16"
  bottom: "mean_5"
  layer_param{
    attr_0: 1e-05
    shape: [128, 1, 1]
    dtype: "TensorDType.Float32"
  }
}

layer{
  type: "RsqrtOp"
  top: "rsqrt_5"
  bottom: "add_16"
  layer_param{
    shape: [128, 1, 1]
    dtype: "TensorDType.Float32"
  }
}

layer{
  type: "MulOp"
  top: "mul_38"
  bottom: "add_15"
  bottom: "rsqrt_5"
  layer_param{
    shape: [128, 1, 4096]
    dtype: "TensorDType.Float32"
  }
}

layer{
  type: "TransposeOp"
  top: "t_10"
  bottom: "arg21_1"
  layer_param{
    shape: [4096, 27392]
    dtype: "TensorDType.Float16"
  }
}

layer{
  type: "ViewOp"
  top: "view_50"
  bottom: "fuse_ln_mul_39"
  layer_param{
    attr_0: [128, 4096]
    shape: [128, 4096]
    dtype: "TensorDType.Float16"
  }
}

layer{
  type: "MatmulOp"
  top: "mm_7"
  bottom: "view_50"
  bottom: "t_10"
  layer_param{
    shape: [128, 27392]
    dtype: "TensorDType.Float16"
  }
}

layer{
  type: "ViewOp"
  top: "_unsafe_view_7"
  bottom: "mm_7"
  layer_param{
    attr_0: [128, 1, 27392]
    shape: [128, 1, 27392]
    dtype: "TensorDType.Float16"
  }
}

layer{
  type: "SplitOp"
  top: "split_2"
  bottom: "_unsafe_view_7"
  layer_param{
    attr_0: 13696
    attr_1: -1
    shape{
      output_0: [128, 1, 13696]
      output_1: [128, 1, 13696]
    }
  }
}

layer{
  type: "GetItemOp"
  top: "getitem_19"
  bottom: "split_2"
  layer_param{
    attr_0: 0
    shape: [128, 1, 13696]
    dtype: "TensorDType.Float16"
  }
}

layer{
  type: "GetItemOp"
  top: "getitem_20"
  bottom: "split_2"
  layer_param{
    attr_0: 1
    shape: [128, 1, 13696]
    dtype: "TensorDType.Float16"
  }
}

layer{
  type: "SiluOp"
  top: "silu_2"
  bottom: "getitem_19"
  layer_param{
    shape: [128, 1, 13696]
    dtype: "TensorDType.Float16"
  }
}

layer{
  type: "MulOp"
  top: "mul_40"
  bottom: "silu_2"
  bottom: "getitem_20"
  layer_param{
    shape: [128, 1, 13696]
    dtype: "TensorDType.Float16"
  }
}

layer{
  type: "TransposeOp"
  top: "t_11"
  bottom: "arg22_1"
  layer_param{
    shape: [13696, 4096]
    dtype: "TensorDType.Float16"
  }
}

layer{
  type: "ViewOp"
  top: "view_51"
  bottom: "mul_40"
  layer_param{
    attr_0: [128, 13696]
    shape: [128, 13696]
    dtype: "TensorDType.Float16"
  }
}

layer{
  type: "MatmulOp"
  top: "mm_8"
  bottom: "view_51"
  bottom: "t_11"
  layer_param{
    shape: [128, 4096]
    dtype: "TensorDType.Float16"
  }
}

layer{
  type: "ViewOp"
  top: "_unsafe_view_8"
  bottom: "mm_8"
  layer_param{
    attr_0: [128, 1, 4096]
    shape: [128, 1, 4096]
    dtype: "TensorDType.Float16"
  }
}

layer{
  type: "CloneOp"
  top: "clone_11"
  bottom: "_unsafe_view_8"
  layer_param{
    shape: [128, 1, 4096]
    dtype: "TensorDType.Float16"
  }
}

layer{
  type: "AddOp"
  top: "add_17"
  bottom: "add_15"
  bottom: "clone_11"
  layer_param{
    shape: [128, 1, 4096]
    dtype: "TensorDType.Float16"
  }
}

layer{
  type: "PowOp"
  top: "pow_8"
  bottom: "add_17"
  layer_param{
    attr_0: 2
    shape: [128, 1, 4096]
    dtype: "TensorDType.Float32"
  }
}

layer{
  type: "MeanOp"
  top: "mean_6"
  bottom: "pow_8"
  layer_param{
    attr_0: [-1]
    attr_1: True
    shape: [128, 1, 1]
    dtype: "TensorDType.Float32"
  }
}

layer{
  type: "AddOp"
  top: "add_18"
  bottom: "mean_6"
  layer_param{
    attr_0: 1e-05
    shape: [128, 1, 1]
    dtype: "TensorDType.Float32"
  }
}

layer{
  type: "RsqrtOp"
  top: "rsqrt_6"
  bottom: "add_18"
  layer_param{
    shape: [128, 1, 1]
    dtype: "TensorDType.Float32"
  }
}

layer{
  type: "MulOp"
  top: "mul_41"
  bottom: "add_17"
  bottom: "rsqrt_6"
  layer_param{
    shape: [128, 1, 4096]
    dtype: "TensorDType.Float32"
  }
}

layer{
  type: "ViewOp"
  top: "view_52"
  bottom: "fuse_ln_mul_42"
  layer_param{
    attr_0: [128, 4096]
    shape: [128, 4096]
    dtype: "TensorDType.Float16"
  }
}

layer{
  type: "TransposeOp"
  top: "t_12"
  bottom: "arg24_1"
  layer_param{
    shape: [4096, 4608]
    dtype: "TensorDType.Float16"
  }
}

layer{
  type: "AddMMOp"
  top: "addmm_3"
  bottom: "arg25_1"
  bottom: "view_52"
  bottom: "t_12"
  layer_param{
    shape: [128, 4608]
    dtype: "TensorDType.Float16"
  }
}

layer{
  type: "ViewOp"
  top: "view_53"
  bottom: "addmm_3"
  layer_param{
    attr_0: [128, 1, 4608]
    shape: [128, 1, 4608]
    dtype: "TensorDType.Float16"
  }
}

layer{
  type: "SplitWithSizeOp"
  top: "split_with_sizes_3"
  bottom: "view_53"
  layer_param{
    attr_0: [4096, 256, 256]
    attr_1: -1
    shape{
      output_0: [128, 1, 4096]
      output_1: [128, 1, 256]
      output_2: [128, 1, 256]
    }
  }
}

layer{
  type: "GetItemOp"
  top: "getitem_21"
  bottom: "split_with_sizes_3"
  layer_param{
    attr_0: 0
    shape: [128, 1, 4096]
    dtype: "TensorDType.Float16"
  }
}

layer{
  type: "GetItemOp"
  top: "getitem_22"
  bottom: "split_with_sizes_3"
  layer_param{
    attr_0: 1
    shape: [128, 1, 256]
    dtype: "TensorDType.Float16"
  }
}

layer{
  type: "GetItemOp"
  top: "getitem_23"
  bottom: "split_with_sizes_3"
  layer_param{
    attr_0: 2
    shape: [128, 1, 256]
    dtype: "TensorDType.Float16"
  }
}

layer{
  type: "ViewOp"
  top: "view_54"
  bottom: "getitem_21"
  layer_param{
    attr_0: [128, 1, 32, 128]
    shape: [128, 1, 32, 128]
    dtype: "TensorDType.Float16"
  }
}

layer{
  type: "ViewOp"
  top: "view_55"
  bottom: "getitem_22"
  layer_param{
    attr_0: [128, 1, 2, 128]
    shape: [128, 1, 2, 128]
    dtype: "TensorDType.Float16"
  }
}

layer{
  type: "ViewOp"
  top: "view_56"
  bottom: "getitem_23"
  layer_param{
    attr_0: [128, 1, 2, 128]
    shape: [128, 1, 2, 128]
    dtype: "TensorDType.Float16"
  }
}

layer{
  type: "SliceOp"
  top: "slice_20"
  bottom: "view_54"
  layer_param{
    attr_0: 3
    attr_1: 0
    attr_2: 64
    shape: [128, 1, 32, 64]
    dtype: "TensorDType.Float16"
  }
}

layer{
  type: "SliceOp"
  top: "slice_21"
  bottom: "view_54"
  layer_param{
    attr_0: 3
    attr_1: 64
    attr_2: 9223372036854775807
    shape: [128, 1, 32, 64]
    dtype: "TensorDType.Float16"
  }
}

layer{
  type: "SliceOp"
  top: "slice_22"
  bottom: "transpose_1"
  layer_param{
    attr_0: 0
    attr_1: 0
    attr_2: 128
    shape: [128, 1, 32, 2]
    dtype: "TensorDType.Float16"
  }
}

layer{
  type: "ViewOp"
  top: "view_57"
  bottom: "slice_20"
  layer_param{
    attr_0: [128, 1, 32, 32, 2]
    shape: [128, 1, 32, 32, 2]
    dtype: "TensorDType.Float16"
  }
}

layer{
  type: "ViewOp"
  top: "view_58"
  bottom: "slice_22"
  layer_param{
    attr_0: [128, -1, 1, 32, 2]
    shape: [128, 1, 1, 32, 2]
    dtype: "TensorDType.Float16"
  }
}

layer{
  type: "SelectOp"
  top: "select_48"
  bottom: "view_57"
  layer_param{
    attr_0: 4
    attr_1: 0
    shape: [128, 1, 32, 32]
    dtype: "TensorDType.Float16"
  }
}

layer{
  type: "SelectOp"
  top: "select_49"
  bottom: "view_58"
  layer_param{
    attr_0: 4
    attr_1: 0
    shape: [128, 1, 1, 32]
    dtype: "TensorDType.Float16"
  }
}

layer{
  type: "MulOp"
  top: "mul_43"
  bottom: "select_48"
  bottom: "select_49"
  layer_param{
    shape: [128, 1, 32, 32]
    dtype: "TensorDType.Float16"
  }
}

layer{
  type: "SelectOp"
  top: "select_50"
  bottom: "view_57"
  layer_param{
    attr_0: 4
    attr_1: 1
    shape: [128, 1, 32, 32]
    dtype: "TensorDType.Float16"
  }
}

layer{
  type: "SelectOp"
  top: "select_51"
  bottom: "view_58"
  layer_param{
    attr_0: 4
    attr_1: 1
    shape: [128, 1, 1, 32]
    dtype: "TensorDType.Float16"
  }
}

layer{
  type: "MulOp"
  top: "mul_44"
  bottom: "select_50"
  bottom: "select_51"
  layer_param{
    shape: [128, 1, 32, 32]
    dtype: "TensorDType.Float16"
  }
}

layer{
  type: "SubOp"
  top: "sub_6"
  bottom: "mul_43"
  bottom: "mul_44"
  layer_param{
    shape: [128, 1, 32, 32]
    dtype: "TensorDType.Float16"
  }
}

layer{
  type: "SelectOp"
  top: "select_52"
  bottom: "view_57"
  layer_param{
    attr_0: 4
    attr_1: 1
    shape: [128, 1, 32, 32]
    dtype: "TensorDType.Float16"
  }
}

layer{
  type: "SelectOp"
  top: "select_53"
  bottom: "view_58"
  layer_param{
    attr_0: 4
    attr_1: 0
    shape: [128, 1, 1, 32]
    dtype: "TensorDType.Float16"
  }
}

layer{
  type: "MulOp"
  top: "mul_45"
  bottom: "select_52"
  bottom: "select_53"
  layer_param{
    shape: [128, 1, 32, 32]
    dtype: "TensorDType.Float16"
  }
}

layer{
  type: "SelectOp"
  top: "select_54"
  bottom: "view_57"
  layer_param{
    attr_0: 4
    attr_1: 0
    shape: [128, 1, 32, 32]
    dtype: "TensorDType.Float16"
  }
}

layer{
  type: "SelectOp"
  top: "select_55"
  bottom: "view_58"
  layer_param{
    attr_0: 4
    attr_1: 1
    shape: [128, 1, 1, 32]
    dtype: "TensorDType.Float16"
  }
}

layer{
  type: "MulOp"
  top: "mul_46"
  bottom: "select_54"
  bottom: "select_55"
  layer_param{
    shape: [128, 1, 32, 32]
    dtype: "TensorDType.Float16"
  }
}

layer{
  type: "AddOp"
  top: "add_19"
  bottom: "mul_45"
  bottom: "mul_46"
  layer_param{
    shape: [128, 1, 32, 32]
    dtype: "TensorDType.Float16"
  }
}

layer{
  type: "StackOp"
  top: "stack_7"
  bottom: "sub_6"
  bottom: "add_19"
  layer_param{
    attr_0: -1
    shape: [128, 1, 32, 32, 2]
    dtype: "TensorDType.Float16"
  }
}

layer{
  type: "ViewOp"
  top: "view_59"
  bottom: "stack_7"
  layer_param{
    attr_0: [128, 1, 32, 64]
    shape: [128, 1, 32, 64]
    dtype: "TensorDType.Float16"
  }
}

layer{
  type: "CatOp"
  top: "cat_6"
  bottom: "view_59"
  bottom: "slice_21"
  layer_param{
    attr_0: -1
    shape: [128, 1, 32, 128]
    dtype: "TensorDType.Float16"
  }
}

layer{
  type: "SliceOp"
  top: "slice_23"
  bottom: "view_55"
  layer_param{
    attr_0: 3
    attr_1: 0
    attr_2: 64
    shape: [128, 1, 2, 64]
    dtype: "TensorDType.Float16"
  }
}

layer{
  type: "SliceOp"
  top: "slice_24"
  bottom: "view_55"
  layer_param{
    attr_0: 3
    attr_1: 64
    attr_2: 9223372036854775807
    shape: [128, 1, 2, 64]
    dtype: "TensorDType.Float16"
  }
}

layer{
  type: "SliceOp"
  top: "slice_25"
  bottom: "transpose_1"
  layer_param{
    attr_0: 0
    attr_1: 0
    attr_2: 128
    shape: [128, 1, 32, 2]
    dtype: "TensorDType.Float16"
  }
}

layer{
  type: "ViewOp"
  top: "view_60"
  bottom: "slice_23"
  layer_param{
    attr_0: [128, 1, 2, 32, 2]
    shape: [128, 1, 2, 32, 2]
    dtype: "TensorDType.Float16"
  }
}

layer{
  type: "ViewOp"
  top: "view_61"
  bottom: "slice_25"
  layer_param{
    attr_0: [128, -1, 1, 32, 2]
    shape: [128, 1, 1, 32, 2]
    dtype: "TensorDType.Float16"
  }
}

layer{
  type: "SelectOp"
  top: "select_56"
  bottom: "view_60"
  layer_param{
    attr_0: 4
    attr_1: 0
    shape: [128, 1, 2, 32]
    dtype: "TensorDType.Float16"
  }
}

layer{
  type: "SelectOp"
  top: "select_57"
  bottom: "view_61"
  layer_param{
    attr_0: 4
    attr_1: 0
    shape: [128, 1, 1, 32]
    dtype: "TensorDType.Float16"
  }
}

layer{
  type: "MulOp"
  top: "mul_47"
  bottom: "select_56"
  bottom: "select_57"
  layer_param{
    shape: [128, 1, 2, 32]
    dtype: "TensorDType.Float16"
  }
}

layer{
  type: "SelectOp"
  top: "select_58"
  bottom: "view_60"
  layer_param{
    attr_0: 4
    attr_1: 1
    shape: [128, 1, 2, 32]
    dtype: "TensorDType.Float16"
  }
}

layer{
  type: "SelectOp"
  top: "select_59"
  bottom: "view_61"
  layer_param{
    attr_0: 4
    attr_1: 1
    shape: [128, 1, 1, 32]
    dtype: "TensorDType.Float16"
  }
}

layer{
  type: "MulOp"
  top: "mul_48"
  bottom: "select_58"
  bottom: "select_59"
  layer_param{
    shape: [128, 1, 2, 32]
    dtype: "TensorDType.Float16"
  }
}

layer{
  type: "SubOp"
  top: "sub_7"
  bottom: "mul_47"
  bottom: "mul_48"
  layer_param{
    shape: [128, 1, 2, 32]
    dtype: "TensorDType.Float16"
  }
}

layer{
  type: "SelectOp"
  top: "select_60"
  bottom: "view_60"
  layer_param{
    attr_0: 4
    attr_1: 1
    shape: [128, 1, 2, 32]
    dtype: "TensorDType.Float16"
  }
}

layer{
  type: "SelectOp"
  top: "select_61"
  bottom: "view_61"
  layer_param{
    attr_0: 4
    attr_1: 0
    shape: [128, 1, 1, 32]
    dtype: "TensorDType.Float16"
  }
}

layer{
  type: "MulOp"
  top: "mul_49"
  bottom: "select_60"
  bottom: "select_61"
  layer_param{
    shape: [128, 1, 2, 32]
    dtype: "TensorDType.Float16"
  }
}

layer{
  type: "SelectOp"
  top: "select_62"
  bottom: "view_60"
  layer_param{
    attr_0: 4
    attr_1: 0
    shape: [128, 1, 2, 32]
    dtype: "TensorDType.Float16"
  }
}

layer{
  type: "SelectOp"
  top: "select_63"
  bottom: "view_61"
  layer_param{
    attr_0: 4
    attr_1: 1
    shape: [128, 1, 1, 32]
    dtype: "TensorDType.Float16"
  }
}

layer{
  type: "MulOp"
  top: "mul_50"
  bottom: "select_62"
  bottom: "select_63"
  layer_param{
    shape: [128, 1, 2, 32]
    dtype: "TensorDType.Float16"
  }
}

layer{
  type: "AddOp"
  top: "add_20"
  bottom: "mul_49"
  bottom: "mul_50"
  layer_param{
    shape: [128, 1, 2, 32]
    dtype: "TensorDType.Float16"
  }
}

layer{
  type: "StackOp"
  top: "stack_8"
  bottom: "sub_7"
  bottom: "add_20"
  layer_param{
    attr_0: -1
    shape: [128, 1, 2, 32, 2]
    dtype: "TensorDType.Float16"
  }
}

layer{
  type: "ViewOp"
  top: "view_62"
  bottom: "stack_8"
  layer_param{
    attr_0: [128, 1, 2, 64]
    shape: [128, 1, 2, 64]
    dtype: "TensorDType.Float16"
  }
}

layer{
  type: "CatOp"
  top: "cat_7"
  bottom: "view_62"
  bottom: "slice_24"
  layer_param{
    attr_0: -1
    shape: [128, 1, 2, 128]
    dtype: "TensorDType.Float16"
  }
}

layer{
  type: "UnsqueezeOp"
  top: "unsqueeze_7"
  bottom: "cat_7"
  layer_param{
    attr_0: -2
    shape: [128, 1, 2, 1, 128]
    dtype: "TensorDType.Float16"
  }
}

layer{
  type: "ExpandOp"
  top: "expand_6"
  bottom: "unsqueeze_7"
  layer_param{
    attr_0: [-1, -1, -1, 16, -1]
    shape: [128, 1, 2, 16, 128]
    dtype: "TensorDType.Float16"
  }
}

layer{
  type: "CloneOp"
  top: "clone_12"
  bottom: "expand_6"
  layer_param{
    shape: [128, 1, 2, 16, 128]
    dtype: "TensorDType.Float16"
  }
}

layer{
  type: "ViewOp"
  top: "view_63"
  bottom: "clone_12"
  layer_param{
    attr_0: [128, 1, 32, 128]
    shape: [128, 1, 32, 128]
    dtype: "TensorDType.Float16"
  }
}

layer{
  type: "UnsqueezeOp"
  top: "unsqueeze_8"
  bottom: "view_56"
  layer_param{
    attr_0: -2
    shape: [128, 1, 2, 1, 128]
    dtype: "TensorDType.Float16"
  }
}

layer{
  type: "ExpandOp"
  top: "expand_7"
  bottom: "unsqueeze_8"
  layer_param{
    attr_0: [-1, -1, -1, 16, -1]
    shape: [128, 1, 2, 16, 128]
    dtype: "TensorDType.Float16"
  }
}

layer{
  type: "CloneOp"
  top: "clone_13"
  bottom: "expand_7"
  layer_param{
    shape: [128, 1, 2, 16, 128]
    dtype: "TensorDType.Float16"
  }
}

layer{
  type: "ViewOp"
  top: "view_64"
  bottom: "clone_13"
  layer_param{
    attr_0: [128, 1, 32, 128]
    shape: [128, 1, 32, 128]
    dtype: "TensorDType.Float16"
  }
}

layer{
  type: "PermuteOp"
  top: "permute_12"
  bottom: "cat_6"
  layer_param{
    attr_0: [1, 2, 0, 3]
    shape: [1, 32, 128, 128]
    dtype: "TensorDType.Float16"
  }
}

layer{
  type: "PermuteOp"
  top: "permute_13"
  bottom: "view_63"
  layer_param{
    attr_0: [1, 2, 0, 3]
    shape: [1, 32, 128, 128]
    dtype: "TensorDType.Float16"
  }
}

layer{
  type: "PermuteOp"
  top: "permute_14"
  bottom: "view_64"
  layer_param{
    attr_0: [1, 2, 0, 3]
    shape: [1, 32, 128, 128]
    dtype: "TensorDType.Float16"
  }
}

layer{
  type: "ScaledDotProductFlashAttentionForCpuOp"
  top: "_scaled_dot_product_flash_attention_for_cpu_3"
  bottom: "permute_12"
  bottom: "permute_13"
  bottom: "permute_14"
  layer_param{
    attr_0: 0.0
    attr_1: True
    shape{
      output_0: [1, 32, 128, 128]
      output_1: [1, 32, 128]
    }
  }
}

layer{
  type: "GetItemOp"
  top: "getitem_24"
  bottom: "_scaled_dot_product_flash_attention_for_cpu_3"
  layer_param{
    attr_0: 0
    shape: [1, 32, 128, 128]
    dtype: "TensorDType.Float16"
  }
}

layer{
  type: "PermuteOp"
  top: "permute_15"
  bottom: "getitem_24"
  layer_param{
    attr_0: [2, 0, 1, 3]
    shape: [128, 1, 32, 128]
    dtype: "TensorDType.Float16"
  }
}

layer{
  type: "ViewOp"
  top: "view_65"
  bottom: "permute_15"
  layer_param{
    attr_0: [128, 1, 4096]
    shape: [128, 1, 4096]
    dtype: "TensorDType.Float16"
  }
}

layer{
  type: "TransposeOp"
  top: "t_13"
  bottom: "arg26_1"
  layer_param{
    shape: [4096, 4096]
    dtype: "TensorDType.Float16"
  }
}

layer{
  type: "ViewOp"
  top: "view_66"
  bottom: "view_65"
  layer_param{
    attr_0: [128, 4096]
    shape: [128, 4096]
    dtype: "TensorDType.Float16"
  }
}

layer{
  type: "MatmulOp"
  top: "mm_9"
  bottom: "view_66"
  bottom: "t_13"
  layer_param{
    shape: [128, 4096]
    dtype: "TensorDType.Float16"
  }
}

layer{
  type: "ViewOp"
  top: "_unsafe_view_9"
  bottom: "mm_9"
  layer_param{
    attr_0: [128, 1, 4096]
    shape: [128, 1, 4096]
    dtype: "TensorDType.Float16"
  }
}

layer{
  type: "CloneOp"
  top: "clone_14"
  bottom: "_unsafe_view_9"
  layer_param{
    shape: [128, 1, 4096]
    dtype: "TensorDType.Float16"
  }
}

layer{
  type: "AddOp"
  top: "add_21"
  bottom: "add_17"
  bottom: "clone_14"
  layer_param{
    shape: [128, 1, 4096]
    dtype: "TensorDType.Float16"
  }
}

layer{
  type: "PowOp"
  top: "pow_9"
  bottom: "add_21"
  layer_param{
    attr_0: 2
    shape: [128, 1, 4096]
    dtype: "TensorDType.Float32"
  }
}

layer{
  type: "MeanOp"
  top: "mean_7"
  bottom: "pow_9"
  layer_param{
    attr_0: [-1]
    attr_1: True
    shape: [128, 1, 1]
    dtype: "TensorDType.Float32"
  }
}

layer{
  type: "AddOp"
  top: "add_22"
  bottom: "mean_7"
  layer_param{
    attr_0: 1e-05
    shape: [128, 1, 1]
    dtype: "TensorDType.Float32"
  }
}

layer{
  type: "RsqrtOp"
  top: "rsqrt_7"
  bottom: "add_22"
  layer_param{
    shape: [128, 1, 1]
    dtype: "TensorDType.Float32"
  }
}

layer{
  type: "MulOp"
  top: "mul_51"
  bottom: "add_21"
  bottom: "rsqrt_7"
  layer_param{
    shape: [128, 1, 4096]
    dtype: "TensorDType.Float32"
  }
}

layer{
  type: "TransposeOp"
  top: "t_14"
  bottom: "arg28_1"
  layer_param{
    shape: [4096, 27392]
    dtype: "TensorDType.Float16"
  }
}

layer{
  type: "ViewOp"
  top: "view_67"
  bottom: "fuse_ln_mul_52"
  layer_param{
    attr_0: [128, 4096]
    shape: [128, 4096]
    dtype: "TensorDType.Float16"
  }
}

layer{
  type: "MatmulOp"
  top: "mm_10"
  bottom: "view_67"
  bottom: "t_14"
  layer_param{
    shape: [128, 27392]
    dtype: "TensorDType.Float16"
  }
}

layer{
  type: "ViewOp"
  top: "_unsafe_view_10"
  bottom: "mm_10"
  layer_param{
    attr_0: [128, 1, 27392]
    shape: [128, 1, 27392]
    dtype: "TensorDType.Float16"
  }
}

layer{
  type: "SplitOp"
  top: "split_3"
  bottom: "_unsafe_view_10"
  layer_param{
    attr_0: 13696
    attr_1: -1
    shape{
      output_0: [128, 1, 13696]
      output_1: [128, 1, 13696]
    }
  }
}

layer{
  type: "GetItemOp"
  top: "getitem_26"
  bottom: "split_3"
  layer_param{
    attr_0: 0
    shape: [128, 1, 13696]
    dtype: "TensorDType.Float16"
  }
}

layer{
  type: "GetItemOp"
  top: "getitem_27"
  bottom: "split_3"
  layer_param{
    attr_0: 1
    shape: [128, 1, 13696]
    dtype: "TensorDType.Float16"
  }
}

layer{
  type: "SiluOp"
  top: "silu_3"
  bottom: "getitem_26"
  layer_param{
    shape: [128, 1, 13696]
    dtype: "TensorDType.Float16"
  }
}

layer{
  type: "MulOp"
  top: "mul_53"
  bottom: "silu_3"
  bottom: "getitem_27"
  layer_param{
    shape: [128, 1, 13696]
    dtype: "TensorDType.Float16"
  }
}

layer{
  type: "TransposeOp"
  top: "t_15"
  bottom: "arg29_1"
  layer_param{
    shape: [13696, 4096]
    dtype: "TensorDType.Float16"
  }
}

layer{
  type: "ViewOp"
  top: "view_68"
  bottom: "mul_53"
  layer_param{
    attr_0: [128, 13696]
    shape: [128, 13696]
    dtype: "TensorDType.Float16"
  }
}

layer{
  type: "MatmulOp"
  top: "mm_11"
  bottom: "view_68"
  bottom: "t_15"
  layer_param{
    shape: [128, 4096]
    dtype: "TensorDType.Float16"
  }
}

layer{
  type: "ViewOp"
  top: "_unsafe_view_11"
  bottom: "mm_11"
  layer_param{
    attr_0: [128, 1, 4096]
    shape: [128, 1, 4096]
    dtype: "TensorDType.Float16"
  }
}

layer{
  type: "CloneOp"
  top: "clone_15"
  bottom: "_unsafe_view_11"
  layer_param{
    shape: [128, 1, 4096]
    dtype: "TensorDType.Float16"
  }
}

layer{
  type: "AddOp"
  top: "add_23"
  bottom: "add_21"
  bottom: "clone_15"
  layer_param{
    shape: [128, 1, 4096]
    dtype: "TensorDType.Float16"
  }
}

layer{
  type: "PowOp"
  top: "pow_10"
  bottom: "add_23"
  layer_param{
    attr_0: 2
    shape: [128, 1, 4096]
    dtype: "TensorDType.Float32"
  }
}

layer{
  type: "MeanOp"
  top: "mean_8"
  bottom: "pow_10"
  layer_param{
    attr_0: [-1]
    attr_1: True
    shape: [128, 1, 1]
    dtype: "TensorDType.Float32"
  }
}

layer{
  type: "AddOp"
  top: "add_24"
  bottom: "mean_8"
  layer_param{
    attr_0: 1e-05
    shape: [128, 1, 1]
    dtype: "TensorDType.Float32"
  }
}

layer{
  type: "RsqrtOp"
  top: "rsqrt_8"
  bottom: "add_24"
  layer_param{
    shape: [128, 1, 1]
    dtype: "TensorDType.Float32"
  }
}

layer{
  type: "MulOp"
  top: "mul_54"
  bottom: "add_23"
  bottom: "rsqrt_8"
  layer_param{
    shape: [128, 1, 4096]
    dtype: "TensorDType.Float32"
  }
}

layer{
  type: "ViewOp"
  top: "view_69"
  bottom: "fuse_ln_mul_55"
  layer_param{
    attr_0: [128, 4096]
    shape: [128, 4096]
    dtype: "TensorDType.Float16"
  }
}

layer{
  type: "TransposeOp"
  top: "t_16"
  bottom: "arg31_1"
  layer_param{
    shape: [4096, 4608]
    dtype: "TensorDType.Float16"
  }
}

layer{
  type: "AddMMOp"
  top: "addmm_4"
  bottom: "arg32_1"
  bottom: "view_69"
  bottom: "t_16"
  layer_param{
    shape: [128, 4608]
    dtype: "TensorDType.Float16"
  }
}

layer{
  type: "ViewOp"
  top: "view_70"
  bottom: "addmm_4"
  layer_param{
    attr_0: [128, 1, 4608]
    shape: [128, 1, 4608]
    dtype: "TensorDType.Float16"
  }
}

layer{
  type: "SplitWithSizeOp"
  top: "split_with_sizes_4"
  bottom: "view_70"
  layer_param{
    attr_0: [4096, 256, 256]
    attr_1: -1
    shape{
      output_0: [128, 1, 4096]
      output_1: [128, 1, 256]
      output_2: [128, 1, 256]
    }
  }
}

layer{
  type: "GetItemOp"
  top: "getitem_28"
  bottom: "split_with_sizes_4"
  layer_param{
    attr_0: 0
    shape: [128, 1, 4096]
    dtype: "TensorDType.Float16"
  }
}

layer{
  type: "GetItemOp"
  top: "getitem_29"
  bottom: "split_with_sizes_4"
  layer_param{
    attr_0: 1
    shape: [128, 1, 256]
    dtype: "TensorDType.Float16"
  }
}

layer{
  type: "GetItemOp"
  top: "getitem_30"
  bottom: "split_with_sizes_4"
  layer_param{
    attr_0: 2
    shape: [128, 1, 256]
    dtype: "TensorDType.Float16"
  }
}

layer{
  type: "ViewOp"
  top: "view_71"
  bottom: "getitem_28"
  layer_param{
    attr_0: [128, 1, 32, 128]
    shape: [128, 1, 32, 128]
    dtype: "TensorDType.Float16"
  }
}

layer{
  type: "ViewOp"
  top: "view_72"
  bottom: "getitem_29"
  layer_param{
    attr_0: [128, 1, 2, 128]
    shape: [128, 1, 2, 128]
    dtype: "TensorDType.Float16"
  }
}

layer{
  type: "ViewOp"
  top: "view_73"
  bottom: "getitem_30"
  layer_param{
    attr_0: [128, 1, 2, 128]
    shape: [128, 1, 2, 128]
    dtype: "TensorDType.Float16"
  }
}

layer{
  type: "SliceOp"
  top: "slice_26"
  bottom: "view_71"
  layer_param{
    attr_0: 3
    attr_1: 0
    attr_2: 64
    shape: [128, 1, 32, 64]
    dtype: "TensorDType.Float16"
  }
}

layer{
  type: "SliceOp"
  top: "slice_27"
  bottom: "view_71"
  layer_param{
    attr_0: 3
    attr_1: 64
    attr_2: 9223372036854775807
    shape: [128, 1, 32, 64]
    dtype: "TensorDType.Float16"
  }
}

layer{
  type: "SliceOp"
  top: "slice_28"
  bottom: "transpose_1"
  layer_param{
    attr_0: 0
    attr_1: 0
    attr_2: 128
    shape: [128, 1, 32, 2]
    dtype: "TensorDType.Float16"
  }
}

layer{
  type: "ViewOp"
  top: "view_74"
  bottom: "slice_26"
  layer_param{
    attr_0: [128, 1, 32, 32, 2]
    shape: [128, 1, 32, 32, 2]
    dtype: "TensorDType.Float16"
  }
}

layer{
  type: "ViewOp"
  top: "view_75"
  bottom: "slice_28"
  layer_param{
    attr_0: [128, -1, 1, 32, 2]
    shape: [128, 1, 1, 32, 2]
    dtype: "TensorDType.Float16"
  }
}

layer{
  type: "SelectOp"
  top: "select_64"
  bottom: "view_74"
  layer_param{
    attr_0: 4
    attr_1: 0
    shape: [128, 1, 32, 32]
    dtype: "TensorDType.Float16"
  }
}

layer{
  type: "SelectOp"
  top: "select_65"
  bottom: "view_75"
  layer_param{
    attr_0: 4
    attr_1: 0
    shape: [128, 1, 1, 32]
    dtype: "TensorDType.Float16"
  }
}

layer{
  type: "MulOp"
  top: "mul_56"
  bottom: "select_64"
  bottom: "select_65"
  layer_param{
    shape: [128, 1, 32, 32]
    dtype: "TensorDType.Float16"
  }
}

layer{
  type: "SelectOp"
  top: "select_66"
  bottom: "view_74"
  layer_param{
    attr_0: 4
    attr_1: 1
    shape: [128, 1, 32, 32]
    dtype: "TensorDType.Float16"
  }
}

layer{
  type: "SelectOp"
  top: "select_67"
  bottom: "view_75"
  layer_param{
    attr_0: 4
    attr_1: 1
    shape: [128, 1, 1, 32]
    dtype: "TensorDType.Float16"
  }
}

layer{
  type: "MulOp"
  top: "mul_57"
  bottom: "select_66"
  bottom: "select_67"
  layer_param{
    shape: [128, 1, 32, 32]
    dtype: "TensorDType.Float16"
  }
}

layer{
  type: "SubOp"
  top: "sub_8"
  bottom: "mul_56"
  bottom: "mul_57"
  layer_param{
    shape: [128, 1, 32, 32]
    dtype: "TensorDType.Float16"
  }
}

layer{
  type: "SelectOp"
  top: "select_68"
  bottom: "view_74"
  layer_param{
    attr_0: 4
    attr_1: 1
    shape: [128, 1, 32, 32]
    dtype: "TensorDType.Float16"
  }
}

layer{
  type: "SelectOp"
  top: "select_69"
  bottom: "view_75"
  layer_param{
    attr_0: 4
    attr_1: 0
    shape: [128, 1, 1, 32]
    dtype: "TensorDType.Float16"
  }
}

layer{
  type: "MulOp"
  top: "mul_58"
  bottom: "select_68"
  bottom: "select_69"
  layer_param{
    shape: [128, 1, 32, 32]
    dtype: "TensorDType.Float16"
  }
}

layer{
  type: "SelectOp"
  top: "select_70"
  bottom: "view_74"
  layer_param{
    attr_0: 4
    attr_1: 0
    shape: [128, 1, 32, 32]
    dtype: "TensorDType.Float16"
  }
}

layer{
  type: "SelectOp"
  top: "select_71"
  bottom: "view_75"
  layer_param{
    attr_0: 4
    attr_1: 1
    shape: [128, 1, 1, 32]
    dtype: "TensorDType.Float16"
  }
}

layer{
  type: "MulOp"
  top: "mul_59"
  bottom: "select_70"
  bottom: "select_71"
  layer_param{
    shape: [128, 1, 32, 32]
    dtype: "TensorDType.Float16"
  }
}

layer{
  type: "AddOp"
  top: "add_25"
  bottom: "mul_58"
  bottom: "mul_59"
  layer_param{
    shape: [128, 1, 32, 32]
    dtype: "TensorDType.Float16"
  }
}

layer{
  type: "StackOp"
  top: "stack_9"
  bottom: "sub_8"
  bottom: "add_25"
  layer_param{
    attr_0: -1
    shape: [128, 1, 32, 32, 2]
    dtype: "TensorDType.Float16"
  }
}

layer{
  type: "ViewOp"
  top: "view_76"
  bottom: "stack_9"
  layer_param{
    attr_0: [128, 1, 32, 64]
    shape: [128, 1, 32, 64]
    dtype: "TensorDType.Float16"
  }
}

layer{
  type: "CatOp"
  top: "cat_8"
  bottom: "view_76"
  bottom: "slice_27"
  layer_param{
    attr_0: -1
    shape: [128, 1, 32, 128]
    dtype: "TensorDType.Float16"
  }
}

layer{
  type: "SliceOp"
  top: "slice_29"
  bottom: "view_72"
  layer_param{
    attr_0: 3
    attr_1: 0
    attr_2: 64
    shape: [128, 1, 2, 64]
    dtype: "TensorDType.Float16"
  }
}

layer{
  type: "SliceOp"
  top: "slice_30"
  bottom: "view_72"
  layer_param{
    attr_0: 3
    attr_1: 64
    attr_2: 9223372036854775807
    shape: [128, 1, 2, 64]
    dtype: "TensorDType.Float16"
  }
}

layer{
  type: "SliceOp"
  top: "slice_31"
  bottom: "transpose_1"
  layer_param{
    attr_0: 0
    attr_1: 0
    attr_2: 128
    shape: [128, 1, 32, 2]
    dtype: "TensorDType.Float16"
  }
}

layer{
  type: "ViewOp"
  top: "view_77"
  bottom: "slice_29"
  layer_param{
    attr_0: [128, 1, 2, 32, 2]
    shape: [128, 1, 2, 32, 2]
    dtype: "TensorDType.Float16"
  }
}

layer{
  type: "ViewOp"
  top: "view_78"
  bottom: "slice_31"
  layer_param{
    attr_0: [128, -1, 1, 32, 2]
    shape: [128, 1, 1, 32, 2]
    dtype: "TensorDType.Float16"
  }
}

layer{
  type: "SelectOp"
  top: "select_72"
  bottom: "view_77"
  layer_param{
    attr_0: 4
    attr_1: 0
    shape: [128, 1, 2, 32]
    dtype: "TensorDType.Float16"
  }
}

layer{
  type: "SelectOp"
  top: "select_73"
  bottom: "view_78"
  layer_param{
    attr_0: 4
    attr_1: 0
    shape: [128, 1, 1, 32]
    dtype: "TensorDType.Float16"
  }
}

layer{
  type: "MulOp"
  top: "mul_60"
  bottom: "select_72"
  bottom: "select_73"
  layer_param{
    shape: [128, 1, 2, 32]
    dtype: "TensorDType.Float16"
  }
}

layer{
  type: "SelectOp"
  top: "select_74"
  bottom: "view_77"
  layer_param{
    attr_0: 4
    attr_1: 1
    shape: [128, 1, 2, 32]
    dtype: "TensorDType.Float16"
  }
}

layer{
  type: "SelectOp"
  top: "select_75"
  bottom: "view_78"
  layer_param{
    attr_0: 4
    attr_1: 1
    shape: [128, 1, 1, 32]
    dtype: "TensorDType.Float16"
  }
}

layer{
  type: "MulOp"
  top: "mul_61"
  bottom: "select_74"
  bottom: "select_75"
  layer_param{
    shape: [128, 1, 2, 32]
    dtype: "TensorDType.Float16"
  }
}

layer{
  type: "SubOp"
  top: "sub_9"
  bottom: "mul_60"
  bottom: "mul_61"
  layer_param{
    shape: [128, 1, 2, 32]
    dtype: "TensorDType.Float16"
  }
}

layer{
  type: "SelectOp"
  top: "select_76"
  bottom: "view_77"
  layer_param{
    attr_0: 4
    attr_1: 1
    shape: [128, 1, 2, 32]
    dtype: "TensorDType.Float16"
  }
}

layer{
  type: "SelectOp"
  top: "select_77"
  bottom: "view_78"
  layer_param{
    attr_0: 4
    attr_1: 0
    shape: [128, 1, 1, 32]
    dtype: "TensorDType.Float16"
  }
}

layer{
  type: "MulOp"
  top: "mul_62"
  bottom: "select_76"
  bottom: "select_77"
  layer_param{
    shape: [128, 1, 2, 32]
    dtype: "TensorDType.Float16"
  }
}

layer{
  type: "SelectOp"
  top: "select_78"
  bottom: "view_77"
  layer_param{
    attr_0: 4
    attr_1: 0
    shape: [128, 1, 2, 32]
    dtype: "TensorDType.Float16"
  }
}

layer{
  type: "SelectOp"
  top: "select_79"
  bottom: "view_78"
  layer_param{
    attr_0: 4
    attr_1: 1
    shape: [128, 1, 1, 32]
    dtype: "TensorDType.Float16"
  }
}

layer{
  type: "MulOp"
  top: "mul_63"
  bottom: "select_78"
  bottom: "select_79"
  layer_param{
    shape: [128, 1, 2, 32]
    dtype: "TensorDType.Float16"
  }
}

layer{
  type: "AddOp"
  top: "add_26"
  bottom: "mul_62"
  bottom: "mul_63"
  layer_param{
    shape: [128, 1, 2, 32]
    dtype: "TensorDType.Float16"
  }
}

layer{
  type: "StackOp"
  top: "stack_10"
  bottom: "sub_9"
  bottom: "add_26"
  layer_param{
    attr_0: -1
    shape: [128, 1, 2, 32, 2]
    dtype: "TensorDType.Float16"
  }
}

layer{
  type: "ViewOp"
  top: "view_79"
  bottom: "stack_10"
  layer_param{
    attr_0: [128, 1, 2, 64]
    shape: [128, 1, 2, 64]
    dtype: "TensorDType.Float16"
  }
}

layer{
  type: "CatOp"
  top: "cat_9"
  bottom: "view_79"
  bottom: "slice_30"
  layer_param{
    attr_0: -1
    shape: [128, 1, 2, 128]
    dtype: "TensorDType.Float16"
  }
}

layer{
  type: "UnsqueezeOp"
  top: "unsqueeze_9"
  bottom: "cat_9"
  layer_param{
    attr_0: -2
    shape: [128, 1, 2, 1, 128]
    dtype: "TensorDType.Float16"
  }
}

layer{
  type: "ExpandOp"
  top: "expand_8"
  bottom: "unsqueeze_9"
  layer_param{
    attr_0: [-1, -1, -1, 16, -1]
    shape: [128, 1, 2, 16, 128]
    dtype: "TensorDType.Float16"
  }
}

layer{
  type: "CloneOp"
  top: "clone_16"
  bottom: "expand_8"
  layer_param{
    shape: [128, 1, 2, 16, 128]
    dtype: "TensorDType.Float16"
  }
}

layer{
  type: "ViewOp"
  top: "view_80"
  bottom: "clone_16"
  layer_param{
    attr_0: [128, 1, 32, 128]
    shape: [128, 1, 32, 128]
    dtype: "TensorDType.Float16"
  }
}

layer{
  type: "UnsqueezeOp"
  top: "unsqueeze_10"
  bottom: "view_73"
  layer_param{
    attr_0: -2
    shape: [128, 1, 2, 1, 128]
    dtype: "TensorDType.Float16"
  }
}

layer{
  type: "ExpandOp"
  top: "expand_9"
  bottom: "unsqueeze_10"
  layer_param{
    attr_0: [-1, -1, -1, 16, -1]
    shape: [128, 1, 2, 16, 128]
    dtype: "TensorDType.Float16"
  }
}

layer{
  type: "CloneOp"
  top: "clone_17"
  bottom: "expand_9"
  layer_param{
    shape: [128, 1, 2, 16, 128]
    dtype: "TensorDType.Float16"
  }
}

layer{
  type: "ViewOp"
  top: "view_81"
  bottom: "clone_17"
  layer_param{
    attr_0: [128, 1, 32, 128]
    shape: [128, 1, 32, 128]
    dtype: "TensorDType.Float16"
  }
}

layer{
  type: "PermuteOp"
  top: "permute_16"
  bottom: "cat_8"
  layer_param{
    attr_0: [1, 2, 0, 3]
    shape: [1, 32, 128, 128]
    dtype: "TensorDType.Float16"
  }
}

layer{
  type: "PermuteOp"
  top: "permute_17"
  bottom: "view_80"
  layer_param{
    attr_0: [1, 2, 0, 3]
    shape: [1, 32, 128, 128]
    dtype: "TensorDType.Float16"
  }
}

layer{
  type: "PermuteOp"
  top: "permute_18"
  bottom: "view_81"
  layer_param{
    attr_0: [1, 2, 0, 3]
    shape: [1, 32, 128, 128]
    dtype: "TensorDType.Float16"
  }
}

layer{
  type: "ScaledDotProductFlashAttentionForCpuOp"
  top: "_scaled_dot_product_flash_attention_for_cpu_4"
  bottom: "permute_16"
  bottom: "permute_17"
  bottom: "permute_18"
  layer_param{
    attr_0: 0.0
    attr_1: True
    shape{
      output_0: [1, 32, 128, 128]
      output_1: [1, 32, 128]
    }
  }
}

layer{
  type: "GetItemOp"
  top: "getitem_31"
  bottom: "_scaled_dot_product_flash_attention_for_cpu_4"
  layer_param{
    attr_0: 0
    shape: [1, 32, 128, 128]
    dtype: "TensorDType.Float16"
  }
}

layer{
  type: "PermuteOp"
  top: "permute_19"
  bottom: "getitem_31"
  layer_param{
    attr_0: [2, 0, 1, 3]
    shape: [128, 1, 32, 128]
    dtype: "TensorDType.Float16"
  }
}

layer{
  type: "ViewOp"
  top: "view_82"
  bottom: "permute_19"
  layer_param{
    attr_0: [128, 1, 4096]
    shape: [128, 1, 4096]
    dtype: "TensorDType.Float16"
  }
}

layer{
  type: "TransposeOp"
  top: "t_17"
  bottom: "arg33_1"
  layer_param{
    shape: [4096, 4096]
    dtype: "TensorDType.Float16"
  }
}

layer{
  type: "ViewOp"
  top: "view_83"
  bottom: "view_82"
  layer_param{
    attr_0: [128, 4096]
    shape: [128, 4096]
    dtype: "TensorDType.Float16"
  }
}

layer{
  type: "MatmulOp"
  top: "mm_12"
  bottom: "view_83"
  bottom: "t_17"
  layer_param{
    shape: [128, 4096]
    dtype: "TensorDType.Float16"
  }
}

layer{
  type: "ViewOp"
  top: "_unsafe_view_12"
  bottom: "mm_12"
  layer_param{
    attr_0: [128, 1, 4096]
    shape: [128, 1, 4096]
    dtype: "TensorDType.Float16"
  }
}

layer{
  type: "CloneOp"
  top: "clone_18"
  bottom: "_unsafe_view_12"
  layer_param{
    shape: [128, 1, 4096]
    dtype: "TensorDType.Float16"
  }
}

layer{
  type: "AddOp"
  top: "add_27"
  bottom: "add_23"
  bottom: "clone_18"
  layer_param{
    shape: [128, 1, 4096]
    dtype: "TensorDType.Float16"
  }
}

layer{
  type: "PowOp"
  top: "pow_11"
  bottom: "add_27"
  layer_param{
    attr_0: 2
    shape: [128, 1, 4096]
    dtype: "TensorDType.Float32"
  }
}

layer{
  type: "MeanOp"
  top: "mean_9"
  bottom: "pow_11"
  layer_param{
    attr_0: [-1]
    attr_1: True
    shape: [128, 1, 1]
    dtype: "TensorDType.Float32"
  }
}

layer{
  type: "AddOp"
  top: "add_28"
  bottom: "mean_9"
  layer_param{
    attr_0: 1e-05
    shape: [128, 1, 1]
    dtype: "TensorDType.Float32"
  }
}

layer{
  type: "RsqrtOp"
  top: "rsqrt_9"
  bottom: "add_28"
  layer_param{
    shape: [128, 1, 1]
    dtype: "TensorDType.Float32"
  }
}

layer{
  type: "MulOp"
  top: "mul_64"
  bottom: "add_27"
  bottom: "rsqrt_9"
  layer_param{
    shape: [128, 1, 4096]
    dtype: "TensorDType.Float32"
  }
}

layer{
  type: "TransposeOp"
  top: "t_18"
  bottom: "arg35_1"
  layer_param{
    shape: [4096, 27392]
    dtype: "TensorDType.Float16"
  }
}

layer{
  type: "ViewOp"
  top: "view_84"
  bottom: "fuse_ln_mul_65"
  layer_param{
    attr_0: [128, 4096]
    shape: [128, 4096]
    dtype: "TensorDType.Float16"
  }
}

layer{
  type: "MatmulOp"
  top: "mm_13"
  bottom: "view_84"
  bottom: "t_18"
  layer_param{
    shape: [128, 27392]
    dtype: "TensorDType.Float16"
  }
}

layer{
  type: "ViewOp"
  top: "_unsafe_view_13"
  bottom: "mm_13"
  layer_param{
    attr_0: [128, 1, 27392]
    shape: [128, 1, 27392]
    dtype: "TensorDType.Float16"
  }
}

layer{
  type: "SplitOp"
  top: "split_4"
  bottom: "_unsafe_view_13"
  layer_param{
    attr_0: 13696
    attr_1: -1
    shape{
      output_0: [128, 1, 13696]
      output_1: [128, 1, 13696]
    }
  }
}

layer{
  type: "GetItemOp"
  top: "getitem_33"
  bottom: "split_4"
  layer_param{
    attr_0: 0
    shape: [128, 1, 13696]
    dtype: "TensorDType.Float16"
  }
}

layer{
  type: "GetItemOp"
  top: "getitem_34"
  bottom: "split_4"
  layer_param{
    attr_0: 1
    shape: [128, 1, 13696]
    dtype: "TensorDType.Float16"
  }
}

layer{
  type: "SiluOp"
  top: "silu_4"
  bottom: "getitem_33"
  layer_param{
    shape: [128, 1, 13696]
    dtype: "TensorDType.Float16"
  }
}

layer{
  type: "MulOp"
  top: "mul_66"
  bottom: "silu_4"
  bottom: "getitem_34"
  layer_param{
    shape: [128, 1, 13696]
    dtype: "TensorDType.Float16"
  }
}

layer{
  type: "TransposeOp"
  top: "t_19"
  bottom: "arg36_1"
  layer_param{
    shape: [13696, 4096]
    dtype: "TensorDType.Float16"
  }
}

layer{
  type: "ViewOp"
  top: "view_85"
  bottom: "mul_66"
  layer_param{
    attr_0: [128, 13696]
    shape: [128, 13696]
    dtype: "TensorDType.Float16"
  }
}

layer{
  type: "MatmulOp"
  top: "mm_14"
  bottom: "view_85"
  bottom: "t_19"
  layer_param{
    shape: [128, 4096]
    dtype: "TensorDType.Float16"
  }
}

layer{
  type: "ViewOp"
  top: "_unsafe_view_14"
  bottom: "mm_14"
  layer_param{
    attr_0: [128, 1, 4096]
    shape: [128, 1, 4096]
    dtype: "TensorDType.Float16"
  }
}

layer{
  type: "CloneOp"
  top: "clone_19"
  bottom: "_unsafe_view_14"
  layer_param{
    shape: [128, 1, 4096]
    dtype: "TensorDType.Float16"
  }
}

layer{
  type: "AddOp"
  top: "add_29"
  bottom: "add_27"
  bottom: "clone_19"
  layer_param{
    shape: [128, 1, 4096]
    dtype: "TensorDType.Float16"
  }
}

layer{
  type: "PowOp"
  top: "pow_12"
  bottom: "add_29"
  layer_param{
    attr_0: 2
    shape: [128, 1, 4096]
    dtype: "TensorDType.Float32"
  }
}

layer{
  type: "MeanOp"
  top: "mean_10"
  bottom: "pow_12"
  layer_param{
    attr_0: [-1]
    attr_1: True
    shape: [128, 1, 1]
    dtype: "TensorDType.Float32"
  }
}

layer{
  type: "AddOp"
  top: "add_30"
  bottom: "mean_10"
  layer_param{
    attr_0: 1e-05
    shape: [128, 1, 1]
    dtype: "TensorDType.Float32"
  }
}

layer{
  type: "RsqrtOp"
  top: "rsqrt_10"
  bottom: "add_30"
  layer_param{
    shape: [128, 1, 1]
    dtype: "TensorDType.Float32"
  }
}

layer{
  type: "MulOp"
  top: "mul_67"
  bottom: "add_29"
  bottom: "rsqrt_10"
  layer_param{
    shape: [128, 1, 4096]
    dtype: "TensorDType.Float32"
  }
}

layer{
  type: "ViewOp"
  top: "view_86"
  bottom: "fuse_ln_mul_68"
  layer_param{
    attr_0: [128, 4096]
    shape: [128, 4096]
    dtype: "TensorDType.Float16"
  }
}

layer{
  type: "TransposeOp"
  top: "t_20"
  bottom: "arg38_1"
  layer_param{
    shape: [4096, 4608]
    dtype: "TensorDType.Float16"
  }
}

layer{
  type: "AddMMOp"
  top: "addmm_5"
  bottom: "arg39_1"
  bottom: "view_86"
  bottom: "t_20"
  layer_param{
    shape: [128, 4608]
    dtype: "TensorDType.Float16"
  }
}

layer{
  type: "ViewOp"
  top: "view_87"
  bottom: "addmm_5"
  layer_param{
    attr_0: [128, 1, 4608]
    shape: [128, 1, 4608]
    dtype: "TensorDType.Float16"
  }
}

layer{
  type: "SplitWithSizeOp"
  top: "split_with_sizes_5"
  bottom: "view_87"
  layer_param{
    attr_0: [4096, 256, 256]
    attr_1: -1
    shape{
      output_0: [128, 1, 4096]
      output_1: [128, 1, 256]
      output_2: [128, 1, 256]
    }
  }
}

layer{
  type: "GetItemOp"
  top: "getitem_35"
  bottom: "split_with_sizes_5"
  layer_param{
    attr_0: 0
    shape: [128, 1, 4096]
    dtype: "TensorDType.Float16"
  }
}

layer{
  type: "GetItemOp"
  top: "getitem_36"
  bottom: "split_with_sizes_5"
  layer_param{
    attr_0: 1
    shape: [128, 1, 256]
    dtype: "TensorDType.Float16"
  }
}

layer{
  type: "GetItemOp"
  top: "getitem_37"
  bottom: "split_with_sizes_5"
  layer_param{
    attr_0: 2
    shape: [128, 1, 256]
    dtype: "TensorDType.Float16"
  }
}

layer{
  type: "ViewOp"
  top: "view_88"
  bottom: "getitem_35"
  layer_param{
    attr_0: [128, 1, 32, 128]
    shape: [128, 1, 32, 128]
    dtype: "TensorDType.Float16"
  }
}

layer{
  type: "ViewOp"
  top: "view_89"
  bottom: "getitem_36"
  layer_param{
    attr_0: [128, 1, 2, 128]
    shape: [128, 1, 2, 128]
    dtype: "TensorDType.Float16"
  }
}

layer{
  type: "ViewOp"
  top: "view_90"
  bottom: "getitem_37"
  layer_param{
    attr_0: [128, 1, 2, 128]
    shape: [128, 1, 2, 128]
    dtype: "TensorDType.Float16"
  }
}

layer{
  type: "SliceOp"
  top: "slice_32"
  bottom: "view_88"
  layer_param{
    attr_0: 3
    attr_1: 0
    attr_2: 64
    shape: [128, 1, 32, 64]
    dtype: "TensorDType.Float16"
  }
}

layer{
  type: "SliceOp"
  top: "slice_33"
  bottom: "view_88"
  layer_param{
    attr_0: 3
    attr_1: 64
    attr_2: 9223372036854775807
    shape: [128, 1, 32, 64]
    dtype: "TensorDType.Float16"
  }
}

layer{
  type: "SliceOp"
  top: "slice_34"
  bottom: "transpose_1"
  layer_param{
    attr_0: 0
    attr_1: 0
    attr_2: 128
    shape: [128, 1, 32, 2]
    dtype: "TensorDType.Float16"
  }
}

layer{
  type: "ViewOp"
  top: "view_91"
  bottom: "slice_32"
  layer_param{
    attr_0: [128, 1, 32, 32, 2]
    shape: [128, 1, 32, 32, 2]
    dtype: "TensorDType.Float16"
  }
}

layer{
  type: "ViewOp"
  top: "view_92"
  bottom: "slice_34"
  layer_param{
    attr_0: [128, -1, 1, 32, 2]
    shape: [128, 1, 1, 32, 2]
    dtype: "TensorDType.Float16"
  }
}

layer{
  type: "SelectOp"
  top: "select_80"
  bottom: "view_91"
  layer_param{
    attr_0: 4
    attr_1: 0
    shape: [128, 1, 32, 32]
    dtype: "TensorDType.Float16"
  }
}

layer{
  type: "SelectOp"
  top: "select_81"
  bottom: "view_92"
  layer_param{
    attr_0: 4
    attr_1: 0
    shape: [128, 1, 1, 32]
    dtype: "TensorDType.Float16"
  }
}

layer{
  type: "MulOp"
  top: "mul_69"
  bottom: "select_80"
  bottom: "select_81"
  layer_param{
    shape: [128, 1, 32, 32]
    dtype: "TensorDType.Float16"
  }
}

layer{
  type: "SelectOp"
  top: "select_82"
  bottom: "view_91"
  layer_param{
    attr_0: 4
    attr_1: 1
    shape: [128, 1, 32, 32]
    dtype: "TensorDType.Float16"
  }
}

layer{
  type: "SelectOp"
  top: "select_83"
  bottom: "view_92"
  layer_param{
    attr_0: 4
    attr_1: 1
    shape: [128, 1, 1, 32]
    dtype: "TensorDType.Float16"
  }
}

layer{
  type: "MulOp"
  top: "mul_70"
  bottom: "select_82"
  bottom: "select_83"
  layer_param{
    shape: [128, 1, 32, 32]
    dtype: "TensorDType.Float16"
  }
}

layer{
  type: "SubOp"
  top: "sub_10"
  bottom: "mul_69"
  bottom: "mul_70"
  layer_param{
    shape: [128, 1, 32, 32]
    dtype: "TensorDType.Float16"
  }
}

layer{
  type: "SelectOp"
  top: "select_84"
  bottom: "view_91"
  layer_param{
    attr_0: 4
    attr_1: 1
    shape: [128, 1, 32, 32]
    dtype: "TensorDType.Float16"
  }
}

layer{
  type: "SelectOp"
  top: "select_85"
  bottom: "view_92"
  layer_param{
    attr_0: 4
    attr_1: 0
    shape: [128, 1, 1, 32]
    dtype: "TensorDType.Float16"
  }
}

layer{
  type: "MulOp"
  top: "mul_71"
  bottom: "select_84"
  bottom: "select_85"
  layer_param{
    shape: [128, 1, 32, 32]
    dtype: "TensorDType.Float16"
  }
}

layer{
  type: "SelectOp"
  top: "select_86"
  bottom: "view_91"
  layer_param{
    attr_0: 4
    attr_1: 0
    shape: [128, 1, 32, 32]
    dtype: "TensorDType.Float16"
  }
}

layer{
  type: "SelectOp"
  top: "select_87"
  bottom: "view_92"
  layer_param{
    attr_0: 4
    attr_1: 1
    shape: [128, 1, 1, 32]
    dtype: "TensorDType.Float16"
  }
}

layer{
  type: "MulOp"
  top: "mul_72"
  bottom: "select_86"
  bottom: "select_87"
  layer_param{
    shape: [128, 1, 32, 32]
    dtype: "TensorDType.Float16"
  }
}

layer{
  type: "AddOp"
  top: "add_31"
  bottom: "mul_71"
  bottom: "mul_72"
  layer_param{
    shape: [128, 1, 32, 32]
    dtype: "TensorDType.Float16"
  }
}

layer{
  type: "StackOp"
  top: "stack_11"
  bottom: "sub_10"
  bottom: "add_31"
  layer_param{
    attr_0: -1
    shape: [128, 1, 32, 32, 2]
    dtype: "TensorDType.Float16"
  }
}

layer{
  type: "ViewOp"
  top: "view_93"
  bottom: "stack_11"
  layer_param{
    attr_0: [128, 1, 32, 64]
    shape: [128, 1, 32, 64]
    dtype: "TensorDType.Float16"
  }
}

layer{
  type: "CatOp"
  top: "cat_10"
  bottom: "view_93"
  bottom: "slice_33"
  layer_param{
    attr_0: -1
    shape: [128, 1, 32, 128]
    dtype: "TensorDType.Float16"
  }
}

layer{
  type: "SliceOp"
  top: "slice_35"
  bottom: "view_89"
  layer_param{
    attr_0: 3
    attr_1: 0
    attr_2: 64
    shape: [128, 1, 2, 64]
    dtype: "TensorDType.Float16"
  }
}

layer{
  type: "SliceOp"
  top: "slice_36"
  bottom: "view_89"
  layer_param{
    attr_0: 3
    attr_1: 64
    attr_2: 9223372036854775807
    shape: [128, 1, 2, 64]
    dtype: "TensorDType.Float16"
  }
}

layer{
  type: "SliceOp"
  top: "slice_37"
  bottom: "transpose_1"
  layer_param{
    attr_0: 0
    attr_1: 0
    attr_2: 128
    shape: [128, 1, 32, 2]
    dtype: "TensorDType.Float16"
  }
}

layer{
  type: "ViewOp"
  top: "view_94"
  bottom: "slice_35"
  layer_param{
    attr_0: [128, 1, 2, 32, 2]
    shape: [128, 1, 2, 32, 2]
    dtype: "TensorDType.Float16"
  }
}

layer{
  type: "ViewOp"
  top: "view_95"
  bottom: "slice_37"
  layer_param{
    attr_0: [128, -1, 1, 32, 2]
    shape: [128, 1, 1, 32, 2]
    dtype: "TensorDType.Float16"
  }
}

layer{
  type: "SelectOp"
  top: "select_88"
  bottom: "view_94"
  layer_param{
    attr_0: 4
    attr_1: 0
    shape: [128, 1, 2, 32]
    dtype: "TensorDType.Float16"
  }
}

layer{
  type: "SelectOp"
  top: "select_89"
  bottom: "view_95"
  layer_param{
    attr_0: 4
    attr_1: 0
    shape: [128, 1, 1, 32]
    dtype: "TensorDType.Float16"
  }
}

layer{
  type: "MulOp"
  top: "mul_73"
  bottom: "select_88"
  bottom: "select_89"
  layer_param{
    shape: [128, 1, 2, 32]
    dtype: "TensorDType.Float16"
  }
}

layer{
  type: "SelectOp"
  top: "select_90"
  bottom: "view_94"
  layer_param{
    attr_0: 4
    attr_1: 1
    shape: [128, 1, 2, 32]
    dtype: "TensorDType.Float16"
  }
}

layer{
  type: "SelectOp"
  top: "select_91"
  bottom: "view_95"
  layer_param{
    attr_0: 4
    attr_1: 1
    shape: [128, 1, 1, 32]
    dtype: "TensorDType.Float16"
  }
}

layer{
  type: "MulOp"
  top: "mul_74"
  bottom: "select_90"
  bottom: "select_91"
  layer_param{
    shape: [128, 1, 2, 32]
    dtype: "TensorDType.Float16"
  }
}

layer{
  type: "SubOp"
  top: "sub_11"
  bottom: "mul_73"
  bottom: "mul_74"
  layer_param{
    shape: [128, 1, 2, 32]
    dtype: "TensorDType.Float16"
  }
}

layer{
  type: "SelectOp"
  top: "select_92"
  bottom: "view_94"
  layer_param{
    attr_0: 4
    attr_1: 1
    shape: [128, 1, 2, 32]
    dtype: "TensorDType.Float16"
  }
}

layer{
  type: "SelectOp"
  top: "select_93"
  bottom: "view_95"
  layer_param{
    attr_0: 4
    attr_1: 0
    shape: [128, 1, 1, 32]
    dtype: "TensorDType.Float16"
  }
}

layer{
  type: "MulOp"
  top: "mul_75"
  bottom: "select_92"
  bottom: "select_93"
  layer_param{
    shape: [128, 1, 2, 32]
    dtype: "TensorDType.Float16"
  }
}

layer{
  type: "SelectOp"
  top: "select_94"
  bottom: "view_94"
  layer_param{
    attr_0: 4
    attr_1: 0
    shape: [128, 1, 2, 32]
    dtype: "TensorDType.Float16"
  }
}

layer{
  type: "SelectOp"
  top: "select_95"
  bottom: "view_95"
  layer_param{
    attr_0: 4
    attr_1: 1
    shape: [128, 1, 1, 32]
    dtype: "TensorDType.Float16"
  }
}

layer{
  type: "MulOp"
  top: "mul_76"
  bottom: "select_94"
  bottom: "select_95"
  layer_param{
    shape: [128, 1, 2, 32]
    dtype: "TensorDType.Float16"
  }
}

layer{
  type: "AddOp"
  top: "add_32"
  bottom: "mul_75"
  bottom: "mul_76"
  layer_param{
    shape: [128, 1, 2, 32]
    dtype: "TensorDType.Float16"
  }
}

layer{
  type: "StackOp"
  top: "stack_12"
  bottom: "sub_11"
  bottom: "add_32"
  layer_param{
    attr_0: -1
    shape: [128, 1, 2, 32, 2]
    dtype: "TensorDType.Float16"
  }
}

layer{
  type: "ViewOp"
  top: "view_96"
  bottom: "stack_12"
  layer_param{
    attr_0: [128, 1, 2, 64]
    shape: [128, 1, 2, 64]
    dtype: "TensorDType.Float16"
  }
}

layer{
  type: "CatOp"
  top: "cat_11"
  bottom: "view_96"
  bottom: "slice_36"
  layer_param{
    attr_0: -1
    shape: [128, 1, 2, 128]
    dtype: "TensorDType.Float16"
  }
}

layer{
  type: "UnsqueezeOp"
  top: "unsqueeze_11"
  bottom: "cat_11"
  layer_param{
    attr_0: -2
    shape: [128, 1, 2, 1, 128]
    dtype: "TensorDType.Float16"
  }
}

layer{
  type: "ExpandOp"
  top: "expand_10"
  bottom: "unsqueeze_11"
  layer_param{
    attr_0: [-1, -1, -1, 16, -1]
    shape: [128, 1, 2, 16, 128]
    dtype: "TensorDType.Float16"
  }
}

layer{
  type: "CloneOp"
  top: "clone_20"
  bottom: "expand_10"
  layer_param{
    shape: [128, 1, 2, 16, 128]
    dtype: "TensorDType.Float16"
  }
}

layer{
  type: "ViewOp"
  top: "view_97"
  bottom: "clone_20"
  layer_param{
    attr_0: [128, 1, 32, 128]
    shape: [128, 1, 32, 128]
    dtype: "TensorDType.Float16"
  }
}

layer{
  type: "UnsqueezeOp"
  top: "unsqueeze_12"
  bottom: "view_90"
  layer_param{
    attr_0: -2
    shape: [128, 1, 2, 1, 128]
    dtype: "TensorDType.Float16"
  }
}

layer{
  type: "ExpandOp"
  top: "expand_11"
  bottom: "unsqueeze_12"
  layer_param{
    attr_0: [-1, -1, -1, 16, -1]
    shape: [128, 1, 2, 16, 128]
    dtype: "TensorDType.Float16"
  }
}

layer{
  type: "CloneOp"
  top: "clone_21"
  bottom: "expand_11"
  layer_param{
    shape: [128, 1, 2, 16, 128]
    dtype: "TensorDType.Float16"
  }
}

layer{
  type: "ViewOp"
  top: "view_98"
  bottom: "clone_21"
  layer_param{
    attr_0: [128, 1, 32, 128]
    shape: [128, 1, 32, 128]
    dtype: "TensorDType.Float16"
  }
}

layer{
  type: "PermuteOp"
  top: "permute_20"
  bottom: "cat_10"
  layer_param{
    attr_0: [1, 2, 0, 3]
    shape: [1, 32, 128, 128]
    dtype: "TensorDType.Float16"
  }
}

layer{
  type: "PermuteOp"
  top: "permute_21"
  bottom: "view_97"
  layer_param{
    attr_0: [1, 2, 0, 3]
    shape: [1, 32, 128, 128]
    dtype: "TensorDType.Float16"
  }
}

layer{
  type: "PermuteOp"
  top: "permute_22"
  bottom: "view_98"
  layer_param{
    attr_0: [1, 2, 0, 3]
    shape: [1, 32, 128, 128]
    dtype: "TensorDType.Float16"
  }
}

layer{
  type: "ScaledDotProductFlashAttentionForCpuOp"
  top: "_scaled_dot_product_flash_attention_for_cpu_5"
  bottom: "permute_20"
  bottom: "permute_21"
  bottom: "permute_22"
  layer_param{
    attr_0: 0.0
    attr_1: True
    shape{
      output_0: [1, 32, 128, 128]
      output_1: [1, 32, 128]
    }
  }
}

layer{
  type: "GetItemOp"
  top: "getitem_38"
  bottom: "_scaled_dot_product_flash_attention_for_cpu_5"
  layer_param{
    attr_0: 0
    shape: [1, 32, 128, 128]
    dtype: "TensorDType.Float16"
  }
}

layer{
  type: "PermuteOp"
  top: "permute_23"
  bottom: "getitem_38"
  layer_param{
    attr_0: [2, 0, 1, 3]
    shape: [128, 1, 32, 128]
    dtype: "TensorDType.Float16"
  }
}

layer{
  type: "ViewOp"
  top: "view_99"
  bottom: "permute_23"
  layer_param{
    attr_0: [128, 1, 4096]
    shape: [128, 1, 4096]
    dtype: "TensorDType.Float16"
  }
}

layer{
  type: "TransposeOp"
  top: "t_21"
  bottom: "arg40_1"
  layer_param{
    shape: [4096, 4096]
    dtype: "TensorDType.Float16"
  }
}

layer{
  type: "ViewOp"
  top: "view_100"
  bottom: "view_99"
  layer_param{
    attr_0: [128, 4096]
    shape: [128, 4096]
    dtype: "TensorDType.Float16"
  }
}

layer{
  type: "MatmulOp"
  top: "mm_15"
  bottom: "view_100"
  bottom: "t_21"
  layer_param{
    shape: [128, 4096]
    dtype: "TensorDType.Float16"
  }
}

layer{
  type: "ViewOp"
  top: "_unsafe_view_15"
  bottom: "mm_15"
  layer_param{
    attr_0: [128, 1, 4096]
    shape: [128, 1, 4096]
    dtype: "TensorDType.Float16"
  }
}

layer{
  type: "CloneOp"
  top: "clone_22"
  bottom: "_unsafe_view_15"
  layer_param{
    shape: [128, 1, 4096]
    dtype: "TensorDType.Float16"
  }
}

layer{
  type: "AddOp"
  top: "add_33"
  bottom: "add_29"
  bottom: "clone_22"
  layer_param{
    shape: [128, 1, 4096]
    dtype: "TensorDType.Float16"
  }
}

layer{
  type: "PowOp"
  top: "pow_13"
  bottom: "add_33"
  layer_param{
    attr_0: 2
    shape: [128, 1, 4096]
    dtype: "TensorDType.Float32"
  }
}

layer{
  type: "MeanOp"
  top: "mean_11"
  bottom: "pow_13"
  layer_param{
    attr_0: [-1]
    attr_1: True
    shape: [128, 1, 1]
    dtype: "TensorDType.Float32"
  }
}

layer{
  type: "AddOp"
  top: "add_34"
  bottom: "mean_11"
  layer_param{
    attr_0: 1e-05
    shape: [128, 1, 1]
    dtype: "TensorDType.Float32"
  }
}

layer{
  type: "RsqrtOp"
  top: "rsqrt_11"
  bottom: "add_34"
  layer_param{
    shape: [128, 1, 1]
    dtype: "TensorDType.Float32"
  }
}

layer{
  type: "MulOp"
  top: "mul_77"
  bottom: "add_33"
  bottom: "rsqrt_11"
  layer_param{
    shape: [128, 1, 4096]
    dtype: "TensorDType.Float32"
  }
}

layer{
  type: "TransposeOp"
  top: "t_22"
  bottom: "arg42_1"
  layer_param{
    shape: [4096, 27392]
    dtype: "TensorDType.Float16"
  }
}

layer{
  type: "ViewOp"
  top: "view_101"
  bottom: "fuse_ln_mul_78"
  layer_param{
    attr_0: [128, 4096]
    shape: [128, 4096]
    dtype: "TensorDType.Float16"
  }
}

layer{
  type: "MatmulOp"
  top: "mm_16"
  bottom: "view_101"
  bottom: "t_22"
  layer_param{
    shape: [128, 27392]
    dtype: "TensorDType.Float16"
  }
}

layer{
  type: "ViewOp"
  top: "_unsafe_view_16"
  bottom: "mm_16"
  layer_param{
    attr_0: [128, 1, 27392]
    shape: [128, 1, 27392]
    dtype: "TensorDType.Float16"
  }
}

layer{
  type: "SplitOp"
  top: "split_5"
  bottom: "_unsafe_view_16"
  layer_param{
    attr_0: 13696
    attr_1: -1
    shape{
      output_0: [128, 1, 13696]
      output_1: [128, 1, 13696]
    }
  }
}

layer{
  type: "GetItemOp"
  top: "getitem_40"
  bottom: "split_5"
  layer_param{
    attr_0: 0
    shape: [128, 1, 13696]
    dtype: "TensorDType.Float16"
  }
}

layer{
  type: "GetItemOp"
  top: "getitem_41"
  bottom: "split_5"
  layer_param{
    attr_0: 1
    shape: [128, 1, 13696]
    dtype: "TensorDType.Float16"
  }
}

layer{
  type: "SiluOp"
  top: "silu_5"
  bottom: "getitem_40"
  layer_param{
    shape: [128, 1, 13696]
    dtype: "TensorDType.Float16"
  }
}

layer{
  type: "MulOp"
  top: "mul_79"
  bottom: "silu_5"
  bottom: "getitem_41"
  layer_param{
    shape: [128, 1, 13696]
    dtype: "TensorDType.Float16"
  }
}

layer{
  type: "TransposeOp"
  top: "t_23"
  bottom: "arg43_1"
  layer_param{
    shape: [13696, 4096]
    dtype: "TensorDType.Float16"
  }
}

layer{
  type: "ViewOp"
  top: "view_102"
  bottom: "mul_79"
  layer_param{
    attr_0: [128, 13696]
    shape: [128, 13696]
    dtype: "TensorDType.Float16"
  }
}

layer{
  type: "MatmulOp"
  top: "mm_17"
  bottom: "view_102"
  bottom: "t_23"
  layer_param{
    shape: [128, 4096]
    dtype: "TensorDType.Float16"
  }
}

layer{
  type: "ViewOp"
  top: "_unsafe_view_17"
  bottom: "mm_17"
  layer_param{
    attr_0: [128, 1, 4096]
    shape: [128, 1, 4096]
    dtype: "TensorDType.Float16"
  }
}

layer{
  type: "CloneOp"
  top: "clone_23"
  bottom: "_unsafe_view_17"
  layer_param{
    shape: [128, 1, 4096]
    dtype: "TensorDType.Float16"
  }
}

layer{
  type: "AddOp"
  top: "add_35"
  bottom: "add_33"
  bottom: "clone_23"
  layer_param{
    shape: [128, 1, 4096]
    dtype: "TensorDType.Float16"
  }
}

layer{
  type: "PowOp"
  top: "pow_14"
  bottom: "add_35"
  layer_param{
    attr_0: 2
    shape: [128, 1, 4096]
    dtype: "TensorDType.Float32"
  }
}

layer{
  type: "MeanOp"
  top: "mean_12"
  bottom: "pow_14"
  layer_param{
    attr_0: [-1]
    attr_1: True
    shape: [128, 1, 1]
    dtype: "TensorDType.Float32"
  }
}

layer{
  type: "AddOp"
  top: "add_36"
  bottom: "mean_12"
  layer_param{
    attr_0: 1e-05
    shape: [128, 1, 1]
    dtype: "TensorDType.Float32"
  }
}

layer{
  type: "RsqrtOp"
  top: "rsqrt_12"
  bottom: "add_36"
  layer_param{
    shape: [128, 1, 1]
    dtype: "TensorDType.Float32"
  }
}

layer{
  type: "MulOp"
  top: "mul_80"
  bottom: "add_35"
  bottom: "rsqrt_12"
  layer_param{
    shape: [128, 1, 4096]
    dtype: "TensorDType.Float32"
  }
}

layer{
  type: "ViewOp"
  top: "view_103"
  bottom: "fuse_ln_mul_81"
  layer_param{
    attr_0: [128, 4096]
    shape: [128, 4096]
    dtype: "TensorDType.Float16"
  }
}

layer{
  type: "TransposeOp"
  top: "t_24"
  bottom: "arg45_1"
  layer_param{
    shape: [4096, 4608]
    dtype: "TensorDType.Float16"
  }
}

layer{
  type: "AddMMOp"
  top: "addmm_6"
  bottom: "arg46_1"
  bottom: "view_103"
  bottom: "t_24"
  layer_param{
    shape: [128, 4608]
    dtype: "TensorDType.Float16"
  }
}

layer{
  type: "ViewOp"
  top: "view_104"
  bottom: "addmm_6"
  layer_param{
    attr_0: [128, 1, 4608]
    shape: [128, 1, 4608]
    dtype: "TensorDType.Float16"
  }
}

layer{
  type: "SplitWithSizeOp"
  top: "split_with_sizes_6"
  bottom: "view_104"
  layer_param{
    attr_0: [4096, 256, 256]
    attr_1: -1
    shape{
      output_0: [128, 1, 4096]
      output_1: [128, 1, 256]
      output_2: [128, 1, 256]
    }
  }
}

layer{
  type: "GetItemOp"
  top: "getitem_42"
  bottom: "split_with_sizes_6"
  layer_param{
    attr_0: 0
    shape: [128, 1, 4096]
    dtype: "TensorDType.Float16"
  }
}

layer{
  type: "GetItemOp"
  top: "getitem_43"
  bottom: "split_with_sizes_6"
  layer_param{
    attr_0: 1
    shape: [128, 1, 256]
    dtype: "TensorDType.Float16"
  }
}

layer{
  type: "GetItemOp"
  top: "getitem_44"
  bottom: "split_with_sizes_6"
  layer_param{
    attr_0: 2
    shape: [128, 1, 256]
    dtype: "TensorDType.Float16"
  }
}

layer{
  type: "ViewOp"
  top: "view_105"
  bottom: "getitem_42"
  layer_param{
    attr_0: [128, 1, 32, 128]
    shape: [128, 1, 32, 128]
    dtype: "TensorDType.Float16"
  }
}

layer{
  type: "ViewOp"
  top: "view_106"
  bottom: "getitem_43"
  layer_param{
    attr_0: [128, 1, 2, 128]
    shape: [128, 1, 2, 128]
    dtype: "TensorDType.Float16"
  }
}

layer{
  type: "ViewOp"
  top: "view_107"
  bottom: "getitem_44"
  layer_param{
    attr_0: [128, 1, 2, 128]
    shape: [128, 1, 2, 128]
    dtype: "TensorDType.Float16"
  }
}

layer{
  type: "SliceOp"
  top: "slice_38"
  bottom: "view_105"
  layer_param{
    attr_0: 3
    attr_1: 0
    attr_2: 64
    shape: [128, 1, 32, 64]
    dtype: "TensorDType.Float16"
  }
}

layer{
  type: "SliceOp"
  top: "slice_39"
  bottom: "view_105"
  layer_param{
    attr_0: 3
    attr_1: 64
    attr_2: 9223372036854775807
    shape: [128, 1, 32, 64]
    dtype: "TensorDType.Float16"
  }
}

layer{
  type: "SliceOp"
  top: "slice_40"
  bottom: "transpose_1"
  layer_param{
    attr_0: 0
    attr_1: 0
    attr_2: 128
    shape: [128, 1, 32, 2]
    dtype: "TensorDType.Float16"
  }
}

layer{
  type: "ViewOp"
  top: "view_108"
  bottom: "slice_38"
  layer_param{
    attr_0: [128, 1, 32, 32, 2]
    shape: [128, 1, 32, 32, 2]
    dtype: "TensorDType.Float16"
  }
}

layer{
  type: "ViewOp"
  top: "view_109"
  bottom: "slice_40"
  layer_param{
    attr_0: [128, -1, 1, 32, 2]
    shape: [128, 1, 1, 32, 2]
    dtype: "TensorDType.Float16"
  }
}

layer{
  type: "SelectOp"
  top: "select_96"
  bottom: "view_108"
  layer_param{
    attr_0: 4
    attr_1: 0
    shape: [128, 1, 32, 32]
    dtype: "TensorDType.Float16"
  }
}

layer{
  type: "SelectOp"
  top: "select_97"
  bottom: "view_109"
  layer_param{
    attr_0: 4
    attr_1: 0
    shape: [128, 1, 1, 32]
    dtype: "TensorDType.Float16"
  }
}

layer{
  type: "MulOp"
  top: "mul_82"
  bottom: "select_96"
  bottom: "select_97"
  layer_param{
    shape: [128, 1, 32, 32]
    dtype: "TensorDType.Float16"
  }
}

layer{
  type: "SelectOp"
  top: "select_98"
  bottom: "view_108"
  layer_param{
    attr_0: 4
    attr_1: 1
    shape: [128, 1, 32, 32]
    dtype: "TensorDType.Float16"
  }
}

layer{
  type: "SelectOp"
  top: "select_99"
  bottom: "view_109"
  layer_param{
    attr_0: 4
    attr_1: 1
    shape: [128, 1, 1, 32]
    dtype: "TensorDType.Float16"
  }
}

layer{
  type: "MulOp"
  top: "mul_83"
  bottom: "select_98"
  bottom: "select_99"
  layer_param{
    shape: [128, 1, 32, 32]
    dtype: "TensorDType.Float16"
  }
}

layer{
  type: "SubOp"
  top: "sub_12"
  bottom: "mul_82"
  bottom: "mul_83"
  layer_param{
    shape: [128, 1, 32, 32]
    dtype: "TensorDType.Float16"
  }
}

layer{
  type: "SelectOp"
  top: "select_100"
  bottom: "view_108"
  layer_param{
    attr_0: 4
    attr_1: 1
    shape: [128, 1, 32, 32]
    dtype: "TensorDType.Float16"
  }
}

layer{
  type: "SelectOp"
  top: "select_101"
  bottom: "view_109"
  layer_param{
    attr_0: 4
    attr_1: 0
    shape: [128, 1, 1, 32]
    dtype: "TensorDType.Float16"
  }
}

layer{
  type: "MulOp"
  top: "mul_84"
  bottom: "select_100"
  bottom: "select_101"
  layer_param{
    shape: [128, 1, 32, 32]
    dtype: "TensorDType.Float16"
  }
}

layer{
  type: "SelectOp"
  top: "select_102"
  bottom: "view_108"
  layer_param{
    attr_0: 4
    attr_1: 0
    shape: [128, 1, 32, 32]
    dtype: "TensorDType.Float16"
  }
}

layer{
  type: "SelectOp"
  top: "select_103"
  bottom: "view_109"
  layer_param{
    attr_0: 4
    attr_1: 1
    shape: [128, 1, 1, 32]
    dtype: "TensorDType.Float16"
  }
}

layer{
  type: "MulOp"
  top: "mul_85"
  bottom: "select_102"
  bottom: "select_103"
  layer_param{
    shape: [128, 1, 32, 32]
    dtype: "TensorDType.Float16"
  }
}

layer{
  type: "AddOp"
  top: "add_37"
  bottom: "mul_84"
  bottom: "mul_85"
  layer_param{
    shape: [128, 1, 32, 32]
    dtype: "TensorDType.Float16"
  }
}

layer{
  type: "StackOp"
  top: "stack_13"
  bottom: "sub_12"
  bottom: "add_37"
  layer_param{
    attr_0: -1
    shape: [128, 1, 32, 32, 2]
    dtype: "TensorDType.Float16"
  }
}

layer{
  type: "ViewOp"
  top: "view_110"
  bottom: "stack_13"
  layer_param{
    attr_0: [128, 1, 32, 64]
    shape: [128, 1, 32, 64]
    dtype: "TensorDType.Float16"
  }
}

layer{
  type: "CatOp"
  top: "cat_12"
  bottom: "view_110"
  bottom: "slice_39"
  layer_param{
    attr_0: -1
    shape: [128, 1, 32, 128]
    dtype: "TensorDType.Float16"
  }
}

layer{
  type: "SliceOp"
  top: "slice_41"
  bottom: "view_106"
  layer_param{
    attr_0: 3
    attr_1: 0
    attr_2: 64
    shape: [128, 1, 2, 64]
    dtype: "TensorDType.Float16"
  }
}

layer{
  type: "SliceOp"
  top: "slice_42"
  bottom: "view_106"
  layer_param{
    attr_0: 3
    attr_1: 64
    attr_2: 9223372036854775807
    shape: [128, 1, 2, 64]
    dtype: "TensorDType.Float16"
  }
}

layer{
  type: "SliceOp"
  top: "slice_43"
  bottom: "transpose_1"
  layer_param{
    attr_0: 0
    attr_1: 0
    attr_2: 128
    shape: [128, 1, 32, 2]
    dtype: "TensorDType.Float16"
  }
}

layer{
  type: "ViewOp"
  top: "view_111"
  bottom: "slice_41"
  layer_param{
    attr_0: [128, 1, 2, 32, 2]
    shape: [128, 1, 2, 32, 2]
    dtype: "TensorDType.Float16"
  }
}

layer{
  type: "ViewOp"
  top: "view_112"
  bottom: "slice_43"
  layer_param{
    attr_0: [128, -1, 1, 32, 2]
    shape: [128, 1, 1, 32, 2]
    dtype: "TensorDType.Float16"
  }
}

layer{
  type: "SelectOp"
  top: "select_104"
  bottom: "view_111"
  layer_param{
    attr_0: 4
    attr_1: 0
    shape: [128, 1, 2, 32]
    dtype: "TensorDType.Float16"
  }
}

layer{
  type: "SelectOp"
  top: "select_105"
  bottom: "view_112"
  layer_param{
    attr_0: 4
    attr_1: 0
    shape: [128, 1, 1, 32]
    dtype: "TensorDType.Float16"
  }
}

layer{
  type: "MulOp"
  top: "mul_86"
  bottom: "select_104"
  bottom: "select_105"
  layer_param{
    shape: [128, 1, 2, 32]
    dtype: "TensorDType.Float16"
  }
}

layer{
  type: "SelectOp"
  top: "select_106"
  bottom: "view_111"
  layer_param{
    attr_0: 4
    attr_1: 1
    shape: [128, 1, 2, 32]
    dtype: "TensorDType.Float16"
  }
}

layer{
  type: "SelectOp"
  top: "select_107"
  bottom: "view_112"
  layer_param{
    attr_0: 4
    attr_1: 1
    shape: [128, 1, 1, 32]
    dtype: "TensorDType.Float16"
  }
}

layer{
  type: "MulOp"
  top: "mul_87"
  bottom: "select_106"
  bottom: "select_107"
  layer_param{
    shape: [128, 1, 2, 32]
    dtype: "TensorDType.Float16"
  }
}

layer{
  type: "SubOp"
  top: "sub_13"
  bottom: "mul_86"
  bottom: "mul_87"
  layer_param{
    shape: [128, 1, 2, 32]
    dtype: "TensorDType.Float16"
  }
}

layer{
  type: "SelectOp"
  top: "select_108"
  bottom: "view_111"
  layer_param{
    attr_0: 4
    attr_1: 1
    shape: [128, 1, 2, 32]
    dtype: "TensorDType.Float16"
  }
}

layer{
  type: "SelectOp"
  top: "select_109"
  bottom: "view_112"
  layer_param{
    attr_0: 4
    attr_1: 0
    shape: [128, 1, 1, 32]
    dtype: "TensorDType.Float16"
  }
}

layer{
  type: "MulOp"
  top: "mul_88"
  bottom: "select_108"
  bottom: "select_109"
  layer_param{
    shape: [128, 1, 2, 32]
    dtype: "TensorDType.Float16"
  }
}

layer{
  type: "SelectOp"
  top: "select_110"
  bottom: "view_111"
  layer_param{
    attr_0: 4
    attr_1: 0
    shape: [128, 1, 2, 32]
    dtype: "TensorDType.Float16"
  }
}

layer{
  type: "SelectOp"
  top: "select_111"
  bottom: "view_112"
  layer_param{
    attr_0: 4
    attr_1: 1
    shape: [128, 1, 1, 32]
    dtype: "TensorDType.Float16"
  }
}

layer{
  type: "MulOp"
  top: "mul_89"
  bottom: "select_110"
  bottom: "select_111"
  layer_param{
    shape: [128, 1, 2, 32]
    dtype: "TensorDType.Float16"
  }
}

layer{
  type: "AddOp"
  top: "add_38"
  bottom: "mul_88"
  bottom: "mul_89"
  layer_param{
    shape: [128, 1, 2, 32]
    dtype: "TensorDType.Float16"
  }
}

layer{
  type: "StackOp"
  top: "stack_14"
  bottom: "sub_13"
  bottom: "add_38"
  layer_param{
    attr_0: -1
    shape: [128, 1, 2, 32, 2]
    dtype: "TensorDType.Float16"
  }
}

layer{
  type: "ViewOp"
  top: "view_113"
  bottom: "stack_14"
  layer_param{
    attr_0: [128, 1, 2, 64]
    shape: [128, 1, 2, 64]
    dtype: "TensorDType.Float16"
  }
}

layer{
  type: "CatOp"
  top: "cat_13"
  bottom: "view_113"
  bottom: "slice_42"
  layer_param{
    attr_0: -1
    shape: [128, 1, 2, 128]
    dtype: "TensorDType.Float16"
  }
}

layer{
  type: "UnsqueezeOp"
  top: "unsqueeze_13"
  bottom: "cat_13"
  layer_param{
    attr_0: -2
    shape: [128, 1, 2, 1, 128]
    dtype: "TensorDType.Float16"
  }
}

layer{
  type: "ExpandOp"
  top: "expand_12"
  bottom: "unsqueeze_13"
  layer_param{
    attr_0: [-1, -1, -1, 16, -1]
    shape: [128, 1, 2, 16, 128]
    dtype: "TensorDType.Float16"
  }
}

layer{
  type: "CloneOp"
  top: "clone_24"
  bottom: "expand_12"
  layer_param{
    shape: [128, 1, 2, 16, 128]
    dtype: "TensorDType.Float16"
  }
}

layer{
  type: "ViewOp"
  top: "view_114"
  bottom: "clone_24"
  layer_param{
    attr_0: [128, 1, 32, 128]
    shape: [128, 1, 32, 128]
    dtype: "TensorDType.Float16"
  }
}

layer{
  type: "UnsqueezeOp"
  top: "unsqueeze_14"
  bottom: "view_107"
  layer_param{
    attr_0: -2
    shape: [128, 1, 2, 1, 128]
    dtype: "TensorDType.Float16"
  }
}

layer{
  type: "ExpandOp"
  top: "expand_13"
  bottom: "unsqueeze_14"
  layer_param{
    attr_0: [-1, -1, -1, 16, -1]
    shape: [128, 1, 2, 16, 128]
    dtype: "TensorDType.Float16"
  }
}

layer{
  type: "CloneOp"
  top: "clone_25"
  bottom: "expand_13"
  layer_param{
    shape: [128, 1, 2, 16, 128]
    dtype: "TensorDType.Float16"
  }
}

layer{
  type: "ViewOp"
  top: "view_115"
  bottom: "clone_25"
  layer_param{
    attr_0: [128, 1, 32, 128]
    shape: [128, 1, 32, 128]
    dtype: "TensorDType.Float16"
  }
}

layer{
  type: "PermuteOp"
  top: "permute_24"
  bottom: "cat_12"
  layer_param{
    attr_0: [1, 2, 0, 3]
    shape: [1, 32, 128, 128]
    dtype: "TensorDType.Float16"
  }
}

layer{
  type: "PermuteOp"
  top: "permute_25"
  bottom: "view_114"
  layer_param{
    attr_0: [1, 2, 0, 3]
    shape: [1, 32, 128, 128]
    dtype: "TensorDType.Float16"
  }
}

layer{
  type: "PermuteOp"
  top: "permute_26"
  bottom: "view_115"
  layer_param{
    attr_0: [1, 2, 0, 3]
    shape: [1, 32, 128, 128]
    dtype: "TensorDType.Float16"
  }
}

layer{
  type: "ScaledDotProductFlashAttentionForCpuOp"
  top: "_scaled_dot_product_flash_attention_for_cpu_6"
  bottom: "permute_24"
  bottom: "permute_25"
  bottom: "permute_26"
  layer_param{
    attr_0: 0.0
    attr_1: True
    shape{
      output_0: [1, 32, 128, 128]
      output_1: [1, 32, 128]
    }
  }
}

layer{
  type: "GetItemOp"
  top: "getitem_45"
  bottom: "_scaled_dot_product_flash_attention_for_cpu_6"
  layer_param{
    attr_0: 0
    shape: [1, 32, 128, 128]
    dtype: "TensorDType.Float16"
  }
}

layer{
  type: "PermuteOp"
  top: "permute_27"
  bottom: "getitem_45"
  layer_param{
    attr_0: [2, 0, 1, 3]
    shape: [128, 1, 32, 128]
    dtype: "TensorDType.Float16"
  }
}

layer{
  type: "ViewOp"
  top: "view_116"
  bottom: "permute_27"
  layer_param{
    attr_0: [128, 1, 4096]
    shape: [128, 1, 4096]
    dtype: "TensorDType.Float16"
  }
}

layer{
  type: "TransposeOp"
  top: "t_25"
  bottom: "arg47_1"
  layer_param{
    shape: [4096, 4096]
    dtype: "TensorDType.Float16"
  }
}

layer{
  type: "ViewOp"
  top: "view_117"
  bottom: "view_116"
  layer_param{
    attr_0: [128, 4096]
    shape: [128, 4096]
    dtype: "TensorDType.Float16"
  }
}

layer{
  type: "MatmulOp"
  top: "mm_18"
  bottom: "view_117"
  bottom: "t_25"
  layer_param{
    shape: [128, 4096]
    dtype: "TensorDType.Float16"
  }
}

layer{
  type: "ViewOp"
  top: "_unsafe_view_18"
  bottom: "mm_18"
  layer_param{
    attr_0: [128, 1, 4096]
    shape: [128, 1, 4096]
    dtype: "TensorDType.Float16"
  }
}

layer{
  type: "CloneOp"
  top: "clone_26"
  bottom: "_unsafe_view_18"
  layer_param{
    shape: [128, 1, 4096]
    dtype: "TensorDType.Float16"
  }
}

layer{
  type: "AddOp"
  top: "add_39"
  bottom: "add_35"
  bottom: "clone_26"
  layer_param{
    shape: [128, 1, 4096]
    dtype: "TensorDType.Float16"
  }
}

layer{
  type: "PowOp"
  top: "pow_15"
  bottom: "add_39"
  layer_param{
    attr_0: 2
    shape: [128, 1, 4096]
    dtype: "TensorDType.Float32"
  }
}

layer{
  type: "MeanOp"
  top: "mean_13"
  bottom: "pow_15"
  layer_param{
    attr_0: [-1]
    attr_1: True
    shape: [128, 1, 1]
    dtype: "TensorDType.Float32"
  }
}

layer{
  type: "AddOp"
  top: "add_40"
  bottom: "mean_13"
  layer_param{
    attr_0: 1e-05
    shape: [128, 1, 1]
    dtype: "TensorDType.Float32"
  }
}

layer{
  type: "RsqrtOp"
  top: "rsqrt_13"
  bottom: "add_40"
  layer_param{
    shape: [128, 1, 1]
    dtype: "TensorDType.Float32"
  }
}

layer{
  type: "MulOp"
  top: "mul_90"
  bottom: "add_39"
  bottom: "rsqrt_13"
  layer_param{
    shape: [128, 1, 4096]
    dtype: "TensorDType.Float32"
  }
}

layer{
  type: "TransposeOp"
  top: "t_26"
  bottom: "arg49_1"
  layer_param{
    shape: [4096, 27392]
    dtype: "TensorDType.Float16"
  }
}

layer{
  type: "ViewOp"
  top: "view_118"
  bottom: "fuse_ln_mul_91"
  layer_param{
    attr_0: [128, 4096]
    shape: [128, 4096]
    dtype: "TensorDType.Float16"
  }
}

layer{
  type: "MatmulOp"
  top: "mm_19"
  bottom: "view_118"
  bottom: "t_26"
  layer_param{
    shape: [128, 27392]
    dtype: "TensorDType.Float16"
  }
}

layer{
  type: "ViewOp"
  top: "_unsafe_view_19"
  bottom: "mm_19"
  layer_param{
    attr_0: [128, 1, 27392]
    shape: [128, 1, 27392]
    dtype: "TensorDType.Float16"
  }
}

layer{
  type: "SplitOp"
  top: "split_6"
  bottom: "_unsafe_view_19"
  layer_param{
    attr_0: 13696
    attr_1: -1
    shape{
      output_0: [128, 1, 13696]
      output_1: [128, 1, 13696]
    }
  }
}

layer{
  type: "GetItemOp"
  top: "getitem_47"
  bottom: "split_6"
  layer_param{
    attr_0: 0
    shape: [128, 1, 13696]
    dtype: "TensorDType.Float16"
  }
}

layer{
  type: "GetItemOp"
  top: "getitem_48"
  bottom: "split_6"
  layer_param{
    attr_0: 1
    shape: [128, 1, 13696]
    dtype: "TensorDType.Float16"
  }
}

layer{
  type: "SiluOp"
  top: "silu_6"
  bottom: "getitem_47"
  layer_param{
    shape: [128, 1, 13696]
    dtype: "TensorDType.Float16"
  }
}

layer{
  type: "MulOp"
  top: "mul_92"
  bottom: "silu_6"
  bottom: "getitem_48"
  layer_param{
    shape: [128, 1, 13696]
    dtype: "TensorDType.Float16"
  }
}

layer{
  type: "TransposeOp"
  top: "t_27"
  bottom: "arg50_1"
  layer_param{
    shape: [13696, 4096]
    dtype: "TensorDType.Float16"
  }
}

layer{
  type: "ViewOp"
  top: "view_119"
  bottom: "mul_92"
  layer_param{
    attr_0: [128, 13696]
    shape: [128, 13696]
    dtype: "TensorDType.Float16"
  }
}

layer{
  type: "MatmulOp"
  top: "mm_20"
  bottom: "view_119"
  bottom: "t_27"
  layer_param{
    shape: [128, 4096]
    dtype: "TensorDType.Float16"
  }
}

layer{
  type: "ViewOp"
  top: "_unsafe_view_20"
  bottom: "mm_20"
  layer_param{
    attr_0: [128, 1, 4096]
    shape: [128, 1, 4096]
    dtype: "TensorDType.Float16"
  }
}

layer{
  type: "CloneOp"
  top: "clone_27"
  bottom: "_unsafe_view_20"
  layer_param{
    shape: [128, 1, 4096]
    dtype: "TensorDType.Float16"
  }
}

layer{
  type: "AddOp"
  top: "add_41"
  bottom: "add_39"
  bottom: "clone_27"
  layer_param{
    shape: [128, 1, 4096]
    dtype: "TensorDType.Float16"
  }
}

layer{
  type: "PowOp"
  top: "pow_16"
  bottom: "add_41"
  layer_param{
    attr_0: 2
    shape: [128, 1, 4096]
    dtype: "TensorDType.Float32"
  }
}

layer{
  type: "MeanOp"
  top: "mean_14"
  bottom: "pow_16"
  layer_param{
    attr_0: [-1]
    attr_1: True
    shape: [128, 1, 1]
    dtype: "TensorDType.Float32"
  }
}

layer{
  type: "AddOp"
  top: "add_42"
  bottom: "mean_14"
  layer_param{
    attr_0: 1e-05
    shape: [128, 1, 1]
    dtype: "TensorDType.Float32"
  }
}

layer{
  type: "RsqrtOp"
  top: "rsqrt_14"
  bottom: "add_42"
  layer_param{
    shape: [128, 1, 1]
    dtype: "TensorDType.Float32"
  }
}

layer{
  type: "MulOp"
  top: "mul_93"
  bottom: "add_41"
  bottom: "rsqrt_14"
  layer_param{
    shape: [128, 1, 4096]
    dtype: "TensorDType.Float32"
  }
}

layer{
  type: "ViewOp"
  top: "view_120"
  bottom: "fuse_ln_mul_94"
  layer_param{
    attr_0: [128, 4096]
    shape: [128, 4096]
    dtype: "TensorDType.Float16"
  }
}

layer{
  type: "TransposeOp"
  top: "t_28"
…
    attr_0: [1, 2, 0, 3]
    shape: [1, 32, 128, 128]
    dtype: "TensorDType.Float16"
  }
}

layer{
  type: "PermuteOp"
  top: "permute_101"
  bottom: "view_437"
  layer_param{
    attr_0: [1, 2, 0, 3]
    shape: [1, 32, 128, 128]
    dtype: "TensorDType.Float16"
  }
}

layer{
  type: "PermuteOp"
  top: "permute_102"
  bottom: "view_438"
  layer_param{
    attr_0: [1, 2, 0, 3]
    shape: [1, 32, 128, 128]
    dtype: "TensorDType.Float16"
  }
}

layer{
  type: "ScaledDotProductFlashAttentionForCpuOp"
  top: "_scaled_dot_product_flash_attention_for_cpu_25"
  bottom: "permute_100"
  bottom: "permute_101"
  bottom: "permute_102"
  layer_param{
    attr_0: 0.0
    attr_1: True
    shape{
      output_0: [1, 32, 128, 128]
      output_1: [1, 32, 128]
    }
  }
}

layer{
  type: "GetItemOp"
  top: "getitem_178"
  bottom: "_scaled_dot_product_flash_attention_for_cpu_25"
  layer_param{
    attr_0: 0
    shape: [1, 32, 128, 128]
    dtype: "TensorDType.Float16"
  }
}

layer{
  type: "PermuteOp"
  top: "permute_103"
  bottom: "getitem_178"
  layer_param{
    attr_0: [2, 0, 1, 3]
    shape: [128, 1, 32, 128]
    dtype: "TensorDType.Float16"
  }
}

layer{
  type: "ViewOp"
  top: "view_439"
  bottom: "permute_103"
  layer_param{
    attr_0: [128, 1, 4096]
    shape: [128, 1, 4096]
    dtype: "TensorDType.Float16"
  }
}

layer{
  type: "TransposeOp"
  top: "t_101"
  bottom: "arg180_1"
  layer_param{
    shape: [4096, 4096]
    dtype: "TensorDType.Float16"
  }
}

layer{
  type: "ViewOp"
  top: "view_440"
  bottom: "view_439"
  layer_param{
    attr_0: [128, 4096]
    shape: [128, 4096]
    dtype: "TensorDType.Float16"
  }
}

layer{
  type: "MatmulOp"
  top: "mm_75"
  bottom: "view_440"
  bottom: "t_101"
  layer_param{
    shape: [128, 4096]
    dtype: "TensorDType.Float16"
  }
}

layer{
  type: "ViewOp"
  top: "_unsafe_view_75"
  bottom: "mm_75"
  layer_param{
    attr_0: [128, 1, 4096]
    shape: [128, 1, 4096]
    dtype: "TensorDType.Float16"
  }
}

layer{
  type: "CloneOp"
  top: "clone_102"
  bottom: "_unsafe_view_75"
  layer_param{
    shape: [128, 1, 4096]
    dtype: "TensorDType.Float16"
  }
}

layer{
  type: "AddOp"
  top: "add_153"
  bottom: "add_149"
  bottom: "clone_102"
  layer_param{
    shape: [128, 1, 4096]
    dtype: "TensorDType.Float16"
  }
}

layer{
  type: "PowOp"
  top: "pow_53"
  bottom: "add_153"
  layer_param{
    attr_0: 2
    shape: [128, 1, 4096]
    dtype: "TensorDType.Float32"
  }
}

layer{
  type: "MeanOp"
  top: "mean_51"
  bottom: "pow_53"
  layer_param{
    attr_0: [-1]
    attr_1: True
    shape: [128, 1, 1]
    dtype: "TensorDType.Float32"
  }
}

layer{
  type: "AddOp"
  top: "add_154"
  bottom: "mean_51"
  layer_param{
    attr_0: 1e-05
    shape: [128, 1, 1]
    dtype: "TensorDType.Float32"
  }
}

layer{
  type: "RsqrtOp"
  top: "rsqrt_51"
  bottom: "add_154"
  layer_param{
    shape: [128, 1, 1]
    dtype: "TensorDType.Float32"
  }
}

layer{
  type: "MulOp"
  top: "mul_337"
  bottom: "add_153"
  bottom: "rsqrt_51"
  layer_param{
    shape: [128, 1, 4096]
    dtype: "TensorDType.Float32"
  }
}

layer{
  type: "TransposeOp"
  top: "t_102"
  bottom: "arg182_1"
  layer_param{
    shape: [4096, 27392]
    dtype: "TensorDType.Float16"
  }
}

layer{
  type: "ViewOp"
  top: "view_441"
  bottom: "fuse_ln_mul_338"
  layer_param{
    attr_0: [128, 4096]
    shape: [128, 4096]
    dtype: "TensorDType.Float16"
  }
}

layer{
  type: "MatmulOp"
  top: "mm_76"
  bottom: "view_441"
  bottom: "t_102"
  layer_param{
    shape: [128, 27392]
    dtype: "TensorDType.Float16"
  }
}

layer{
  type: "ViewOp"
  top: "_unsafe_view_76"
  bottom: "mm_76"
  layer_param{
    attr_0: [128, 1, 27392]
    shape: [128, 1, 27392]
    dtype: "TensorDType.Float16"
  }
}

layer{
  type: "SplitOp"
  top: "split_25"
  bottom: "_unsafe_view_76"
  layer_param{
    attr_0: 13696
    attr_1: -1
    shape{
      output_0: [128, 1, 13696]
      output_1: [128, 1, 13696]
    }
  }
}

layer{
  type: "GetItemOp"
  top: "getitem_180"
  bottom: "split_25"
  layer_param{
    attr_0: 0
    shape: [128, 1, 13696]
    dtype: "TensorDType.Float16"
  }
}

layer{
  type: "GetItemOp"
  top: "getitem_181"
  bottom: "split_25"
  layer_param{
    attr_0: 1
    shape: [128, 1, 13696]
    dtype: "TensorDType.Float16"
  }
}

layer{
  type: "SiluOp"
  top: "silu_25"
  bottom: "getitem_180"
  layer_param{
    shape: [128, 1, 13696]
    dtype: "TensorDType.Float16"
  }
}

layer{
  type: "MulOp"
  top: "mul_339"
  bottom: "silu_25"
  bottom: "getitem_181"
  layer_param{
    shape: [128, 1, 13696]
    dtype: "TensorDType.Float16"
  }
}

layer{
  type: "TransposeOp"
  top: "t_103"
  bottom: "arg183_1"
  layer_param{
    shape: [13696, 4096]
    dtype: "TensorDType.Float16"
  }
}

layer{
  type: "ViewOp"
  top: "view_442"
  bottom: "mul_339"
  layer_param{
    attr_0: [128, 13696]
    shape: [128, 13696]
    dtype: "TensorDType.Float16"
  }
}

layer{
  type: "MatmulOp"
  top: "mm_77"
  bottom: "view_442"
  bottom: "t_103"
  layer_param{
    shape: [128, 4096]
    dtype: "TensorDType.Float16"
  }
}

layer{
  type: "ViewOp"
  top: "_unsafe_view_77"
  bottom: "mm_77"
  layer_param{
    attr_0: [128, 1, 4096]
    shape: [128, 1, 4096]
    dtype: "TensorDType.Float16"
  }
}

layer{
  type: "CloneOp"
  top: "clone_103"
  bottom: "_unsafe_view_77"
  layer_param{
    shape: [128, 1, 4096]
    dtype: "TensorDType.Float16"
  }
}

layer{
  type: "AddOp"
  top: "add_155"
  bottom: "add_153"
  bottom: "clone_103"
  layer_param{
    shape: [128, 1, 4096]
    dtype: "TensorDType.Float16"
  }
}

layer{
  type: "PowOp"
  top: "pow_54"
  bottom: "add_155"
  layer_param{
    attr_0: 2
    shape: [128, 1, 4096]
    dtype: "TensorDType.Float32"
  }
}

layer{
  type: "MeanOp"
  top: "mean_52"
  bottom: "pow_54"
  layer_param{
    attr_0: [-1]
    attr_1: True
    shape: [128, 1, 1]
    dtype: "TensorDType.Float32"
  }
}

layer{
  type: "AddOp"
  top: "add_156"
  bottom: "mean_52"
  layer_param{
    attr_0: 1e-05
    shape: [128, 1, 1]
    dtype: "TensorDType.Float32"
  }
}

layer{
  type: "RsqrtOp"
  top: "rsqrt_52"
  bottom: "add_156"
  layer_param{
    shape: [128, 1, 1]
    dtype: "TensorDType.Float32"
  }
}

layer{
  type: "MulOp"
  top: "mul_340"
  bottom: "add_155"
  bottom: "rsqrt_52"
  layer_param{
    shape: [128, 1, 4096]
    dtype: "TensorDType.Float32"
  }
}

layer{
  type: "ViewOp"
  top: "view_443"
  bottom: "fuse_ln_mul_341"
  layer_param{
    attr_0: [128, 4096]
    shape: [128, 4096]
    dtype: "TensorDType.Float16"
  }
}

layer{
  type: "TransposeOp"
  top: "t_104"
  bottom: "arg185_1"
  layer_param{
    shape: [4096, 4608]
    dtype: "TensorDType.Float16"
  }
}

layer{
  type: "AddMMOp"
  top: "addmm_26"
  bottom: "arg186_1"
  bottom: "view_443"
  bottom: "t_104"
  layer_param{
    shape: [128, 4608]
    dtype: "TensorDType.Float16"
  }
}

layer{
  type: "ViewOp"
  top: "view_444"
  bottom: "addmm_26"
  layer_param{
    attr_0: [128, 1, 4608]
    shape: [128, 1, 4608]
    dtype: "TensorDType.Float16"
  }
}

layer{
  type: "SplitWithSizeOp"
  top: "split_with_sizes_26"
  bottom: "view_444"
  layer_param{
    attr_0: [4096, 256, 256]
    attr_1: -1
    shape{
      output_0: [128, 1, 4096]
      output_1: [128, 1, 256]
      output_2: [128, 1, 256]
    }
  }
}

layer{
  type: "GetItemOp"
  top: "getitem_182"
  bottom: "split_with_sizes_26"
  layer_param{
    attr_0: 0
    shape: [128, 1, 4096]
    dtype: "TensorDType.Float16"
  }
}

layer{
  type: "GetItemOp"
  top: "getitem_183"
  bottom: "split_with_sizes_26"
  layer_param{
    attr_0: 1
    shape: [128, 1, 256]
    dtype: "TensorDType.Float16"
  }
}

layer{
  type: "GetItemOp"
  top: "getitem_184"
  bottom: "split_with_sizes_26"
  layer_param{
    attr_0: 2
    shape: [128, 1, 256]
    dtype: "TensorDType.Float16"
  }
}

layer{
  type: "ViewOp"
  top: "view_445"
  bottom: "getitem_182"
  layer_param{
    attr_0: [128, 1, 32, 128]
    shape: [128, 1, 32, 128]
    dtype: "TensorDType.Float16"
  }
}

layer{
  type: "ViewOp"
  top: "view_446"
  bottom: "getitem_183"
  layer_param{
    attr_0: [128, 1, 2, 128]
    shape: [128, 1, 2, 128]
    dtype: "TensorDType.Float16"
  }
}

layer{
  type: "ViewOp"
  top: "view_447"
  bottom: "getitem_184"
  layer_param{
    attr_0: [128, 1, 2, 128]
    shape: [128, 1, 2, 128]
    dtype: "TensorDType.Float16"
  }
}

layer{
  type: "SliceOp"
  top: "slice_158"
  bottom: "view_445"
  layer_param{
    attr_0: 3
    attr_1: 0
    attr_2: 64
    shape: [128, 1, 32, 64]
    dtype: "TensorDType.Float16"
  }
}

layer{
  type: "SliceOp"
  top: "slice_159"
  bottom: "view_445"
  layer_param{
    attr_0: 3
    attr_1: 64
    attr_2: 9223372036854775807
    shape: [128, 1, 32, 64]
    dtype: "TensorDType.Float16"
  }
}

layer{
  type: "SliceOp"
  top: "slice_160"
  bottom: "transpose_1"
  layer_param{
    attr_0: 0
    attr_1: 0
    attr_2: 128
    shape: [128, 1, 32, 2]
    dtype: "TensorDType.Float16"
  }
}

layer{
  type: "ViewOp"
  top: "view_448"
  bottom: "slice_158"
  layer_param{
    attr_0: [128, 1, 32, 32, 2]
    shape: [128, 1, 32, 32, 2]
    dtype: "TensorDType.Float16"
  }
}

layer{
  type: "ViewOp"
  top: "view_449"
  bottom: "slice_160"
  layer_param{
    attr_0: [128, -1, 1, 32, 2]
    shape: [128, 1, 1, 32, 2]
    dtype: "TensorDType.Float16"
  }
}

layer{
  type: "SelectOp"
  top: "select_416"
  bottom: "view_448"
  layer_param{
    attr_0: 4
    attr_1: 0
    shape: [128, 1, 32, 32]
    dtype: "TensorDType.Float16"
  }
}

layer{
  type: "SelectOp"
  top: "select_417"
  bottom: "view_449"
  layer_param{
    attr_0: 4
    attr_1: 0
    shape: [128, 1, 1, 32]
    dtype: "TensorDType.Float16"
  }
}

layer{
  type: "MulOp"
  top: "mul_342"
  bottom: "select_416"
  bottom: "select_417"
  layer_param{
    shape: [128, 1, 32, 32]
    dtype: "TensorDType.Float16"
  }
}

layer{
  type: "SelectOp"
  top: "select_418"
  bottom: "view_448"
  layer_param{
    attr_0: 4
    attr_1: 1
    shape: [128, 1, 32, 32]
    dtype: "TensorDType.Float16"
  }
}

layer{
  type: "SelectOp"
  top: "select_419"
  bottom: "view_449"
  layer_param{
    attr_0: 4
    attr_1: 1
    shape: [128, 1, 1, 32]
    dtype: "TensorDType.Float16"
  }
}

layer{
  type: "MulOp"
  top: "mul_343"
  bottom: "select_418"
  bottom: "select_419"
  layer_param{
    shape: [128, 1, 32, 32]
    dtype: "TensorDType.Float16"
  }
}

layer{
  type: "SubOp"
  top: "sub_52"
  bottom: "mul_342"
  bottom: "mul_343"
  layer_param{
    shape: [128, 1, 32, 32]
    dtype: "TensorDType.Float16"
  }
}

layer{
  type: "SelectOp"
  top: "select_420"
  bottom: "view_448"
  layer_param{
    attr_0: 4
    attr_1: 1
    shape: [128, 1, 32, 32]
    dtype: "TensorDType.Float16"
  }
}

layer{
  type: "SelectOp"
  top: "select_421"
  bottom: "view_449"
  layer_param{
    attr_0: 4
    attr_1: 0
    shape: [128, 1, 1, 32]
    dtype: "TensorDType.Float16"
  }
}

layer{
  type: "MulOp"
  top: "mul_344"
  bottom: "select_420"
  bottom: "select_421"
  layer_param{
    shape: [128, 1, 32, 32]
    dtype: "TensorDType.Float16"
  }
}

layer{
  type: "SelectOp"
  top: "select_422"
  bottom: "view_448"
  layer_param{
    attr_0: 4
    attr_1: 0
    shape: [128, 1, 32, 32]
    dtype: "TensorDType.Float16"
  }
}

layer{
  type: "SelectOp"
  top: "select_423"
  bottom: "view_449"
  layer_param{
    attr_0: 4
    attr_1: 1
    shape: [128, 1, 1, 32]
    dtype: "TensorDType.Float16"
  }
}

layer{
  type: "MulOp"
  top: "mul_345"
  bottom: "select_422"
  bottom: "select_423"
  layer_param{
    shape: [128, 1, 32, 32]
    dtype: "TensorDType.Float16"
  }
}

layer{
  type: "AddOp"
  top: "add_157"
  bottom: "mul_344"
  bottom: "mul_345"
  layer_param{
    shape: [128, 1, 32, 32]
    dtype: "TensorDType.Float16"
  }
}

layer{
  type: "StackOp"
  top: "stack_53"
  bottom: "sub_52"
  bottom: "add_157"
  layer_param{
    attr_0: -1
    shape: [128, 1, 32, 32, 2]
    dtype: "TensorDType.Float16"
  }
}

layer{
  type: "ViewOp"
  top: "view_450"
  bottom: "stack_53"
  layer_param{
    attr_0: [128, 1, 32, 64]
    shape: [128, 1, 32, 64]
    dtype: "TensorDType.Float16"
  }
}

layer{
  type: "CatOp"
  top: "cat_52"
  bottom: "view_450"
  bottom: "slice_159"
  layer_param{
    attr_0: -1
    shape: [128, 1, 32, 128]
    dtype: "TensorDType.Float16"
  }
}

layer{
  type: "SliceOp"
  top: "slice_161"
  bottom: "view_446"
  layer_param{
    attr_0: 3
    attr_1: 0
    attr_2: 64
    shape: [128, 1, 2, 64]
    dtype: "TensorDType.Float16"
  }
}

layer{
  type: "SliceOp"
  top: "slice_162"
  bottom: "view_446"
  layer_param{
    attr_0: 3
    attr_1: 64
    attr_2: 9223372036854775807
    shape: [128, 1, 2, 64]
    dtype: "TensorDType.Float16"
  }
}

layer{
  type: "SliceOp"
  top: "slice_163"
  bottom: "transpose_1"
  layer_param{
    attr_0: 0
    attr_1: 0
    attr_2: 128
    shape: [128, 1, 32, 2]
    dtype: "TensorDType.Float16"
  }
}

layer{
  type: "ViewOp"
  top: "view_451"
  bottom: "slice_161"
  layer_param{
    attr_0: [128, 1, 2, 32, 2]
    shape: [128, 1, 2, 32, 2]
    dtype: "TensorDType.Float16"
  }
}

layer{
  type: "ViewOp"
  top: "view_452"
  bottom: "slice_163"
  layer_param{
    attr_0: [128, -1, 1, 32, 2]
    shape: [128, 1, 1, 32, 2]
    dtype: "TensorDType.Float16"
  }
}

layer{
  type: "SelectOp"
  top: "select_424"
  bottom: "view_451"
  layer_param{
    attr_0: 4
    attr_1: 0
    shape: [128, 1, 2, 32]
    dtype: "TensorDType.Float16"
  }
}

layer{
  type: "SelectOp"
  top: "select_425"
  bottom: "view_452"
  layer_param{
    attr_0: 4
    attr_1: 0
    shape: [128, 1, 1, 32]
    dtype: "TensorDType.Float16"
  }
}

layer{
  type: "MulOp"
  top: "mul_346"
  bottom: "select_424"
  bottom: "select_425"
  layer_param{
    shape: [128, 1, 2, 32]
    dtype: "TensorDType.Float16"
  }
}

layer{
  type: "SelectOp"
  top: "select_426"
  bottom: "view_451"
  layer_param{
    attr_0: 4
    attr_1: 1
    shape: [128, 1, 2, 32]
    dtype: "TensorDType.Float16"
  }
}

layer{
  type: "SelectOp"
  top: "select_427"
  bottom: "view_452"
  layer_param{
    attr_0: 4
    attr_1: 1
    shape: [128, 1, 1, 32]
    dtype: "TensorDType.Float16"
  }
}

layer{
  type: "MulOp"
  top: "mul_347"
  bottom: "select_426"
  bottom: "select_427"
  layer_param{
    shape: [128, 1, 2, 32]
    dtype: "TensorDType.Float16"
  }
}

layer{
  type: "SubOp"
  top: "sub_53"
  bottom: "mul_346"
  bottom: "mul_347"
  layer_param{
    shape: [128, 1, 2, 32]
    dtype: "TensorDType.Float16"
  }
}

layer{
  type: "SelectOp"
  top: "select_428"
  bottom: "view_451"
  layer_param{
    attr_0: 4
    attr_1: 1
    shape: [128, 1, 2, 32]
    dtype: "TensorDType.Float16"
  }
}

layer{
  type: "SelectOp"
  top: "select_429"
  bottom: "view_452"
  layer_param{
    attr_0: 4
    attr_1: 0
    shape: [128, 1, 1, 32]
    dtype: "TensorDType.Float16"
  }
}

layer{
  type: "MulOp"
  top: "mul_348"
  bottom: "select_428"
  bottom: "select_429"
  layer_param{
    shape: [128, 1, 2, 32]
    dtype: "TensorDType.Float16"
  }
}

layer{
  type: "SelectOp"
  top: "select_430"
  bottom: "view_451"
  layer_param{
    attr_0: 4
    attr_1: 0
    shape: [128, 1, 2, 32]
    dtype: "TensorDType.Float16"
  }
}

layer{
  type: "SelectOp"
  top: "select_431"
  bottom: "view_452"
  layer_param{
    attr_0: 4
    attr_1: 1
    shape: [128, 1, 1, 32]
    dtype: "TensorDType.Float16"
  }
}

layer{
  type: "MulOp"
  top: "mul_349"
  bottom: "select_430"
  bottom: "select_431"
  layer_param{
    shape: [128, 1, 2, 32]
    dtype: "TensorDType.Float16"
  }
}

layer{
  type: "AddOp"
  top: "add_158"
  bottom: "mul_348"
  bottom: "mul_349"
  layer_param{
    shape: [128, 1, 2, 32]
    dtype: "TensorDType.Float16"
  }
}

layer{
  type: "StackOp"
  top: "stack_54"
  bottom: "sub_53"
  bottom: "add_158"
  layer_param{
    attr_0: -1
    shape: [128, 1, 2, 32, 2]
    dtype: "TensorDType.Float16"
  }
}

layer{
  type: "ViewOp"
  top: "view_453"
  bottom: "stack_54"
  layer_param{
    attr_0: [128, 1, 2, 64]
    shape: [128, 1, 2, 64]
    dtype: "TensorDType.Float16"
  }
}

layer{
  type: "CatOp"
  top: "cat_53"
  bottom: "view_453"
  bottom: "slice_162"
  layer_param{
    attr_0: -1
    shape: [128, 1, 2, 128]
    dtype: "TensorDType.Float16"
  }
}

layer{
  type: "UnsqueezeOp"
  top: "unsqueeze_53"
  bottom: "cat_53"
  layer_param{
    attr_0: -2
    shape: [128, 1, 2, 1, 128]
    dtype: "TensorDType.Float16"
  }
}

layer{
  type: "ExpandOp"
  top: "expand_52"
  bottom: "unsqueeze_53"
  layer_param{
    attr_0: [-1, -1, -1, 16, -1]
    shape: [128, 1, 2, 16, 128]
    dtype: "TensorDType.Float16"
  }
}

layer{
  type: "CloneOp"
  top: "clone_104"
  bottom: "expand_52"
  layer_param{
    shape: [128, 1, 2, 16, 128]
    dtype: "TensorDType.Float16"
  }
}

layer{
  type: "ViewOp"
  top: "view_454"
  bottom: "clone_104"
  layer_param{
    attr_0: [128, 1, 32, 128]
    shape: [128, 1, 32, 128]
    dtype: "TensorDType.Float16"
  }
}

layer{
  type: "UnsqueezeOp"
  top: "unsqueeze_54"
  bottom: "view_447"
  layer_param{
    attr_0: -2
    shape: [128, 1, 2, 1, 128]
    dtype: "TensorDType.Float16"
  }
}

layer{
  type: "ExpandOp"
  top: "expand_53"
  bottom: "unsqueeze_54"
  layer_param{
    attr_0: [-1, -1, -1, 16, -1]
    shape: [128, 1, 2, 16, 128]
    dtype: "TensorDType.Float16"
  }
}

layer{
  type: "CloneOp"
  top: "clone_105"
  bottom: "expand_53"
  layer_param{
    shape: [128, 1, 2, 16, 128]
    dtype: "TensorDType.Float16"
  }
}

layer{
  type: "ViewOp"
  top: "view_455"
  bottom: "clone_105"
  layer_param{
    attr_0: [128, 1, 32, 128]
    shape: [128, 1, 32, 128]
    dtype: "TensorDType.Float16"
  }
}

layer{
  type: "PermuteOp"
  top: "permute_104"
  bottom: "cat_52"
  layer_param{
    attr_0: [1, 2, 0, 3]
    shape: [1, 32, 128, 128]
    dtype: "TensorDType.Float16"
  }
}

layer{
  type: "PermuteOp"
  top: "permute_105"
  bottom: "view_454"
  layer_param{
    attr_0: [1, 2, 0, 3]
    shape: [1, 32, 128, 128]
    dtype: "TensorDType.Float16"
  }
}

layer{
  type: "PermuteOp"
  top: "permute_106"
  bottom: "view_455"
  layer_param{
    attr_0: [1, 2, 0, 3]
    shape: [1, 32, 128, 128]
    dtype: "TensorDType.Float16"
  }
}

layer{
  type: "ScaledDotProductFlashAttentionForCpuOp"
  top: "_scaled_dot_product_flash_attention_for_cpu_26"
  bottom: "permute_104"
  bottom: "permute_105"
  bottom: "permute_106"
  layer_param{
    attr_0: 0.0
    attr_1: True
    shape{
      output_0: [1, 32, 128, 128]
      output_1: [1, 32, 128]
    }
  }
}

layer{
  type: "GetItemOp"
  top: "getitem_185"
  bottom: "_scaled_dot_product_flash_attention_for_cpu_26"
  layer_param{
    attr_0: 0
    shape: [1, 32, 128, 128]
    dtype: "TensorDType.Float16"
  }
}

layer{
  type: "PermuteOp"
  top: "permute_107"
  bottom: "getitem_185"
  layer_param{
    attr_0: [2, 0, 1, 3]
    shape: [128, 1, 32, 128]
    dtype: "TensorDType.Float16"
  }
}

layer{
  type: "ViewOp"
  top: "view_456"
  bottom: "permute_107"
  layer_param{
    attr_0: [128, 1, 4096]
    shape: [128, 1, 4096]
    dtype: "TensorDType.Float16"
  }
}

layer{
  type: "TransposeOp"
  top: "t_105"
  bottom: "arg187_1"
  layer_param{
    shape: [4096, 4096]
    dtype: "TensorDType.Float16"
  }
}

layer{
  type: "ViewOp"
  top: "view_457"
  bottom: "view_456"
  layer_param{
    attr_0: [128, 4096]
    shape: [128, 4096]
    dtype: "TensorDType.Float16"
  }
}

layer{
  type: "MatmulOp"
  top: "mm_78"
  bottom: "view_457"
  bottom: "t_105"
  layer_param{
    shape: [128, 4096]
    dtype: "TensorDType.Float16"
  }
}

layer{
  type: "ViewOp"
  top: "_unsafe_view_78"
  bottom: "mm_78"
  layer_param{
    attr_0: [128, 1, 4096]
    shape: [128, 1, 4096]
    dtype: "TensorDType.Float16"
  }
}

layer{
  type: "CloneOp"
  top: "clone_106"
  bottom: "_unsafe_view_78"
  layer_param{
    shape: [128, 1, 4096]
    dtype: "TensorDType.Float16"
  }
}

layer{
  type: "AddOp"
  top: "add_159"
  bottom: "add_155"
  bottom: "clone_106"
  layer_param{
    shape: [128, 1, 4096]
    dtype: "TensorDType.Float16"
  }
}

layer{
  type: "PowOp"
  top: "pow_55"
  bottom: "add_159"
  layer_param{
    attr_0: 2
    shape: [128, 1, 4096]
    dtype: "TensorDType.Float32"
  }
}

layer{
  type: "MeanOp"
  top: "mean_53"
  bottom: "pow_55"
  layer_param{
    attr_0: [-1]
    attr_1: True
    shape: [128, 1, 1]
    dtype: "TensorDType.Float32"
  }
}

layer{
  type: "AddOp"
  top: "add_160"
  bottom: "mean_53"
  layer_param{
    attr_0: 1e-05
    shape: [128, 1, 1]
    dtype: "TensorDType.Float32"
  }
}

layer{
  type: "RsqrtOp"
  top: "rsqrt_53"
  bottom: "add_160"
  layer_param{
    shape: [128, 1, 1]
    dtype: "TensorDType.Float32"
  }
}

layer{
  type: "MulOp"
  top: "mul_350"
  bottom: "add_159"
  bottom: "rsqrt_53"
  layer_param{
    shape: [128, 1, 4096]
    dtype: "TensorDType.Float32"
  }
}

layer{
  type: "TransposeOp"
  top: "t_106"
  bottom: "arg189_1"
  layer_param{
    shape: [4096, 27392]
    dtype: "TensorDType.Float16"
  }
}

layer{
  type: "ViewOp"
  top: "view_458"
  bottom: "fuse_ln_mul_351"
  layer_param{
    attr_0: [128, 4096]
    shape: [128, 4096]
    dtype: "TensorDType.Float16"
  }
}

layer{
  type: "MatmulOp"
  top: "mm_79"
  bottom: "view_458"
  bottom: "t_106"
  layer_param{
    shape: [128, 27392]
    dtype: "TensorDType.Float16"
  }
}

layer{
  type: "ViewOp"
  top: "_unsafe_view_79"
  bottom: "mm_79"
  layer_param{
    attr_0: [128, 1, 27392]
    shape: [128, 1, 27392]
    dtype: "TensorDType.Float16"
  }
}

layer{
  type: "SplitOp"
  top: "split_26"
  bottom: "_unsafe_view_79"
  layer_param{
    attr_0: 13696
    attr_1: -1
    shape{
      output_0: [128, 1, 13696]
      output_1: [128, 1, 13696]
    }
  }
}

layer{
  type: "GetItemOp"
  top: "getitem_187"
  bottom: "split_26"
  layer_param{
    attr_0: 0
    shape: [128, 1, 13696]
    dtype: "TensorDType.Float16"
  }
}

layer{
  type: "GetItemOp"
  top: "getitem_188"
  bottom: "split_26"
  layer_param{
    attr_0: 1
    shape: [128, 1, 13696]
    dtype: "TensorDType.Float16"
  }
}

layer{
  type: "SiluOp"
  top: "silu_26"
  bottom: "getitem_187"
  layer_param{
    shape: [128, 1, 13696]
    dtype: "TensorDType.Float16"
  }
}

layer{
  type: "MulOp"
  top: "mul_352"
  bottom: "silu_26"
  bottom: "getitem_188"
  layer_param{
    shape: [128, 1, 13696]
    dtype: "TensorDType.Float16"
  }
}

layer{
  type: "TransposeOp"
  top: "t_107"
  bottom: "arg190_1"
  layer_param{
    shape: [13696, 4096]
    dtype: "TensorDType.Float16"
  }
}

layer{
  type: "ViewOp"
  top: "view_459"
  bottom: "mul_352"
  layer_param{
    attr_0: [128, 13696]
    shape: [128, 13696]
    dtype: "TensorDType.Float16"
  }
}

layer{
  type: "MatmulOp"
  top: "mm_80"
  bottom: "view_459"
  bottom: "t_107"
  layer_param{
    shape: [128, 4096]
    dtype: "TensorDType.Float16"
  }
}

layer{
  type: "ViewOp"
  top: "_unsafe_view_80"
  bottom: "mm_80"
  layer_param{
    attr_0: [128, 1, 4096]
    shape: [128, 1, 4096]
    dtype: "TensorDType.Float16"
  }
}

layer{
  type: "CloneOp"
  top: "clone_107"
  bottom: "_unsafe_view_80"
  layer_param{
    shape: [128, 1, 4096]
    dtype: "TensorDType.Float16"
  }
}

layer{
  type: "AddOp"
  top: "add_161"
  bottom: "add_159"
  bottom: "clone_107"
  layer_param{
    shape: [128, 1, 4096]
    dtype: "TensorDType.Float16"
  }
}

layer{
  type: "PowOp"
  top: "pow_56"
  bottom: "add_161"
  layer_param{
    attr_0: 2
    shape: [128, 1, 4096]
    dtype: "TensorDType.Float32"
  }
}

layer{
  type: "MeanOp"
  top: "mean_54"
  bottom: "pow_56"
  layer_param{
    attr_0: [-1]
    attr_1: True
    shape: [128, 1, 1]
    dtype: "TensorDType.Float32"
  }
}

layer{
  type: "AddOp"
  top: "add_162"
  bottom: "mean_54"
  layer_param{
    attr_0: 1e-05
    shape: [128, 1, 1]
    dtype: "TensorDType.Float32"
  }
}

layer{
  type: "RsqrtOp"
  top: "rsqrt_54"
  bottom: "add_162"
  layer_param{
    shape: [128, 1, 1]
    dtype: "TensorDType.Float32"
  }
}

layer{
  type: "MulOp"
  top: "mul_353"
  bottom: "add_161"
  bottom: "rsqrt_54"
  layer_param{
    shape: [128, 1, 4096]
    dtype: "TensorDType.Float32"
  }
}

layer{
  type: "ViewOp"
  top: "view_460"
  bottom: "fuse_ln_mul_354"
  layer_param{
    attr_0: [128, 4096]
    shape: [128, 4096]
    dtype: "TensorDType.Float16"
  }
}

layer{
  type: "TransposeOp"
  top: "t_108"
  bottom: "arg192_1"
  layer_param{
    shape: [4096, 4608]
    dtype: "TensorDType.Float16"
  }
}

layer{
  type: "AddMMOp"
  top: "addmm_27"
  bottom: "arg193_1"
  bottom: "view_460"
  bottom: "t_108"
  layer_param{
    shape: [128, 4608]
    dtype: "TensorDType.Float16"
  }
}

layer{
  type: "ViewOp"
  top: "view_461"
  bottom: "addmm_27"
  layer_param{
    attr_0: [128, 1, 4608]
    shape: [128, 1, 4608]
    dtype: "TensorDType.Float16"
  }
}

layer{
  type: "SplitWithSizeOp"
  top: "split_with_sizes_27"
  bottom: "view_461"
  layer_param{
    attr_0: [4096, 256, 256]
    attr_1: -1
    shape{
      output_0: [128, 1, 4096]
      output_1: [128, 1, 256]
      output_2: [128, 1, 256]
    }
  }
}

layer{
  type: "GetItemOp"
  top: "getitem_189"
  bottom: "split_with_sizes_27"
  layer_param{
    attr_0: 0
    shape: [128, 1, 4096]
    dtype: "TensorDType.Float16"
  }
}

layer{
  type: "GetItemOp"
  top: "getitem_190"
  bottom: "split_with_sizes_27"
  layer_param{
    attr_0: 1
    shape: [128, 1, 256]
    dtype: "TensorDType.Float16"
  }
}

layer{
  type: "GetItemOp"
  top: "getitem_191"
  bottom: "split_with_sizes_27"
  layer_param{
    attr_0: 2
    shape: [128, 1, 256]
    dtype: "TensorDType.Float16"
  }
}

layer{
  type: "ViewOp"
  top: "view_462"
  bottom: "getitem_189"
  layer_param{
    attr_0: [128, 1, 32, 128]
    shape: [128, 1, 32, 128]
    dtype: "TensorDType.Float16"
  }
}

layer{
  type: "ViewOp"
  top: "view_463"
  bottom: "getitem_190"
  layer_param{
    attr_0: [128, 1, 2, 128]
    shape: [128, 1, 2, 128]
    dtype: "TensorDType.Float16"
  }
}

layer{
  type: "ViewOp"
  top: "view_464"
  bottom: "getitem_191"
  layer_param{
    attr_0: [128, 1, 2, 128]
    shape: [128, 1, 2, 128]
    dtype: "TensorDType.Float16"
  }
}

layer{
  type: "SliceOp"
  top: "slice_164"
  bottom: "view_462"
  layer_param{
    attr_0: 3
    attr_1: 0
    attr_2: 64
    shape: [128, 1, 32, 64]
    dtype: "TensorDType.Float16"
  }
}

layer{
  type: "SliceOp"
  top: "slice_165"
  bottom: "view_462"
  layer_param{
    attr_0: 3
    attr_1: 64
    attr_2: 9223372036854775807
    shape: [128, 1, 32, 64]
    dtype: "TensorDType.Float16"
  }
}

layer{
  type: "SliceOp"
  top: "slice_166"
  bottom: "transpose_1"
  layer_param{
    attr_0: 0
    attr_1: 0
    attr_2: 128
    shape: [128, 1, 32, 2]
    dtype: "TensorDType.Float16"
  }
}

layer{
  type: "ViewOp"
  top: "view_465"
  bottom: "slice_164"
  layer_param{
    attr_0: [128, 1, 32, 32, 2]
    shape: [128, 1, 32, 32, 2]
    dtype: "TensorDType.Float16"
  }
}

layer{
  type: "ViewOp"
  top: "view_466"
  bottom: "slice_166"
  layer_param{
    attr_0: [128, -1, 1, 32, 2]
    shape: [128, 1, 1, 32, 2]
    dtype: "TensorDType.Float16"
  }
}

layer{
  type: "SelectOp"
  top: "select_432"
  bottom: "view_465"
  layer_param{
    attr_0: 4
    attr_1: 0
    shape: [128, 1, 32, 32]
    dtype: "TensorDType.Float16"
  }
}

layer{
  type: "SelectOp"
  top: "select_433"
  bottom: "view_466"
  layer_param{
    attr_0: 4
    attr_1: 0
    shape: [128, 1, 1, 32]
    dtype: "TensorDType.Float16"
  }
}

layer{
  type: "MulOp"
  top: "mul_355"
  bottom: "select_432"
  bottom: "select_433"
  layer_param{
    shape: [128, 1, 32, 32]
    dtype: "TensorDType.Float16"
  }
}

layer{
  type: "SelectOp"
  top: "select_434"
  bottom: "view_465"
  layer_param{
    attr_0: 4
    attr_1: 1
    shape: [128, 1, 32, 32]
    dtype: "TensorDType.Float16"
  }
}

layer{
  type: "SelectOp"
  top: "select_435"
  bottom: "view_466"
  layer_param{
    attr_0: 4
    attr_1: 1
    shape: [128, 1, 1, 32]
    dtype: "TensorDType.Float16"
  }
}

layer{
  type: "MulOp"
  top: "mul_356"
  bottom: "select_434"
  bottom: "select_435"
  layer_param{
    shape: [128, 1, 32, 32]
    dtype: "TensorDType.Float16"
  }
}

layer{
  type: "SubOp"
  top: "sub_54"
  bottom: "mul_355"
  bottom: "mul_356"
  layer_param{
    shape: [128, 1, 32, 32]
    dtype: "TensorDType.Float16"
  }
}

layer{
  type: "SelectOp"
  top: "select_436"
  bottom: "view_465"
  layer_param{
    attr_0: 4
    attr_1: 1
    shape: [128, 1, 32, 32]
    dtype: "TensorDType.Float16"
  }
}

layer{
  type: "SelectOp"
  top: "select_437"
  bottom: "view_466"
  layer_param{
    attr_0: 4
    attr_1: 0
    shape: [128, 1, 1, 32]
    dtype: "TensorDType.Float16"
  }
}

layer{
  type: "MulOp"
  top: "mul_357"
  bottom: "select_436"
  bottom: "select_437"
  layer_param{
    shape: [128, 1, 32, 32]
    dtype: "TensorDType.Float16"
  }
}

layer{
  type: "SelectOp"
  top: "select_438"
  bottom: "view_465"
  layer_param{
    attr_0: 4
    attr_1: 0
    shape: [128, 1, 32, 32]
    dtype: "TensorDType.Float16"
  }
}

layer{
  type: "SelectOp"
  top: "select_439"
  bottom: "view_466"
  layer_param{
    attr_0: 4
    attr_1: 1
    shape: [128, 1, 1, 32]
    dtype: "TensorDType.Float16"
  }
}

layer{
  type: "MulOp"
  top: "mul_358"
  bottom: "select_438"
  bottom: "select_439"
  layer_param{
    shape: [128, 1, 32, 32]
    dtype: "TensorDType.Float16"
  }
}

layer{
  type: "AddOp"
  top: "add_163"
  bottom: "mul_357"
  bottom: "mul_358"
  layer_param{
    shape: [128, 1, 32, 32]
    dtype: "TensorDType.Float16"
  }
}

layer{
  type: "StackOp"
  top: "stack_55"
  bottom: "sub_54"
  bottom: "add_163"
  layer_param{
    attr_0: -1
    shape: [128, 1, 32, 32, 2]
    dtype: "TensorDType.Float16"
  }
}

layer{
  type: "ViewOp"
  top: "view_467"
  bottom: "stack_55"
  layer_param{
    attr_0: [128, 1, 32, 64]
    shape: [128, 1, 32, 64]
    dtype: "TensorDType.Float16"
  }
}

layer{
  type: "CatOp"
  top: "cat_54"
  bottom: "view_467"
  bottom: "slice_165"
  layer_param{
    attr_0: -1
    shape: [128, 1, 32, 128]
    dtype: "TensorDType.Float16"
  }
}

layer{
  type: "SliceOp"
  top: "slice_167"
  bottom: "view_463"
  layer_param{
    attr_0: 3
    attr_1: 0
    attr_2: 64
    shape: [128, 1, 2, 64]
    dtype: "TensorDType.Float16"
  }
}

layer{
  type: "SliceOp"
  top: "slice_168"
  bottom: "view_463"
  layer_param{
    attr_0: 3
    attr_1: 64
    attr_2: 9223372036854775807
    shape: [128, 1, 2, 64]
    dtype: "TensorDType.Float16"
  }
}

layer{
  type: "SliceOp"
  top: "slice_169"
  bottom: "transpose_1"
  layer_param{
    attr_0: 0
    attr_1: 0
    attr_2: 128
    shape: [128, 1, 32, 2]
    dtype: "TensorDType.Float16"
  }
}

layer{
  type: "ViewOp"
  top: "view_468"
  bottom: "slice_167"
  layer_param{
    attr_0: [128, 1, 2, 32, 2]
    shape: [128, 1, 2, 32, 2]
    dtype: "TensorDType.Float16"
  }
}

layer{
  type: "ViewOp"
  top: "view_469"
  bottom: "slice_169"
  layer_param{
    attr_0: [128, -1, 1, 32, 2]
    shape: [128, 1, 1, 32, 2]
    dtype: "TensorDType.Float16"
  }
}

layer{
  type: "SelectOp"
  top: "select_440"
  bottom: "view_468"
  layer_param{
    attr_0: 4
    attr_1: 0
    shape: [128, 1, 2, 32]
    dtype: "TensorDType.Float16"
  }
}

layer{
  type: "SelectOp"
  top: "select_441"
  bottom: "view_469"
  layer_param{
    attr_0: 4
    attr_1: 0
    shape: [128, 1, 1, 32]
    dtype: "TensorDType.Float16"
  }
}

layer{
  type: "MulOp"
  top: "mul_359"
  bottom: "select_440"
  bottom: "select_441"
  layer_param{
    shape: [128, 1, 2, 32]
    dtype: "TensorDType.Float16"
  }
}

layer{
  type: "SelectOp"
  top: "select_442"
  bottom: "view_468"
  layer_param{
    attr_0: 4
    attr_1: 1
    shape: [128, 1, 2, 32]
    dtype: "TensorDType.Float16"
  }
}

layer{
  type: "SelectOp"
  top: "select_443"
  bottom: "view_469"
  layer_param{
    attr_0: 4
    attr_1: 1
    shape: [128, 1, 1, 32]
    dtype: "TensorDType.Float16"
  }
}

layer{
  type: "MulOp"
  top: "mul_360"
  bottom: "select_442"
  bottom: "select_443"
  layer_param{
    shape: [128, 1, 2, 32]
    dtype: "TensorDType.Float16"
  }
}

layer{
  type: "SubOp"
  top: "sub_55"
  bottom: "mul_359"
  bottom: "mul_360"
  layer_param{
    shape: [128, 1, 2, 32]
    dtype: "TensorDType.Float16"
  }
}

layer{
  type: "SelectOp"
  top: "select_444"
  bottom: "view_468"
  layer_param{
    attr_0: 4
    attr_1: 1
    shape: [128, 1, 2, 32]
    dtype: "TensorDType.Float16"
  }
}

layer{
  type: "SelectOp"
  top: "select_445"
  bottom: "view_469"
  layer_param{
    attr_0: 4
    attr_1: 0
    shape: [128, 1, 1, 32]
    dtype: "TensorDType.Float16"
  }
}

layer{
  type: "MulOp"
  top: "mul_361"
  bottom: "select_444"
  bottom: "select_445"
  layer_param{
    shape: [128, 1, 2, 32]
    dtype: "TensorDType.Float16"
  }
}

layer{
  type: "SelectOp"
  top: "select_446"
  bottom: "view_468"
  layer_param{
    attr_0: 4
    attr_1: 0
    shape: [128, 1, 2, 32]
    dtype: "TensorDType.Float16"
  }
}

layer{
  type: "SelectOp"
  top: "select_447"
  bottom: "view_469"
  layer_param{
    attr_0: 4
    attr_1: 1
    shape: [128, 1, 1, 32]
    dtype: "TensorDType.Float16"
  }
}

layer{
  type: "MulOp"
  top: "mul_362"
  bottom: "select_446"
  bottom: "select_447"
  layer_param{
    shape: [128, 1, 2, 32]
    dtype: "TensorDType.Float16"
  }
}

layer{
  type: "AddOp"
  top: "add_164"
  bottom: "mul_361"
  bottom: "mul_362"
  layer_param{
    shape: [128, 1, 2, 32]
    dtype: "TensorDType.Float16"
  }
}

layer{
  type: "StackOp"
  top: "stack_56"
  bottom: "sub_55"
  bottom: "add_164"
  layer_param{
    attr_0: -1
    shape: [128, 1, 2, 32, 2]
    dtype: "TensorDType.Float16"
  }
}

layer{
  type: "ViewOp"
  top: "view_470"
  bottom: "stack_56"
  layer_param{
    attr_0: [128, 1, 2, 64]
    shape: [128, 1, 2, 64]
    dtype: "TensorDType.Float16"
  }
}

layer{
  type: "CatOp"
  top: "cat_55"
  bottom: "view_470"
  bottom: "slice_168"
  layer_param{
    attr_0: -1
    shape: [128, 1, 2, 128]
    dtype: "TensorDType.Float16"
  }
}

layer{
  type: "UnsqueezeOp"
  top: "unsqueeze_55"
  bottom: "cat_55"
  layer_param{
    attr_0: -2
    shape: [128, 1, 2, 1, 128]
    dtype: "TensorDType.Float16"
  }
}

layer{
  type: "ExpandOp"
  top: "expand_54"
  bottom: "unsqueeze_55"
  layer_param{
    attr_0: [-1, -1, -1, 16, -1]
    shape: [128, 1, 2, 16, 128]
    dtype: "TensorDType.Float16"
  }
}

layer{
  type: "CloneOp"
  top: "clone_108"
  bottom: "expand_54"
  layer_param{
    shape: [128, 1, 2, 16, 128]
    dtype: "TensorDType.Float16"
  }
}

layer{
  type: "ViewOp"
  top: "view_471"
  bottom: "clone_108"
  layer_param{
    attr_0: [128, 1, 32, 128]
    shape: [128, 1, 32, 128]
    dtype: "TensorDType.Float16"
  }
}

layer{
  type: "UnsqueezeOp"
  top: "unsqueeze_56"
  bottom: "view_464"
  layer_param{
    attr_0: -2
    shape: [128, 1, 2, 1, 128]
    dtype: "TensorDType.Float16"
  }
}

layer{
  type: "ExpandOp"
  top: "expand_55"
  bottom: "unsqueeze_56"
  layer_param{
    attr_0: [-1, -1, -1, 16, -1]
    shape: [128, 1, 2, 16, 128]
    dtype: "TensorDType.Float16"
  }
}

layer{
  type: "CloneOp"
  top: "clone_109"
  bottom: "expand_55"
  layer_param{
    shape: [128, 1, 2, 16, 128]
    dtype: "TensorDType.Float16"
  }
}

layer{
  type: "ViewOp"
  top: "view_472"
  bottom: "clone_109"
  layer_param{
    attr_0: [128, 1, 32, 128]
    shape: [128, 1, 32, 128]
    dtype: "TensorDType.Float16"
  }
}

layer{
  type: "PermuteOp"
  top: "permute_108"
  bottom: "cat_54"
  layer_param{
    attr_0: [1, 2, 0, 3]
    shape: [1, 32, 128, 128]
    dtype: "TensorDType.Float16"
  }
}

layer{
  type: "PermuteOp"
  top: "permute_109"
  bottom: "view_471"
  layer_param{
    attr_0: [1, 2, 0, 3]
    shape: [1, 32, 128, 128]
    dtype: "TensorDType.Float16"
  }
}

layer{
  type: "PermuteOp"
  top: "permute_110"
  bottom: "view_472"
  layer_param{
    attr_0: [1, 2, 0, 3]
    shape: [1, 32, 128, 128]
    dtype: "TensorDType.Float16"
  }
}

layer{
  type: "ScaledDotProductFlashAttentionForCpuOp"
  top: "_scaled_dot_product_flash_attention_for_cpu_27"
  bottom: "permute_108"
  bottom: "permute_109"
  bottom: "permute_110"
  layer_param{
    attr_0: 0.0
    attr_1: True
    shape{
      output_0: [1, 32, 128, 128]
      output_1: [1, 32, 128]
    }
  }
}

layer{
  type: "GetItemOp"
  top: "getitem_192"
  bottom: "_scaled_dot_product_flash_attention_for_cpu_27"
  layer_param{
    attr_0: 0
    shape: [1, 32, 128, 128]
    dtype: "TensorDType.Float16"
  }
}

layer{
  type: "PermuteOp"
  top: "permute_111"
  bottom: "getitem_192"
  layer_param{
    attr_0: [2, 0, 1, 3]
    shape: [128, 1, 32, 128]
    dtype: "TensorDType.Float16"
  }
}

layer{
  type: "ViewOp"
  top: "view_473"
  bottom: "permute_111"
  layer_param{
    attr_0: [128, 1, 4096]
    shape: [128, 1, 4096]
    dtype: "TensorDType.Float16"
  }
}

layer{
  type: "TransposeOp"
  top: "t_109"
  bottom: "arg194_1"
  layer_param{
    shape: [4096, 4096]
    dtype: "TensorDType.Float16"
  }
}

layer{
  type: "ViewOp"
  top: "view_474"
  bottom: "view_473"
  layer_param{
    attr_0: [128, 4096]
    shape: [128, 4096]
    dtype: "TensorDType.Float16"
  }
}

layer{
  type: "MatmulOp"
  top: "mm_81"
  bottom: "view_474"
  bottom: "t_109"
  layer_param{
    shape: [128, 4096]
    dtype: "TensorDType.Float16"
  }
}

layer{
  type: "ViewOp"
  top: "_unsafe_view_81"
  bottom: "mm_81"
  layer_param{
    attr_0: [128, 1, 4096]
    shape: [128, 1, 4096]
    dtype: "TensorDType.Float16"
  }
}

layer{
  type: "CloneOp"
  top: "clone_110"
  bottom: "_unsafe_view_81"
  layer_param{
    shape: [128, 1, 4096]
    dtype: "TensorDType.Float16"
  }
}

layer{
  type: "AddOp"
  top: "add_165"
  bottom: "add_161"
  bottom: "clone_110"
  layer_param{
    shape: [128, 1, 4096]
    dtype: "TensorDType.Float16"
  }
}

layer{
  type: "PowOp"
  top: "pow_57"
  bottom: "add_165"
  layer_param{
    attr_0: 2
    shape: [128, 1, 4096]
    dtype: "TensorDType.Float32"
  }
}

layer{
  type: "MeanOp"
  top: "mean_55"
  bottom: "pow_57"
  layer_param{
    attr_0: [-1]
    attr_1: True
    shape: [128, 1, 1]
    dtype: "TensorDType.Float32"
  }
}

layer{
  type: "AddOp"
  top: "add_166"
  bottom: "mean_55"
  layer_param{
    attr_0: 1e-05
    shape: [128, 1, 1]
    dtype: "TensorDType.Float32"
  }
}

layer{
  type: "RsqrtOp"
  top: "rsqrt_55"
  bottom: "add_166"
  layer_param{
    shape: [128, 1, 1]
    dtype: "TensorDType.Float32"
  }
}

layer{
  type: "MulOp"
  top: "mul_363"
  bottom: "add_165"
  bottom: "rsqrt_55"
  layer_param{
    shape: [128, 1, 4096]
    dtype: "TensorDType.Float32"
  }
}

layer{
  type: "TransposeOp"
  top: "t_110"
  bottom: "arg196_1"
  layer_param{
    shape: [4096, 27392]
    dtype: "TensorDType.Float16"
  }
}

layer{
  type: "ViewOp"
  top: "view_475"
  bottom: "fuse_ln_mul_364"
  layer_param{
    attr_0: [128, 4096]
    shape: [128, 4096]
    dtype: "TensorDType.Float16"
  }
}

layer{
  type: "MatmulOp"
  top: "mm_82"
  bottom: "view_475"
  bottom: "t_110"
  layer_param{
    shape: [128, 27392]
    dtype: "TensorDType.Float16"
  }
}

layer{
  type: "ViewOp"
  top: "_unsafe_view_82"
  bottom: "mm_82"
  layer_param{
    attr_0: [128, 1, 27392]
    shape: [128, 1, 27392]
    dtype: "TensorDType.Float16"
  }
}

layer{
  type: "SplitOp"
  top: "split_27"
  bottom: "_unsafe_view_82"
  layer_param{
    attr_0: 13696
    attr_1: -1
    shape{
      output_0: [128, 1, 13696]
      output_1: [128, 1, 13696]
    }
  }
}

layer{
  type: "GetItemOp"
  top: "getitem_194"
  bottom: "split_27"
  layer_param{
    attr_0: 0
    shape: [128, 1, 13696]
    dtype: "TensorDType.Float16"
  }
}

layer{
  type: "GetItemOp"
  top: "getitem_195"
  bottom: "split_27"
  layer_param{
    attr_0: 1
    shape: [128, 1, 13696]
    dtype: "TensorDType.Float16"
  }
}

layer{
  type: "SiluOp"
  top: "silu_27"
  bottom: "getitem_194"
  layer_param{
    shape: [128, 1, 13696]
    dtype: "TensorDType.Float16"
  }
}

layer{
  type: "MulOp"
  top: "mul_365"
  bottom: "silu_27"
  bottom: "getitem_195"
  layer_param{
    shape: [128, 1, 13696]
    dtype: "TensorDType.Float16"
  }
}

layer{
  type: "TransposeOp"
  top: "t_111"
  bottom: "arg197_1"
  layer_param{
    shape: [13696, 4096]
    dtype: "TensorDType.Float16"
  }
}

layer{
  type: "ViewOp"
  top: "view_476"
  bottom: "mul_365"
  layer_param{
    attr_0: [128, 13696]
    shape: [128, 13696]
    dtype: "TensorDType.Float16"
  }
}

layer{
  type: "MatmulOp"
  top: "mm_83"
  bottom: "view_476"
  bottom: "t_111"
  layer_param{
    shape: [128, 4096]
    dtype: "TensorDType.Float16"
  }
}

layer{
  type: "ViewOp"
  top: "_unsafe_view_83"
  bottom: "mm_83"
  layer_param{
    attr_0: [128, 1, 4096]
    shape: [128, 1, 4096]
    dtype: "TensorDType.Float16"
  }
}

layer{
  type: "CloneOp"
  top: "clone_111"
  bottom: "_unsafe_view_83"
  layer_param{
    shape: [128, 1, 4096]
    dtype: "TensorDType.Float16"
  }
}

layer{
  type: "AddOp"
  top: "add_167"
  bottom: "add_165"
  bottom: "clone_111"
  layer_param{
    shape: [128, 1, 4096]
    dtype: "TensorDType.Float16"
  }
}

layer{
  type: "PowOp"
  top: "pow_58"
  bottom: "add_167"
  layer_param{
    attr_0: 2
    shape: [128, 1, 4096]
    dtype: "TensorDType.Float32"
  }
}

layer{
  type: "MeanOp"
  top: "mean_56"
  bottom: "pow_58"
  layer_param{
    attr_0: [-1]
    attr_1: True
    shape: [128, 1, 1]
    dtype: "TensorDType.Float32"
  }
}

layer{
  type: "AddOp"
  top: "add_168"
  bottom: "mean_56"
  layer_param{
    attr_0: 1e-05
    shape: [128, 1, 1]
    dtype: "TensorDType.Float32"
  }
}

layer{
  type: "RsqrtOp"
  top: "rsqrt_56"
  bottom: "add_168"
  layer_param{
    shape: [128, 1, 1]
    dtype: "TensorDType.Float32"
  }
}

layer{
  type: "MulOp"
  top: "mul_366"
  bottom: "add_167"
  bottom: "rsqrt_56"
  layer_param{
    shape: [128, 1, 4096]
    dtype: "TensorDType.Float32"
  }
}

layer{
  type: "TransposeOp"
  top: "t_112"
  bottom: "arg199_1"
  layer_param{
    shape: [4096, 65024]
    dtype: "TensorDType.Float16"
  }
}

layer{
  type: "ViewOp"
  top: "view_477"
  bottom: "fuse_ln_mul_367"
  layer_param{
    attr_0: [128, 4096]
    shape: [128, 4096]
    dtype: "TensorDType.Float16"
  }
}

layer{
  type: "MatmulOp"
  top: "mm_84"
  bottom: "view_477"
  bottom: "t_112"
  layer_param{
    shape: [128, 65024]
    dtype: "TensorDType.Float16"
  }
}

layer{
  type: "ViewOp"
  top: "_unsafe_view_84"
  bottom: "mm_84"
  layer_param{
    attr_0: [128, 1, 65024]
    shape: [128, 1, 65024]
    dtype: "TensorDType.Float16"
  }
}

layer{
  type: "TransposeOp"
  top: "transpose_2"
  bottom: "_unsafe_view_84"
  layer_param{
    attr_0: 0
    attr_1: 1
    shape: [1, 128, 65024]
    dtype: "TensorDType.Float16"
  }
}

layer{
  type: "OutputOp"
  top: "output"
  bottom: "transpose_2"
}

layer{
  type: "LayerNormOp"
  top: "fuse_ln_mul_3"
  bottom: "transpose"
  bottom: "arg2_1"
  layer_param{
    attr_0: 1e-05
  }
}

layer{
  type: "LayerNormOp"
  top: "fuse_ln_mul_13"
  bottom: "add_3"
  bottom: "arg6_1"
  layer_param{
    attr_0: 1e-05
  }
}

layer{
  type: "LayerNormOp"
  top: "fuse_ln_mul_16"
  bottom: "add_5"
  bottom: "arg9_1"
  layer_param{
    attr_0: 1e-05
  }
}

layer{
  type: "LayerNormOp"
  top: "fuse_ln_mul_26"
  bottom: "add_9"
  bottom: "arg13_1"
  layer_param{
    attr_0: 1e-05
  }
}

layer{
  type: "LayerNormOp"
  top: "fuse_ln_mul_29"
  bottom: "add_11"
  bottom: "arg16_1"
  layer_param{
    attr_0: 1e-05
  }
}

layer{
  type: "LayerNormOp"
  top: "fuse_ln_mul_39"
  bottom: "add_15"
  bottom: "arg20_1"
  layer_param{
    attr_0: 1e-05
  }
}

layer{
  type: "LayerNormOp"
  top: "fuse_ln_mul_42"
  bottom: "add_17"
  bottom: "arg23_1"
  layer_param{
    attr_0: 1e-05
  }
}

layer{
  type: "LayerNormOp"
  top: "fuse_ln_mul_52"
  bottom: "add_21"
  bottom: "arg27_1"
  layer_param{
    attr_0: 1e-05
  }
}

layer{
  type: "LayerNormOp"
  top: "fuse_ln_mul_55"
  bottom: "add_23"
  bottom: "arg30_1"
  layer_param{
    attr_0: 1e-05
  }
}

layer{
  type: "LayerNormOp"
  top: "fuse_ln_mul_65"
  bottom: "add_27"
  bottom: "arg34_1"
  layer_param{
    attr_0: 1e-05
  }
}

layer{
  type: "LayerNormOp"
  top: "fuse_ln_mul_68"
  bottom: "add_29"
  bottom: "arg37_1"
  layer_param{
    attr_0: 1e-05
  }
}

layer{
  type: "LayerNormOp"
  top: "fuse_ln_mul_78"
  bottom: "add_33"
  bottom: "arg41_1"
  layer_param{
    attr_0: 1e-05
  }
}

layer{
  type: "LayerNormOp"
  top: "fuse_ln_mul_81"
  bottom: "add_35"
  bottom: "arg44_1"
  layer_param{
    attr_0: 1e-05
  }
}

layer{
  type: "LayerNormOp"
  top: "fuse_ln_mul_91"
  bottom: "add_39"
  bottom: "arg48_1"
  layer_param{
    attr_0: 1e-05
  }
}

layer{
  type: "LayerNormOp"
  top: "fuse_ln_mul_94"
  bottom: "add_41"
  bottom: "arg51_1"
  layer_param{
    attr_0: 1e-05
  }
}

layer{
  type: "LayerNormOp"
  top: "fuse_ln_mul_104"
  bottom: "add_45"
  bottom: "arg55_1"
  layer_param{
    attr_0: 1e-05
  }
}

layer{
  type: "LayerNormOp"
  top: "fuse_ln_mul_107"
  bottom: "add_47"
  bottom: "arg58_1"
  layer_param{
    attr_0: 1e-05
  }
}

layer{
  type: "LayerNormOp"
  top: "fuse_ln_mul_117"
  bottom: "add_51"
  bottom: "arg62_1"
  layer_param{
    attr_0: 1e-05
  }
}

layer{
  type: "LayerNormOp"
  top: "fuse_ln_mul_120"
  bottom: "add_53"
  bottom: "arg65_1"
  layer_param{
    attr_0: 1e-05
  }
}

layer{
  type: "LayerNormOp"
  top: "fuse_ln_mul_130"
  bottom: "add_57"
  bottom: "arg69_1"
  layer_param{
    attr_0: 1e-05
  }
}

layer{
  type: "LayerNormOp"
  top: "fuse_ln_mul_133"
  bottom: "add_59"
  bottom: "arg72_1"
  layer_param{
    attr_0: 1e-05
  }
}

layer{
  type: "LayerNormOp"
  top: "fuse_ln_mul_143"
  bottom: "add_63"
  bottom: "arg76_1"
  layer_param{
    attr_0: 1e-05
  }
}

layer{
  type: "LayerNormOp"
  top: "fuse_ln_mul_146"
  bottom: "add_65"
  bottom: "arg79_1"
  layer_param{
    attr_0: 1e-05
  }
}

layer{
  type: "LayerNormOp"
  top: "fuse_ln_mul_156"
  bottom: "add_69"
  bottom: "arg83_1"
  layer_param{
    attr_0: 1e-05
  }
}

layer{
  type: "LayerNormOp"
  top: "fuse_ln_mul_159"
  bottom: "add_71"
  bottom: "arg86_1"
  layer_param{
    attr_0: 1e-05
  }
}

layer{
  type: "LayerNormOp"
  top: "fuse_ln_mul_169"
  bottom: "add_75"
  bottom: "arg90_1"
  layer_param{
    attr_0: 1e-05
  }
}

layer{
  type: "LayerNormOp"
  top: "fuse_ln_mul_172"
  bottom: "add_77"
  bottom: "arg93_1"
  layer_param{
    attr_0: 1e-05
  }
}

layer{
  type: "LayerNormOp"
  top: "fuse_ln_mul_182"
  bottom: "add_81"
  bottom: "arg97_1"
  layer_param{
    attr_0: 1e-05
  }
}

layer{
  type: "LayerNormOp"
  top: "fuse_ln_mul_185"
  bottom: "add_83"
  bottom: "arg100_1"
  layer_param{
    attr_0: 1e-05
  }
}

layer{
  type: "LayerNormOp"
  top: "fuse_ln_mul_195"
  bottom: "add_87"
  bottom: "arg104_1"
  layer_param{
    attr_0: 1e-05
  }
}

layer{
  type: "LayerNormOp"
  top: "fuse_ln_mul_198"
  bottom: "add_89"
  bottom: "arg107_1"
  layer_param{
    attr_0: 1e-05
  }
}

layer{
  type: "LayerNormOp"
  top: "fuse_ln_mul_208"
  bottom: "add_93"
  bottom: "arg111_1"
  layer_param{
    attr_0: 1e-05
  }
}

layer{
  type: "LayerNormOp"
  top: "fuse_ln_mul_211"
  bottom: "add_95"
  bottom: "arg114_1"
  layer_param{
    attr_0: 1e-05
  }
}

layer{
  type: "LayerNormOp"
  top: "fuse_ln_mul_221"
  bottom: "add_99"
  bottom: "arg118_1"
  layer_param{
    attr_0: 1e-05
  }
}

layer{
  type: "LayerNormOp"
  top: "fuse_ln_mul_224"
  bottom: "add_101"
  bottom: "arg121_1"
  layer_param{
    attr_0: 1e-05
  }
}

layer{
  type: "LayerNormOp"
  top: "fuse_ln_mul_234"
  bottom: "add_105"
  bottom: "arg125_1"
  layer_param{
    attr_0: 1e-05
  }
}

layer{
  type: "LayerNormOp"
  top: "fuse_ln_mul_237"
  bottom: "add_107"
  bottom: "arg128_1"
  layer_param{
    attr_0: 1e-05
  }
}

layer{
  type: "LayerNormOp"
  top: "fuse_ln_mul_247"
  bottom: "add_111"
  bottom: "arg132_1"
  layer_param{
    attr_0: 1e-05
  }
}

layer{
  type: "LayerNormOp"
  top: "fuse_ln_mul_250"
  bottom: "add_113"
  bottom: "arg135_1"
  layer_param{
    attr_0: 1e-05
  }
}

layer{
  type: "LayerNormOp"
  top: "fuse_ln_mul_260"
  bottom: "add_117"
  bottom: "arg139_1"
  layer_param{
    attr_0: 1e-05
  }
}

layer{
  type: "LayerNormOp"
  top: "fuse_ln_mul_263"
  bottom: "add_119"
  bottom: "arg142_1"
  layer_param{
    attr_0: 1e-05
  }
}

layer{
  type: "LayerNormOp"
  top: "fuse_ln_mul_273"
  bottom: "add_123"
  bottom: "arg146_1"
  layer_param{
    attr_0: 1e-05
  }
}

layer{
  type: "LayerNormOp"
  top: "fuse_ln_mul_276"
  bottom: "add_125"
  bottom: "arg149_1"
  layer_param{
    attr_0: 1e-05
  }
}

layer{
  type: "LayerNormOp"
  top: "fuse_ln_mul_286"
  bottom: "add_129"
  bottom: "arg153_1"
  layer_param{
    attr_0: 1e-05
  }
}

layer{
  type: "LayerNormOp"
  top: "fuse_ln_mul_289"
  bottom: "add_131"
  bottom: "arg156_1"
  layer_param{
    attr_0: 1e-05
  }
}

layer{
  type: "LayerNormOp"
  top: "fuse_ln_mul_299"
  bottom: "add_135"
  bottom: "arg160_1"
  layer_param{
    attr_0: 1e-05
  }
}

layer{
  type: "LayerNormOp"
  top: "fuse_ln_mul_302"
  bottom: "add_137"
  bottom: "arg163_1"
  layer_param{
    attr_0: 1e-05
  }
}

layer{
  type: "LayerNormOp"
  top: "fuse_ln_mul_312"
  bottom: "add_141"
  bottom: "arg167_1"
  layer_param{
    attr_0: 1e-05
  }
}

layer{
  type: "LayerNormOp"
  top: "fuse_ln_mul_315"
  bottom: "add_143"
  bottom: "arg170_1"
  layer_param{
    attr_0: 1e-05
  }
}

layer{
  type: "LayerNormOp"
  top: "fuse_ln_mul_325"
  bottom: "add_147"
  bottom: "arg174_1"
  layer_param{
    attr_0: 1e-05
  }
}

layer{
  type: "LayerNormOp"
  top: "fuse_ln_mul_328"
  bottom: "add_149"
  bottom: "arg177_1"
  layer_param{
    attr_0: 1e-05
  }
}

layer{
  type: "LayerNormOp"
  top: "fuse_ln_mul_338"
  bottom: "add_153"
  bottom: "arg181_1"
  layer_param{
    attr_0: 1e-05
  }
}

layer{
  type: "LayerNormOp"
  top: "fuse_ln_mul_341"
  bottom: "add_155"
  bottom: "arg184_1"
  layer_param{
    attr_0: 1e-05
  }
}

layer{
  type: "LayerNormOp"
  top: "fuse_ln_mul_351"
  bottom: "add_159"
  bottom: "arg188_1"
  layer_param{
    attr_0: 1e-05
  }
}

layer{
  type: "LayerNormOp"
  top: "fuse_ln_mul_354"
  bottom: "add_161"
  bottom: "arg191_1"
  layer_param{
    attr_0: 1e-05
  }
}

layer{
  type: "LayerNormOp"
  top: "fuse_ln_mul_364"
  bottom: "add_165"
  bottom: "arg195_1"
  layer_param{
    attr_0: 1e-05
  }
}

layer{
  type: "LayerNormOp"
  top: "fuse_ln_mul_367"
  bottom: "add_167"
  bottom: "arg198_1"
  layer_param{
    attr_0: 1e-05
  }
}
