name: "forward"

layer{
  type: "PlaceholderOp"
  top: "arg0_1"
  layer_param{
    shape: [1, 128]
    dtype: "TensorDType.Int64"
  }
}

layer{
  type: "PlaceholderOp"
  top: "arg1_1"
  layer_param{
    shape: [65024, 4096]
    dtype: "TensorDType.Float16"
  }
}

layer{
  type: "PlaceholderOp"
  top: "arg2_1"
  layer_param{
    shape: [4096]
    dtype: "TensorDType.Float16"
  }
}

layer{
  type: "PlaceholderOp"
  top: "arg3_1"
  layer_param{
    shape: [4608, 4096]
    dtype: "TensorDType.Float16"
  }
}

layer{
  type: "PlaceholderOp"
  top: "arg4_1"
  layer_param{
    shape: [4608]
    dtype: "TensorDType.Float16"
  }
}

layer{
  type: "PlaceholderOp"
  top: "arg5_1"
  layer_param{
    shape: [4096, 4096]
    dtype: "TensorDType.Float16"
  }
}

layer{
  type: "PlaceholderOp"
  top: "arg6_1"
  layer_param{
    shape: [4096]
    dtype: "TensorDType.Float16"
  }
}

layer{
  type: "PlaceholderOp"
  top: "arg7_1"
  layer_param{
    shape: [27392, 4096]
    dtype: "TensorDType.Float16"
  }
}

layer{
  type: "PlaceholderOp"
  top: "arg8_1"
  layer_param{
    shape: [4096, 13696]
    dtype: "TensorDType.Float16"
  }
}

layer{
  type: "PlaceholderOp"
  top: "arg9_1"
  layer_param{
    shape: [4096]
    dtype: "TensorDType.Float16"
  }
}

layer{
  type: "PlaceholderOp"
  top: "arg10_1"
  layer_param{
    shape: [4608, 4096]
    dtype: "TensorDType.Float16"
  }
}

layer{
  type: "PlaceholderOp"
  top: "arg11_1"
  layer_param{
    shape: [4608]
    dtype: "TensorDType.Float16"
  }
}

layer{
  type: "PlaceholderOp"
  top: "arg12_1"
  layer_param{
    shape: [4096, 4096]
    dtype: "TensorDType.Float16"
  }
}

layer{
  type: "PlaceholderOp"
  top: "arg13_1"
  layer_param{
    shape: [4096]
    dtype: "TensorDType.Float16"
  }
}

layer{
  type: "PlaceholderOp"
  top: "arg14_1"
  layer_param{
    shape: [27392, 4096]
    dtype: "TensorDType.Float16"
  }
}

layer{
  type: "PlaceholderOp"
  top: "arg15_1"
  layer_param{
    shape: [4096, 13696]
    dtype: "TensorDType.Float16"
  }
}

layer{
  type: "PlaceholderOp"
  top: "arg16_1"
  layer_param{
    shape: [4096]
    dtype: "TensorDType.Float16"
  }
}

layer{
  type: "PlaceholderOp"
  top: "arg17_1"
  layer_param{
    shape: [4608, 4096]
    dtype: "TensorDType.Float16"
  }
}

layer{
  type: "PlaceholderOp"
  top: "arg18_1"
  layer_param{
    shape: [4608]
    dtype: "TensorDType.Float16"
  }
}

layer{
  type: "PlaceholderOp"
  top: "arg19_1"
  layer_param{
    shape: [4096, 4096]
    dtype: "TensorDType.Float16"
  }
}

layer{
  type: "PlaceholderOp"
  top: "arg20_1"
  layer_param{
    shape: [4096]
    dtype: "TensorDType.Float16"
  }
}

layer{
  type: "PlaceholderOp"
  top: "arg21_1"
  layer_param{
    shape: [27392, 4096]
    dtype: "TensorDType.Float16"
  }
}

layer{
  type: "PlaceholderOp"
  top: "arg22_1"
  layer_param{
    shape: [4096, 13696]
    dtype: "TensorDType.Float16"
  }
}

layer{
  type: "PlaceholderOp"
  top: "arg23_1"
  layer_param{
    shape: [4096]
    dtype: "TensorDType.Float16"
  }
}

layer{
  type: "PlaceholderOp"
  top: "arg24_1"
  layer_param{
    shape: [4608, 4096]
    dtype: "TensorDType.Float16"
  }
}

layer{
  type: "PlaceholderOp"
  top: "arg25_1"
  layer_param{
    shape: [4608]
    dtype: "TensorDType.Float16"
  }
}

layer{
  type: "PlaceholderOp"
  top: "arg26_1"
  layer_param{
    shape: [4096, 4096]
    dtype: "TensorDType.Float16"
  }
}

layer{
  type: "PlaceholderOp"
  top: "arg27_1"
  layer_param{
    shape: [4096]
    dtype: "TensorDType.Float16"
  }
}

layer{
  type: "PlaceholderOp"
  top: "arg28_1"
  layer_param{
    shape: [27392, 4096]
    dtype: "TensorDType.Float16"
  }
}

layer{
  type: "PlaceholderOp"
  top: "arg29_1"
  layer_param{
    shape: [4096, 13696]
    dtype: "TensorDType.Float16"
  }
}

layer{
  type: "PlaceholderOp"
  top: "arg30_1"
  layer_param{
    shape: [4096]
    dtype: "TensorDType.Float16"
  }
}

layer{
  type: "PlaceholderOp"
  top: "arg31_1"
  layer_param{
    shape: [4608, 4096]
    dtype: "TensorDType.Float16"
  }
}

layer{
  type: "PlaceholderOp"
  top: "arg32_1"
  layer_param{
    shape: [4608]
    dtype: "TensorDType.Float16"
  }
}

layer{
  type: "PlaceholderOp"
  top: "arg33_1"
  layer_param{
    shape: [4096, 4096]
    dtype: "TensorDType.Float16"
  }
}

layer{
  type: "PlaceholderOp"
  top: "arg34_1"
  layer_param{
    shape: [4096]
    dtype: "TensorDType.Float16"
  }
}

layer{
  type: "PlaceholderOp"
  top: "arg35_1"
  layer_param{
    shape: [27392, 4096]
    dtype: "TensorDType.Float16"
  }
}

layer{
  type: "PlaceholderOp"
  top: "arg36_1"
  layer_param{
    shape: [4096, 13696]
    dtype: "TensorDType.Float16"
  }
}

layer{
  type: "PlaceholderOp"
  top: "arg37_1"
  layer_param{
    shape: [4096]
    dtype: "TensorDType.Float16"
  }
}

layer{
  type: "PlaceholderOp"
  top: "arg38_1"
  layer_param{
    shape: [4608, 4096]
    dtype: "TensorDType.Float16"
  }
}

layer{
  type: "PlaceholderOp"
  top: "arg39_1"
  layer_param{
    shape: [4608]
    dtype: "TensorDType.Float16"
  }
}

layer{
  type: "PlaceholderOp"
  top: "arg40_1"
  layer_param{
    shape: [4096, 4096]
    dtype: "TensorDType.Float16"
  }
}

layer{
  type: "PlaceholderOp"
  top: "arg41_1"
  layer_param{
    shape: [4096]
    dtype: "TensorDType.Float16"
  }
}

layer{
  type: "PlaceholderOp"
  top: "arg42_1"
  layer_param{
    shape: [27392, 4096]
    dtype: "TensorDType.Float16"
  }
}

layer{
  type: "PlaceholderOp"
  top: "arg43_1"
  layer_param{
    shape: [4096, 13696]
    dtype: "TensorDType.Float16"
  }
}

layer{
  type: "PlaceholderOp"
  top: "arg44_1"
  layer_param{
    shape: [4096]
    dtype: "TensorDType.Float16"
  }
}

layer{
  type: "PlaceholderOp"
  top: "arg45_1"
  layer_param{
    shape: [4608, 4096]
    dtype: "TensorDType.Float16"
  }
}

layer{
  type: "PlaceholderOp"
  top: "arg46_1"
  layer_param{
    shape: [4608]
    dtype: "TensorDType.Float16"
  }
}

layer{
  type: "PlaceholderOp"
  top: "arg47_1"
  layer_param{
    shape: [4096, 4096]
    dtype: "TensorDType.Float16"
  }
}

layer{
  type: "PlaceholderOp"
  top: "arg48_1"
  layer_param{
    shape: [4096]
    dtype: "TensorDType.Float16"
  }
}

layer{
  type: "PlaceholderOp"
  top: "arg49_1"
  layer_param{
    shape: [27392, 4096]
    dtype: "TensorDType.Float16"
  }
}

layer{
  type: "PlaceholderOp"
  top: "arg50_1"
  layer_param{
    shape: [4096, 13696]
    dtype: "TensorDType.Float16"
  }
}

layer{
  type: "PlaceholderOp"
  top: "arg51_1"
  layer_param{
    shape: [4096]
    dtype: "TensorDType.Float16"
  }
}

layer{
  type: "PlaceholderOp"
  top: "arg52_1"
  layer_param{
    shape: [4608, 4096]
    dtype: "TensorDType.Float16"
  }
}

layer{
  type: "PlaceholderOp"
  top: "arg53_1"
  layer_param{
    shape: [4608]
    dtype: "TensorDType.Float16"
  }
}

layer{
  type: "PlaceholderOp"
  top: "arg54_1"
  layer_param{
    shape: [4096, 4096]
    dtype: "TensorDType.Float16"
  }
}

layer{
  type: "PlaceholderOp"
  top: "arg55_1"
  layer_param{
    shape: [4096]
    dtype: "TensorDType.Float16"
  }
}

layer{
  type: "PlaceholderOp"
  top: "arg56_1"
  layer_param{
    shape: [27392, 4096]
    dtype: "TensorDType.Float16"
  }
}

layer{
  type: "PlaceholderOp"
  top: "arg57_1"
  layer_param{
    shape: [4096, 13696]
    dtype: "TensorDType.Float16"
  }
}

layer{
  type: "PlaceholderOp"
  top: "arg58_1"
  layer_param{
    shape: [4096]
    dtype: "TensorDType.Float16"
  }
}

layer{
  type: "PlaceholderOp"
  top: "arg59_1"
  layer_param{
    shape: [4608, 4096]
    dtype: "TensorDType.Float16"
  }
}

layer{
  type: "PlaceholderOp"
  top: "arg60_1"
  layer_param{
    shape: [4608]
    dtype: "TensorDType.Float16"
  }
}

layer{
  type: "PlaceholderOp"
  top: "arg61_1"
  layer_param{
    shape: [4096, 4096]
    dtype: "TensorDType.Float16"
  }
}

layer{
  type: "PlaceholderOp"
  top: "arg62_1"
  layer_param{
    shape: [4096]
    dtype: "TensorDType.Float16"
  }
}

layer{
  type: "PlaceholderOp"
  top: "arg63_1"
  layer_param{
    shape: [27392, 4096]
    dtype: "TensorDType.Float16"
  }
}

layer{
  type: "PlaceholderOp"
  top: "arg64_1"
  layer_param{
    shape: [4096, 13696]
    dtype: "TensorDType.Float16"
  }
}

layer{
  type: "PlaceholderOp"
  top: "arg65_1"
  layer_param{
    shape: [4096]
    dtype: "TensorDType.Float16"
  }
}

layer{
  type: "PlaceholderOp"
  top: "arg66_1"
  layer_param{
    shape: [4608, 4096]
    dtype: "TensorDType.Float16"
  }
}

layer{
  type: "PlaceholderOp"
  top: "arg67_1"
  layer_param{
    shape: [4608]
    dtype: "TensorDType.Float16"
  }
}

layer{
  type: "PlaceholderOp"
  top: "arg68_1"
  layer_param{
    shape: [4096, 4096]
    dtype: "TensorDType.Float16"
  }
}

layer{
  type: "PlaceholderOp"
  top: "arg69_1"
  layer_param{
    shape: [4096]
    dtype: "TensorDType.Float16"
  }
}

layer{
  type: "PlaceholderOp"
  top: "arg70_1"
  layer_param{
    shape: [27392, 4096]
    dtype: "TensorDType.Float16"
  }
}

layer{
  type: "PlaceholderOp"
  top: "arg71_1"
  layer_param{
    shape: [4096, 13696]
    dtype: "TensorDType.Float16"
  }
}

layer{
  type: "PlaceholderOp"
  top: "arg72_1"
  layer_param{
    shape: [4096]
    dtype: "TensorDType.Float16"
  }
}

layer{
  type: "PlaceholderOp"
  top: "arg73_1"
  layer_param{
    shape: [4608, 4096]
    dtype: "TensorDType.Float16"
  }
}

layer{
  type: "PlaceholderOp"
  top: "arg74_1"
  layer_param{
    shape: [4608]
    dtype: "TensorDType.Float16"
  }
}

layer{
  type: "PlaceholderOp"
  top: "arg75_1"
  layer_param{
    shape: [4096, 4096]
    dtype: "TensorDType.Float16"
  }
}

layer{
  type: "PlaceholderOp"
  top: "arg76_1"
  layer_param{
    shape: [4096]
    dtype: "TensorDType.Float16"
  }
}

layer{
  type: "PlaceholderOp"
  top: "arg77_1"
  layer_param{
    shape: [27392, 4096]
    dtype: "TensorDType.Float16"
  }
}

layer{
  type: "PlaceholderOp"
  top: "arg78_1"
  layer_param{
    shape: [4096, 13696]
    dtype: "TensorDType.Float16"
  }
}

layer{
  type: "PlaceholderOp"
  top: "arg79_1"
  layer_param{
    shape: [4096]
    dtype: "TensorDType.Float16"
  }
}

layer{
  type: "PlaceholderOp"
  top: "arg80_1"
  layer_param{
    shape: [4608, 4096]
    dtype: "TensorDType.Float16"
  }
}

layer{
  type: "PlaceholderOp"
  top: "arg81_1"
  layer_param{
    shape: [4608]
    dtype: "TensorDType.Float16"
  }
}

layer{
  type: "PlaceholderOp"
  top: "arg82_1"
  layer_param{
    shape: [4096, 4096]
    dtype: "TensorDType.Float16"
  }
}

layer{
  type: "PlaceholderOp"
  top: "arg83_1"
  layer_param{
    shape: [4096]
    dtype: "TensorDType.Float16"
  }
}

layer{
  type: "PlaceholderOp"
  top: "arg84_1"
  layer_param{
    shape: [27392, 4096]
    dtype: "TensorDType.Float16"
  }
}

layer{
  type: "PlaceholderOp"
  top: "arg85_1"
  layer_param{
    shape: [4096, 13696]
    dtype: "TensorDType.Float16"
  }
}

layer{
  type: "PlaceholderOp"
  top: "arg86_1"
  layer_param{
    shape: [4096]
    dtype: "TensorDType.Float16"
  }
}

layer{
  type: "PlaceholderOp"
  top: "arg87_1"
  layer_param{
    shape: [4608, 4096]
    dtype: "TensorDType.Float16"
  }
}

layer{
  type: "PlaceholderOp"
  top: "arg88_1"
  layer_param{
    shape: [4608]
    dtype: "TensorDType.Float16"
  }
}

layer{
  type: "PlaceholderOp"
  top: "arg89_1"
  layer_param{
    shape: [4096, 4096]
    dtype: "TensorDType.Float16"
  }
}

layer{
  type: "PlaceholderOp"
  top: "arg90_1"
  layer_param{
    shape: [4096]
    dtype: "TensorDType.Float16"
  }
}

layer{
  type: "PlaceholderOp"
  top: "arg91_1"
  layer_param{
    shape: [27392, 4096]
    dtype: "TensorDType.Float16"
  }
}

layer{
  type: "PlaceholderOp"
  top: "arg92_1"
  layer_param{
    shape: [4096, 13696]
    dtype: "TensorDType.Float16"
  }
}

layer{
  type: "PlaceholderOp"
  top: "arg93_1"
  layer_param{
    shape: [4096]
    dtype: "TensorDType.Float16"
  }
}

layer{
  type: "PlaceholderOp"
  top: "arg94_1"
  layer_param{
    shape: [4608, 4096]
    dtype: "TensorDType.Float16"
  }
}

layer{
  type: "PlaceholderOp"
  top: "arg95_1"
  layer_param{
    shape: [4608]
    dtype: "TensorDType.Float16"
  }
}

layer{
  type: "PlaceholderOp"
  top: "arg96_1"
  layer_param{
    shape: [4096, 4096]
    dtype: "TensorDType.Float16"
  }
}

layer{
  type: "PlaceholderOp"
  top: "arg97_1"
  layer_param{
    shape: [4096]
    dtype: "TensorDType.Float16"
  }
}

layer{
  type: "PlaceholderOp"
  top: "arg98_1"
  layer_param{
    shape: [27392, 4096]
    dtype: "TensorDType.Float16"
  }
}

layer{
  type: "PlaceholderOp"
  top: "arg99_1"
  layer_param{
    shape: [4096, 13696]
    dtype: "TensorDType.Float16"
  }
}

layer{
  type: "PlaceholderOp"
  top: "arg100_1"
  layer_param{
    shape: [4096]
    dtype: "TensorDType.Float16"
  }
}

layer{
  type: "PlaceholderOp"
  top: "arg101_1"
  layer_param{
    shape: [4608, 4096]
    dtype: "TensorDType.Float16"
  }
}

layer{
  type: "PlaceholderOp"
  top: "arg102_1"
  layer_param{
    shape: [4608]
    dtype: "TensorDType.Float16"
  }
}

layer{
  type: "PlaceholderOp"
  top: "arg103_1"
  layer_param{
    shape: [4096, 4096]
    dtype: "TensorDType.Float16"
  }
}

layer{
  type: "PlaceholderOp"
  top: "arg104_1"
  layer_param{
    shape: [4096]
    dtype: "TensorDType.Float16"
  }
}

layer{
  type: "PlaceholderOp"
  top: "arg105_1"
  layer_param{
    shape: [27392, 4096]
    dtype: "TensorDType.Float16"
  }
}

layer{
  type: "PlaceholderOp"
  top: "arg106_1"
  layer_param{
    shape: [4096, 13696]
    dtype: "TensorDType.Float16"
  }
}

layer{
  type: "PlaceholderOp"
  top: "arg107_1"
  layer_param{
    shape: [4096]
    dtype: "TensorDType.Float16"
  }
}

layer{
  type: "PlaceholderOp"
  top: "arg108_1"
  layer_param{
    shape: [4608, 4096]
    dtype: "TensorDType.Float16"
  }
}

layer{
  type: "PlaceholderOp"
  top: "arg109_1"
  layer_param{
    shape: [4608]
    dtype: "TensorDType.Float16"
  }
}

layer{
  type: "PlaceholderOp"
  top: "arg110_1"
  layer_param{
    shape: [4096, 4096]
    dtype: "TensorDType.Float16"
  }
}

layer{
  type: "PlaceholderOp"
  top: "arg111_1"
  layer_param{
    shape: [4096]
    dtype: "TensorDType.Float16"
  }
}

layer{
  type: "PlaceholderOp"
  top: "arg112_1"
  layer_param{
    shape: [27392, 4096]
    dtype: "TensorDType.Float16"
  }
}

layer{
  type: "PlaceholderOp"
  top: "arg113_1"
  layer_param{
    shape: [4096, 13696]
    dtype: "TensorDType.Float16"
  }
}

layer{
  type: "PlaceholderOp"
  top: "arg114_1"
  layer_param{
    shape: [4096]
    dtype: "TensorDType.Float16"
  }
}

layer{
  type: "PlaceholderOp"
  top: "arg115_1"
  layer_param{
    shape: [4608, 4096]
    dtype: "TensorDType.Float16"
  }
}

layer{
  type: "PlaceholderOp"
  top: "arg116_1"
  layer_param{
    shape: [4608]
    dtype: "TensorDType.Float16"
  }
}

layer{
  type: "PlaceholderOp"
  top: "arg117_1"
  layer_param{
    shape: [4096, 4096]
    dtype: "TensorDType.Float16"
  }
}

layer{
  type: "PlaceholderOp"
  top: "arg118_1"
  layer_param{
    shape: [4096]
    dtype: "TensorDType.Float16"
  }
}

layer{
  type: "PlaceholderOp"
  top: "arg119_1"
  layer_param{
    shape: [27392, 4096]
    dtype: "TensorDType.Float16"
  }
}

layer{
  type: "PlaceholderOp"
  top: "arg120_1"
  layer_param{
    shape: [4096, 13696]
    dtype: "TensorDType.Float16"
  }
}

layer{
  type: "PlaceholderOp"
  top: "arg121_1"
  layer_param{
    shape: [4096]
    dtype: "TensorDType.Float16"
  }
}

layer{
  type: "PlaceholderOp"
  top: "arg122_1"
  layer_param{
    shape: [4608, 4096]
    dtype: "TensorDType.Float16"
  }
}

layer{
  type: "PlaceholderOp"
  top: "arg123_1"
  layer_param{
    shape: [4608]
    dtype: "TensorDType.Float16"
  }
}

layer{
  type: "PlaceholderOp"
  top: "arg124_1"
  layer_param{
    shape: [4096, 4096]
    dtype: "TensorDType.Float16"
  }
}

layer{
  type: "PlaceholderOp"
  top: "arg125_1"
  layer_param{
    shape: [4096]
    dtype: "TensorDType.Float16"
  }
}

layer{
  type: "PlaceholderOp"
  top: "arg126_1"
  layer_param{
    shape: [27392, 4096]
    dtype: "TensorDType.Float16"
  }
}

layer{
  type: "PlaceholderOp"
  top: "arg127_1"
  layer_param{
    shape: [4096, 13696]
    dtype: "TensorDType.Float16"
  }
}

layer{
  type: "PlaceholderOp"
  top: "arg128_1"
  layer_param{
    shape: [4096]
    dtype: "TensorDType.Float16"
  }
}

layer{
  type: "PlaceholderOp"
  top: "arg129_1"
  layer_param{
    shape: [4608, 4096]
    dtype: "TensorDType.Float16"
  }
}

layer{
  type: "PlaceholderOp"
  top: "arg130_1"
  layer_param{
    shape: [4608]
    dtype: "TensorDType.Float16"
  }
}

layer{
  type: "PlaceholderOp"
  top: "arg131_1"
  layer_param{
    shape: [4096, 4096]
    dtype: "TensorDType.Float16"
  }
}

layer{
  type: "PlaceholderOp"
  top: "arg132_1"
  layer_param{
    shape: [4096]
    dtype: "TensorDType.Float16"
  }
}

layer{
  type: "PlaceholderOp"
  top: "arg133_1"
  layer_param{
    shape: [27392, 4096]
    dtype: "TensorDType.Float16"
  }
}

layer{
  type: "PlaceholderOp"
  top: "arg134_1"
  layer_param{
    shape: [4096, 13696]
    dtype: "TensorDType.Float16"
  }
}

layer{
  type: "PlaceholderOp"
  top: "arg135_1"
  layer_param{
    shape: [4096]
    dtype: "TensorDType.Float16"
  }
}

layer{
  type: "PlaceholderOp"
  top: "arg136_1"
  layer_param{
    shape: [4608, 4096]
    dtype: "TensorDType.Float16"
  }
}

layer{
  type: "PlaceholderOp"
  top: "arg137_1"
  layer_param{
    shape: [4608]
    dtype: "TensorDType.Float16"
  }
}

layer{
  type: "PlaceholderOp"
  top: "arg138_1"
  layer_param{
    shape: [4096, 4096]
    dtype: "TensorDType.Float16"
  }
}

layer{
  type: "PlaceholderOp"
  top: "arg139_1"
  layer_param{
    shape: [4096]
    dtype: "TensorDType.Float16"
  }
}

layer{
  type: "PlaceholderOp"
  top: "arg140_1"
  layer_param{
    shape: [27392, 4096]
    dtype: "TensorDType.Float16"
  }
}

layer{
  type: "PlaceholderOp"
  top: "arg141_1"
  layer_param{
    shape: [4096, 13696]
    dtype: "TensorDType.Float16"
  }
}

layer{
  type: "PlaceholderOp"
  top: "arg142_1"
  layer_param{
    shape: [4096]
    dtype: "TensorDType.Float16"
  }
}

layer{
  type: "PlaceholderOp"
  top: "arg143_1"
  layer_param{
    shape: [4608, 4096]
    dtype: "TensorDType.Float16"
  }
}

layer{
  type: "PlaceholderOp"
  top: "arg144_1"
  layer_param{
    shape: [4608]
    dtype: "TensorDType.Float16"
  }
}

layer{
  type: "PlaceholderOp"
  top: "arg145_1"
  layer_param{
    shape: [4096, 4096]
    dtype: "TensorDType.Float16"
  }
}

layer{
  type: "PlaceholderOp"
  top: "arg146_1"
  layer_param{
    shape: [4096]
    dtype: "TensorDType.Float16"
  }
}

layer{
  type: "PlaceholderOp"
  top: "arg147_1"
  layer_param{
    shape: [27392, 4096]
    dtype: "TensorDType.Float16"
  }
}

layer{
  type: "PlaceholderOp"
  top: "arg148_1"
  layer_param{
    shape: [4096, 13696]
    dtype: "TensorDType.Float16"
  }
}

layer{
  type: "PlaceholderOp"
  top: "arg149_1"
  layer_param{
    shape: [4096]
    dtype: "TensorDType.Float16"
  }
}

layer{
  type: "PlaceholderOp"
  top: "arg150_1"
  layer_param{
    shape: [4608, 4096]
    dtype: "TensorDType.Float16"
  }
}

layer{
  type: "PlaceholderOp"
  top: "arg151_1"
  layer_param{
    shape: [4608]
    dtype: "TensorDType.Float16"
  }
}

layer{
  type: "PlaceholderOp"
  top: "arg152_1"
  layer_param{
    shape: [4096, 4096]
    dtype: "TensorDType.Float16"
  }
}

layer{
  type: "PlaceholderOp"
  top: "arg153_1"
  layer_param{
    shape: [4096]
    dtype: "TensorDType.Float16"
  }
}

layer{
  type: "PlaceholderOp"
  top: "arg154_1"
  layer_param{
    shape: [27392, 4096]
    dtype: "TensorDType.Float16"
  }
}

layer{
  type: "PlaceholderOp"
  top: "arg155_1"
  layer_param{
    shape: [4096, 13696]
    dtype: "TensorDType.Float16"
  }
}

layer{
  type: "PlaceholderOp"
  top: "arg156_1"
  layer_param{
    shape: [4096]
    dtype: "TensorDType.Float16"
  }
}

layer{
  type: "PlaceholderOp"
  top: "arg157_1"
  layer_param{
    shape: [4608, 4096]
    dtype: "TensorDType.Float16"
  }
}

layer{
  type: "PlaceholderOp"
  top: "arg158_1"
  layer_param{
    shape: [4608]
    dtype: "TensorDType.Float16"
  }
}

layer{
  type: "PlaceholderOp"
  top: "arg159_1"
  layer_param{
    shape: [4096, 4096]
    dtype: "TensorDType.Float16"
  }
}

layer{
  type: "PlaceholderOp"
  top: "arg160_1"
  layer_param{
    shape: [4096]
    dtype: "TensorDType.Float16"
  }
}

layer{
  type: "PlaceholderOp"
  top: "arg161_1"
  layer_param{
    shape: [27392, 4096]
    dtype: "TensorDType.Float16"
  }
}

layer{
  type: "PlaceholderOp"
  top: "arg162_1"
  layer_param{
    shape: [4096, 13696]
    dtype: "TensorDType.Float16"
  }
}

layer{
  type: "PlaceholderOp"
  top: "arg163_1"
  layer_param{
    shape: [4096]
    dtype: "TensorDType.Float16"
  }
}

layer{
  type: "PlaceholderOp"
  top: "arg164_1"
  layer_param{
    shape: [4608, 4096]
    dtype: "TensorDType.Float16"
  }
}

layer{
  type: "PlaceholderOp"
  top: "arg165_1"
  layer_param{
    shape: [4608]
    dtype: "TensorDType.Float16"
  }
}

layer{
  type: "PlaceholderOp"
  top: "arg166_1"
  layer_param{
    shape: [4096, 4096]
    dtype: "TensorDType.Float16"
  }
}

layer{
  type: "PlaceholderOp"
  top: "arg167_1"
  layer_param{
    shape: [4096]
    dtype: "TensorDType.Float16"
  }
}

layer{
  type: "PlaceholderOp"
  top: "arg168_1"
  layer_param{
    shape: [27392, 4096]
    dtype: "TensorDType.Float16"
  }
}

layer{
  type: "PlaceholderOp"
  top: "arg169_1"
  layer_param{
    shape: [4096, 13696]
    dtype: "TensorDType.Float16"
  }
}

layer{
  type: "PlaceholderOp"
  top: "arg170_1"
  layer_param{
    shape: [4096]
    dtype: "TensorDType.Float16"
  }
}

layer{
  type: "PlaceholderOp"
  top: "arg171_1"
  layer_param{
    shape: [4608, 4096]
    dtype: "TensorDType.Float16"
  }
}

layer{
  type: "PlaceholderOp"
  top: "arg172_1"
  layer_param{
    shape: [4608]
    dtype: "TensorDType.Float16"
  }
}

layer{
  type: "PlaceholderOp"
  top: "arg173_1"
  layer_param{
    shape: [4096, 4096]
    dtype: "TensorDType.Float16"
  }
}

layer{
  type: "PlaceholderOp"
  top: "arg174_1"
  layer_param{
    shape: [4096]
    dtype: "TensorDType.Float16"
  }
}

layer{
  type: "PlaceholderOp"
  top: "arg175_1"
  layer_param{
    shape: [27392, 4096]
    dtype: "TensorDType.Float16"
  }
}

layer{
  type: "PlaceholderOp"
  top: "arg176_1"
  layer_param{
    shape: [4096, 13696]
    dtype: "TensorDType.Float16"
  }
}

layer{
  type: "PlaceholderOp"
  top: "arg177_1"
  layer_param{
    shape: [4096]
    dtype: "TensorDType.Float16"
  }
}

layer{
  type: "PlaceholderOp"
  top: "arg178_1"
  layer_param{
    shape: [4608, 4096]
    dtype: "TensorDType.Float16"
  }
}

layer{
  type: "PlaceholderOp"
  top: "arg179_1"
  layer_param{
    shape: [4608]
    dtype: "TensorDType.Float16"
  }
}

layer{
  type: "PlaceholderOp"
  top: "arg180_1"
  layer_param{
    shape: [4096, 4096]
    dtype: "TensorDType.Float16"
  }
}

layer{
  type: "PlaceholderOp"
  top: "arg181_1"
  layer_param{
    shape: [4096]
    dtype: "TensorDType.Float16"
  }
}

layer{
  type: "PlaceholderOp"
  top: "arg182_1"
  layer_param{
    shape: [27392, 4096]
    dtype: "TensorDType.Float16"
  }
}

layer{
  type: "PlaceholderOp"
  top: "arg183_1"
  layer_param{
    shape: [4096, 13696]
    dtype: "TensorDType.Float16"
  }
}

layer{
  type: "PlaceholderOp"
  top: "arg184_1"
  layer_param{
    shape: [4096]
    dtype: "TensorDType.Float16"
  }
}

layer{
  type: "PlaceholderOp"
  top: "arg185_1"
  layer_param{
    shape: [4608, 4096]
    dtype: "TensorDType.Float16"
  }
}

layer{
  type: "PlaceholderOp"
  top: "arg186_1"
  layer_param{
    shape: [4608]
    dtype: "TensorDType.Float16"
  }
}

layer{
  type: "PlaceholderOp"
  top: "arg187_1"
  layer_param{
    shape: [4096, 4096]
    dtype: "TensorDType.Float16"
  }
}

layer{
  type: "PlaceholderOp"
  top: "arg188_1"
  layer_param{
    shape: [4096]
    dtype: "TensorDType.Float16"
  }
}

layer{
  type: "PlaceholderOp"
  top: "arg189_1"
  layer_param{
    shape: [27392, 4096]
    dtype: "TensorDType.Float16"
  }
}

layer{
  type: "PlaceholderOp"
  top: "arg190_1"
  layer_param{
    shape: [4096, 13696]
    dtype: "TensorDType.Float16"
  }
}

layer{
  type: "PlaceholderOp"
  top: "arg191_1"
  layer_param{
    shape: [4096]
    dtype: "TensorDType.Float16"
  }
}

layer{
  type: "PlaceholderOp"
  top: "arg192_1"
  layer_param{
    shape: [4608, 4096]
    dtype: "TensorDType.Float16"
  }
}

layer{
  type: "PlaceholderOp"
  top: "arg193_1"
  layer_param{
    shape: [4608]
    dtype: "TensorDType.Float16"
  }
}

layer{
  type: "PlaceholderOp"
  top: "arg194_1"
  layer_param{
    shape: [4096, 4096]
    dtype: "TensorDType.Float16"
  }
}

layer{
  type: "PlaceholderOp"
  top: "arg195_1"
  layer_param{
    shape: [4096]
    dtype: "TensorDType.Float16"
  }
}

layer{
  type: "PlaceholderOp"
  top: "arg196_1"
  layer_param{
    shape: [27392, 4096]
    dtype: "TensorDType.Float16"
  }
}

layer{
  type: "PlaceholderOp"
  top: "arg197_1"
  layer_param{
    shape: [4096, 13696]
    dtype: "TensorDType.Float16"
  }
}

layer{
  type: "PlaceholderOp"
  top: "arg198_1"
  layer_param{
    shape: [4096]
    dtype: "TensorDType.Float16"
  }
}

layer{
  type: "PlaceholderOp"
  top: "arg199_1"
  layer_param{
    shape: [65024, 4096]
    dtype: "TensorDType.Float16"
  }
}

layer{
  type: "EmbeddingOp"
  top: "embedding"
  bottom: "arg1_1"
  bottom: "arg0_1"
  layer_param{
    shape: [1, 128, 4096]
    dtype: "TensorDType.Float16"
  }
}

layer{
  type: "TransposeOp"
  top: "transpose"
  bottom: "embedding"
  layer_param{
    attr_0: 0
    attr_1: 1
    shape: [128, 1, 4096]
    dtype: "TensorDType.Float16"
  }
}

layer{
  type: "ArangeOp"
  top: "arange"
  layer_param{
    attr_0: 0
    attr_1: 64
    attr_2: 2
    shape: [32]
    dtype: "TensorDType.Float16"
  }
}

layer{
  type: "DivOp"
  top: "div"
  bottom: "arange"
  layer_param{
    attr_0: 64
    shape: [32]
    dtype: "TensorDType.Float16"
  }
}

layer{
  type: "PowOp"
  top: "pow_1"
  bottom: "div"
  layer_param{
    attr_0: "div"
    shape: [32]
    dtype: "TensorDType.Float16"
  }
}

layer{
  type: "ReciprocalOp"
  top: "reciprocal"
  bottom: "pow_1"
  layer_param{
    shape: [32]
    dtype: "TensorDType.Float16"
  }
}

layer{
  type: "MulOp"
  top: "mul"
  bottom: "reciprocal"
  layer_param{
    attr_0: 1.0
    shape: [32]
    dtype: "TensorDType.Float16"
  }
}

layer{
  type: "ArangeOp"
  top: "arange_1"
  layer_param{
    attr_0: 32768
    shape: [32768]
    dtype: "TensorDType.Float16"
  }
}

layer{
  type: "ViewOp"
  top: "view"
  bottom: "arange_1"
  layer_param{
    attr_0: [32768, 1]
    shape: [32768, 1]
    dtype: "TensorDType.Float16"
  }
}

layer{
  type: "MulOp"
  top: "mul_1"
  bottom: "view"
  bottom: "mul"
  layer_param{
    shape: [32768, 32]
    dtype: "TensorDType.Float16"
  }
}

layer{
  type: "CosOp"
  top: "cos"
  bottom: "mul_1"
  layer_param{
    shape: [32768, 32]
    dtype: "TensorDType.Float32"
  }
}

layer{
  type: "SinOp"
  top: "sin"
  bottom: "mul_1"
  layer_param{
    shape: [32768, 32]
    dtype: "TensorDType.Float32"
  }
}

layer{
  type: "StackOp"
  top: "stack"
  bottom: "cos"
  bottom: "sin"
  layer_param{
    attr_0: -1
    shape: [32768, 32, 2]
    dtype: "TensorDType.Float32"
  }
}

layer{
  type: "UnsqueezeOp"
  top: "unsqueeze"
  bottom: "stack"
  layer_param{
    attr_0: 0
    shape: [1, 32768, 32, 2]
    dtype: "TensorDType.Float16"
  }
}

layer{
  type: "SliceOp"
  top: "slice_1"
  bottom: "unsqueeze"
  layer_param{
    attr_0: 1
    attr_1: 0
    attr_2: 128
    shape: [1, 128, 32, 2]
    dtype: "TensorDType.Float16"
  }
}

layer{
  type: "TransposeOp"
  top: "transpose_1"
  bottom: "slice_1"
  layer_param{
    attr_0: 0
    attr_1: 1
    shape: [128, 1, 32, 2]
    dtype: "TensorDType.Float16"
  }
}

layer{
  type: "ViewOp"
  top: "view_1"
  bottom: "fuse_ln_mul_3"
  layer_param{
    attr_0: [128, 4096]
    shape: [128, 4096]
    dtype: "TensorDType.Float16"
  }
}

layer{
  type: "TransposeOp"
  top: "t"
  bottom: "arg3_1"
  layer_param{
    shape: [4096, 4608]
    dtype: "TensorDType.Float16"
  }
}

layer{
  type: "AddMMOp"
  top: "addmm"
  bottom: "arg4_1"
  bottom: "view_1"
  bottom: "t"
  layer_param{
    shape: [128, 4608]
    dtype: "TensorDType.Float16"
  }
}

layer{
  type: "ViewOp"
  top: "view_2"
  bottom: "addmm"
  layer_param{
    attr_0: [128, 1, 4608]
    shape: [128, 1, 4608]
    dtype: "TensorDType.Float16"
  }
}

layer{
  type: "SplitWithSizeOp"
  top: "split_with_sizes"
  bottom: "view_2"
  layer_param{
    attr_0: [4096, 256, 256]
    attr_1: -1
    shape{
      output_0: [128, 1, 4096]
      output_1: [128, 1, 256]
      output_2: [128, 1, 256]
    }
  }
}

layer{
  type: "GetItemOp"
  top: "getitem"
  bottom: "split_with_sizes"
  layer_param{
    attr_0: 0
    shape: [128, 1, 4096]
    dtype: "TensorDType.Float16"
  }
}

layer{
  type: "GetItemOp"
  top: "getitem_1"
  bottom: "split_with_sizes"
  layer_param{
    attr_0: 1
    shape: [128, 1, 256]
    dtype: "TensorDType.Float16"
  }
}

layer{
  type: "GetItemOp"
  top: "getitem_2"
  bottom: "split_with_sizes"
  layer_param{
    attr_0: 2
    shape: [128, 1, 256]
    dtype: "TensorDType.Float16"
  }
}

layer{
  type: "ViewOp"
  top: "view_3"
  bottom: "getitem"
  layer_param{
    attr_0: [128, 1, 32, 128]
    shape: [128, 1, 32, 128]
    dtype: "TensorDType.Float16"
  }
}

layer{
  type: "ViewOp"
  top: "view_4"
  bottom: "getitem_1"
  layer_param{
    attr_0: [128, 1, 2, 128]
    shape: [128, 1, 2, 128]
    dtype: "TensorDType.Float16"
  }
}

layer{
  type: "ViewOp"
  top: "view_5"
  bottom: "getitem_2"
  layer_param{
    attr_0: [128, 1, 2, 128]
    shape: [128, 1, 2, 128]
    dtype: "TensorDType.Float16"
  }
}

layer{
  type: "RotaryPosEmbOp"
  top: "rotary_pos_emb"
  bottom: "view_3"
  bottom: "transpose_1"
  layer_param{
    shape: [128, 1, 32, 128]
    dtype: "TensorDType.Float16"
  }
}

layer{
  type: "RotaryPosEmbOp"
  top: "rotary_pos_emb_1"
  bottom: "view_4"
  bottom: "transpose_1"
  layer_param{
    shape: [128, 1, 2, 128]
    dtype: "TensorDType.Float16"
  }
}

layer{
  type: "UnsqueezeOp"
  top: "unsqueeze_1"
  bottom: "rotary_pos_emb_1"
  layer_param{
    attr_0: -2
    shape: [128, 1, 2, 1, 128]
    dtype: "TensorDType.Float16"
  }
}

layer{
  type: "ExpandOp"
  top: "expand"
  bottom: "unsqueeze_1"
  layer_param{
    attr_0: [-1, -1, -1, 16, -1]
    shape: [128, 1, 2, 16, 128]
    dtype: "TensorDType.Float16"
  }
}

layer{
  type: "ViewOp"
  top: "view_6"
  bottom: "expand"
  layer_param{
    attr_0: [128, 1, 32, 128]
    shape: [128, 1, 32, 128]
    dtype: "TensorDType.Float16"
  }
}

layer{
  type: "UnsqueezeOp"
  top: "unsqueeze_2"
  bottom: "view_5"
  layer_param{
    attr_0: -2
    shape: [128, 1, 2, 1, 128]
    dtype: "TensorDType.Float16"
  }
}

layer{
  type: "ExpandOp"
  top: "expand_1"
  bottom: "unsqueeze_2"
  layer_param{
    attr_0: [-1, -1, -1, 16, -1]
    shape: [128, 1, 2, 16, 128]
    dtype: "TensorDType.Float16"
  }
}

layer{
  type: "ViewOp"
  top: "view_7"
  bottom: "expand_1"
  layer_param{
    attr_0: [128, 1, 32, 128]
    shape: [128, 1, 32, 128]
    dtype: "TensorDType.Float16"
  }
}

layer{
  type: "PermuteOp"
  top: "permute"
  bottom: "rotary_pos_emb"
  layer_param{
    attr_0: [1, 2, 0, 3]
    shape: [1, 32, 128, 128]
    dtype: "TensorDType.Float16"
  }
}

layer{
  type: "PermuteOp"
  top: "permute_1"
  bottom: "view_6"
  layer_param{
    attr_0: [1, 2, 0, 3]
    shape: [1, 32, 128, 128]
    dtype: "TensorDType.Float16"
  }
}

layer{
  type: "PermuteOp"
  top: "permute_2"
  bottom: "view_7"
  layer_param{
    attr_0: [1, 2, 0, 3]
    shape: [1, 32, 128, 128]
    dtype: "TensorDType.Float16"
  }
}

layer{
  type: "ScaledDotProductFlashAttentionForCpuOp"
  top: "_scaled_dot_product_flash_attention_for_cpu"
  bottom: "permute"
  bottom: "permute_1"
  bottom: "permute_2"
  layer_param{
    attr_0: 0.0
    attr_1: True
    shape{
      output_0: [1, 32, 128, 128]
      output_1: [1, 32, 128]
    }
  }
}

layer{
  type: "GetItemOp"
  top: "getitem_3"
  bottom: "_scaled_dot_product_flash_attention_for_cpu"
  layer_param{
    attr_0: 0
    shape: [1, 32, 128, 128]
    dtype: "TensorDType.Float16"
  }
}

layer{
  type: "PermuteOp"
  top: "permute_3"
  bottom: "getitem_3"
  layer_param{
    attr_0: [2, 0, 1, 3]
    shape: [128, 1, 32, 128]
    dtype: "TensorDType.Float16"
  }
}

layer{
  type: "ViewOp"
  top: "view_8"
  bottom: "permute_3"
  layer_param{
    attr_0: [128, 1, 4096]
    shape: [128, 1, 4096]
    dtype: "TensorDType.Float16"
  }
}

layer{
  type: "TransposeOp"
  top: "t_1"
  bottom: "arg5_1"
  layer_param{
    shape: [4096, 4096]
    dtype: "TensorDType.Float16"
  }
}

layer{
  type: "ViewOp"
  top: "view_9"
  bottom: "view_8"
  layer_param{
    attr_0: [128, 4096]
    shape: [128, 4096]
    dtype: "TensorDType.Float16"
  }
}

layer{
  type: "MatmulOp"
  top: "mm"
  bottom: "view_9"
  bottom: "t_1"
  layer_param{
    shape: [128, 4096]
    dtype: "TensorDType.Float16"
  }
}

layer{
  type: "ViewOp"
  top: "_unsafe_view"
  bottom: "mm"
  layer_param{
    attr_0: [128, 1, 4096]
    shape: [128, 1, 4096]
    dtype: "TensorDType.Float16"
  }
}

layer{
  type: "AddOp"
  top: "add_1"
  bottom: "transpose"
  bottom: "_unsafe_view"
  layer_param{
    shape: [128, 1, 4096]
    dtype: "TensorDType.Float16"
  }
}

layer{
  type: "TransposeOp"
  top: "t_2"
  bottom: "arg7_1"
  layer_param{
    shape: [4096, 27392]
    dtype: "TensorDType.Float16"
  }
}

layer{
  type: "ViewOp"
  top: "view_10"
  bottom: "fuse_ln_mul_5"
  layer_param{
    attr_0: [128, 4096]
    shape: [128, 4096]
    dtype: "TensorDType.Float16"
  }
}

layer{
  type: "MatmulOp"
  top: "mm_1"
  bottom: "view_10"
  bottom: "t_2"
  layer_param{
    shape: [128, 27392]
    dtype: "TensorDType.Float16"
  }
}

layer{
  type: "ViewOp"
  top: "_unsafe_view_1"
  bottom: "mm_1"
  layer_param{
    attr_0: [128, 1, 27392]
    shape: [128, 1, 27392]
    dtype: "TensorDType.Float16"
  }
}

layer{
  type: "SplitOp"
  top: "split"
  bottom: "_unsafe_view_1"
  layer_param{
    attr_0: 13696
    attr_1: -1
    shape{
      output_0: [128, 1, 13696]
      output_1: [128, 1, 13696]
    }
  }
}

layer{
  type: "GetItemOp"
  top: "getitem_5"
  bottom: "split"
  layer_param{
    attr_0: 0
    shape: [128, 1, 13696]
    dtype: "TensorDType.Float16"
  }
}

layer{
  type: "GetItemOp"
  top: "getitem_6"
  bottom: "split"
  layer_param{
    attr_0: 1
    shape: [128, 1, 13696]
    dtype: "TensorDType.Float16"
  }
}

layer{
  type: "SiluOp"
  top: "silu"
  bottom: "getitem_5"
  layer_param{
    shape: [128, 1, 13696]
    dtype: "TensorDType.Float16"
  }
}

layer{
  type: "MulOp"
  top: "mul_6"
  bottom: "silu"
  bottom: "getitem_6"
  layer_param{
    shape: [128, 1, 13696]
    dtype: "TensorDType.Float16"
  }
}

layer{
  type: "TransposeOp"
  top: "t_3"
  bottom: "arg8_1"
  layer_param{
    shape: [13696, 4096]
    dtype: "TensorDType.Float16"
  }
}

layer{
  type: "ViewOp"
  top: "view_11"
  bottom: "mul_6"
  layer_param{
    attr_0: [128, 13696]
    shape: [128, 13696]
    dtype: "TensorDType.Float16"
  }
}

layer{
  type: "MatmulOp"
  top: "mm_2"
  bottom: "view_11"
  bottom: "t_3"
  layer_param{
    shape: [128, 4096]
    dtype: "TensorDType.Float16"
  }
}

layer{
  type: "ViewOp"
  top: "_unsafe_view_2"
  bottom: "mm_2"
  layer_param{
    attr_0: [128, 1, 4096]
    shape: [128, 1, 4096]
    dtype: "TensorDType.Float16"
  }
}

layer{
  type: "AddOp"
  top: "add_3"
  bottom: "add_1"
  bottom: "_unsafe_view_2"
  layer_param{
    shape: [128, 1, 4096]
    dtype: "TensorDType.Float16"
  }
}

layer{
  type: "ViewOp"
  top: "view_12"
  bottom: "fuse_ln_mul_8"
  layer_param{
    attr_0: [128, 4096]
    shape: [128, 4096]
    dtype: "TensorDType.Float16"
  }
}

layer{
  type: "TransposeOp"
  top: "t_4"
  bottom: "arg10_1"
  layer_param{
    shape: [4096, 4608]
    dtype: "TensorDType.Float16"
  }
}

layer{
  type: "AddMMOp"
  top: "addmm_1"
  bottom: "arg11_1"
  bottom: "view_12"
  bottom: "t_4"
  layer_param{
    shape: [128, 4608]
    dtype: "TensorDType.Float16"
  }
}

layer{
  type: "ViewOp"
  top: "view_13"
  bottom: "addmm_1"
  layer_param{
    attr_0: [128, 1, 4608]
    shape: [128, 1, 4608]
    dtype: "TensorDType.Float16"
  }
}

layer{
  type: "SplitWithSizeOp"
  top: "split_with_sizes_1"
  bottom: "view_13"
  layer_param{
    attr_0: [4096, 256, 256]
    attr_1: -1
    shape{
      output_0: [128, 1, 4096]
      output_1: [128, 1, 256]
      output_2: [128, 1, 256]
    }
  }
}

layer{
  type: "GetItemOp"
  top: "getitem_7"
  bottom: "split_with_sizes_1"
  layer_param{
    attr_0: 0
    shape: [128, 1, 4096]
    dtype: "TensorDType.Float16"
  }
}

layer{
  type: "GetItemOp"
  top: "getitem_8"
  bottom: "split_with_sizes_1"
  layer_param{
    attr_0: 1
    shape: [128, 1, 256]
    dtype: "TensorDType.Float16"
  }
}

layer{
  type: "GetItemOp"
  top: "getitem_9"
  bottom: "split_with_sizes_1"
  layer_param{
    attr_0: 2
    shape: [128, 1, 256]
    dtype: "TensorDType.Float16"
  }
}

layer{
  type: "ViewOp"
  top: "view_14"
  bottom: "getitem_7"
  layer_param{
    attr_0: [128, 1, 32, 128]
    shape: [128, 1, 32, 128]
    dtype: "TensorDType.Float16"
  }
}

layer{
  type: "ViewOp"
  top: "view_15"
  bottom: "getitem_8"
  layer_param{
    attr_0: [128, 1, 2, 128]
    shape: [128, 1, 2, 128]
    dtype: "TensorDType.Float16"
  }
}

layer{
  type: "ViewOp"
  top: "view_16"
  bottom: "getitem_9"
  layer_param{
    attr_0: [128, 1, 2, 128]
    shape: [128, 1, 2, 128]
    dtype: "TensorDType.Float16"
  }
}

layer{
  type: "RotaryPosEmbOp"
  top: "rotary_pos_emb_2"
  bottom: "view_14"
  bottom: "transpose_1"
  layer_param{
    shape: [128, 1, 32, 128]
    dtype: "TensorDType.Float16"
  }
}

layer{
  type: "RotaryPosEmbOp"
  top: "rotary_pos_emb_3"
  bottom: "view_15"
  bottom: "transpose_1"
  layer_param{
    shape: [128, 1, 2, 128]
    dtype: "TensorDType.Float16"
  }
}

layer{
  type: "UnsqueezeOp"
  top: "unsqueeze_3"
  bottom: "rotary_pos_emb_3"
  layer_param{
    attr_0: -2
    shape: [128, 1, 2, 1, 128]
    dtype: "TensorDType.Float16"
  }
}

layer{
  type: "ExpandOp"
  top: "expand_2"
  bottom: "unsqueeze_3"
  layer_param{
    attr_0: [-1, -1, -1, 16, -1]
    shape: [128, 1, 2, 16, 128]
    dtype: "TensorDType.Float16"
  }
}

layer{
  type: "ViewOp"
  top: "view_17"
  bottom: "expand_2"
  layer_param{
    attr_0: [128, 1, 32, 128]
    shape: [128, 1, 32, 128]
    dtype: "TensorDType.Float16"
  }
}

layer{
  type: "UnsqueezeOp"
  top: "unsqueeze_4"
  bottom: "view_16"
  layer_param{
    attr_0: -2
    shape: [128, 1, 2, 1, 128]
    dtype: "TensorDType.Float16"
  }
}

layer{
  type: "ExpandOp"
  top: "expand_3"
  bottom: "unsqueeze_4"
  layer_param{
    attr_0: [-1, -1, -1, 16, -1]
    shape: [128, 1, 2, 16, 128]
    dtype: "TensorDType.Float16"
  }
}

layer{
  type: "ViewOp"
  top: "view_18"
  bottom: "expand_3"
  layer_param{
    attr_0: [128, 1, 32, 128]
    shape: [128, 1, 32, 128]
    dtype: "TensorDType.Float16"
  }
}

layer{
  type: "PermuteOp"
  top: "permute_4"
  bottom: "rotary_pos_emb_2"
  layer_param{
    attr_0: [1, 2, 0, 3]
    shape: [1, 32, 128, 128]
    dtype: "TensorDType.Float16"
  }
}

layer{
  type: "PermuteOp"
  top: "permute_5"
  bottom: "view_17"
  layer_param{
    attr_0: [1, 2, 0, 3]
    shape: [1, 32, 128, 128]
    dtype: "TensorDType.Float16"
  }
}

layer{
  type: "PermuteOp"
  top: "permute_6"
  bottom: "view_18"
  layer_param{
    attr_0: [1, 2, 0, 3]
    shape: [1, 32, 128, 128]
    dtype: "TensorDType.Float16"
  }
}

layer{
  type: "ScaledDotProductFlashAttentionForCpuOp"
  top: "_scaled_dot_product_flash_attention_for_cpu_1"
  bottom: "permute_4"
  bottom: "permute_5"
  bottom: "permute_6"
  layer_param{
    attr_0: 0.0
    attr_1: True
    shape{
      output_0: [1, 32, 128, 128]
      output_1: [1, 32, 128]
    }
  }
}

layer{
  type: "GetItemOp"
  top: "getitem_10"
  bottom: "_scaled_dot_product_flash_attention_for_cpu_1"
  layer_param{
    attr_0: 0
    shape: [1, 32, 128, 128]
    dtype: "TensorDType.Float16"
  }
}

layer{
  type: "PermuteOp"
  top: "permute_7"
  bottom: "getitem_10"
  layer_param{
    attr_0: [2, 0, 1, 3]
    shape: [128, 1, 32, 128]
    dtype: "TensorDType.Float16"
  }
}

layer{
  type: "ViewOp"
  top: "view_19"
  bottom: "permute_7"
  layer_param{
    attr_0: [128, 1, 4096]
    shape: [128, 1, 4096]
    dtype: "TensorDType.Float16"
  }
}

layer{
  type: "TransposeOp"
  top: "t_5"
  bottom: "arg12_1"
  layer_param{
    shape: [4096, 4096]
    dtype: "TensorDType.Float16"
  }
}

layer{
  type: "ViewOp"
  top: "view_20"
  bottom: "view_19"
  layer_param{
    attr_0: [128, 4096]
    shape: [128, 4096]
    dtype: "TensorDType.Float16"
  }
}

layer{
  type: "MatmulOp"
  top: "mm_3"
  bottom: "view_20"
  bottom: "t_5"
  layer_param{
    shape: [128, 4096]
    dtype: "TensorDType.Float16"
  }
}

layer{
  type: "ViewOp"
  top: "_unsafe_view_3"
  bottom: "mm_3"
  layer_param{
    attr_0: [128, 1, 4096]
    shape: [128, 1, 4096]
    dtype: "TensorDType.Float16"
  }
}

layer{
  type: "AddOp"
  top: "add_5"
  bottom: "add_3"
  bottom: "_unsafe_view_3"
  layer_param{
    shape: [128, 1, 4096]
    dtype: "TensorDType.Float16"
  }
}

layer{
  type: "TransposeOp"
  top: "t_6"
  bottom: "arg14_1"
  layer_param{
    shape: [4096, 27392]
    dtype: "TensorDType.Float16"
  }
}

layer{
  type: "ViewOp"
  top: "view_21"
  bottom: "fuse_ln_mul_10"
  layer_param{
    attr_0: [128, 4096]
    shape: [128, 4096]
    dtype: "TensorDType.Float16"
  }
}

layer{
  type: "MatmulOp"
  top: "mm_4"
  bottom: "view_21"
  bottom: "t_6"
  layer_param{
    shape: [128, 27392]
    dtype: "TensorDType.Float16"
  }
}

layer{
  type: "ViewOp"
  top: "_unsafe_view_4"
  bottom: "mm_4"
  layer_param{
    attr_0: [128, 1, 27392]
    shape: [128, 1, 27392]
    dtype: "TensorDType.Float16"
  }
}

layer{
  type: "SplitOp"
  top: "split_1"
  bottom: "_unsafe_view_4"
  layer_param{
    attr_0: 13696
    attr_1: -1
    shape{
      output_0: [128, 1, 13696]
      output_1: [128, 1, 13696]
    }
  }
}

layer{
  type: "GetItemOp"
  top: "getitem_12"
  bottom: "split_1"
  layer_param{
    attr_0: 0
    shape: [128, 1, 13696]
    dtype: "TensorDType.Float16"
  }
}

layer{
  type: "GetItemOp"
  top: "getitem_13"
  bottom: "split_1"
  layer_param{
    attr_0: 1
    shape: [128, 1, 13696]
    dtype: "TensorDType.Float16"
  }
}

layer{
  type: "SiluOp"
  top: "silu_1"
  bottom: "getitem_12"
  layer_param{
    shape: [128, 1, 13696]
    dtype: "TensorDType.Float16"
  }
}

layer{
  type: "MulOp"
  top: "mul_11"
  bottom: "silu_1"
  bottom: "getitem_13"
  layer_param{
    shape: [128, 1, 13696]
    dtype: "TensorDType.Float16"
  }
}

layer{
  type: "TransposeOp"
  top: "t_7"
  bottom: "arg15_1"
  layer_param{
    shape: [13696, 4096]
    dtype: "TensorDType.Float16"
  }
}

layer{
  type: "ViewOp"
  top: "view_22"
  bottom: "mul_11"
  layer_param{
    attr_0: [128, 13696]
    shape: [128, 13696]
    dtype: "TensorDType.Float16"
  }
}

layer{
  type: "MatmulOp"
  top: "mm_5"
  bottom: "view_22"
  bottom: "t_7"
  layer_param{
    shape: [128, 4096]
    dtype: "TensorDType.Float16"
  }
}

layer{
  type: "ViewOp"
  top: "_unsafe_view_5"
  bottom: "mm_5"
  layer_param{
    attr_0: [128, 1, 4096]
    shape: [128, 1, 4096]
    dtype: "TensorDType.Float16"
  }
}

layer{
  type: "AddOp"
  top: "add_7"
  bottom: "add_5"
  bottom: "_unsafe_view_5"
  layer_param{
    shape: [128, 1, 4096]
    dtype: "TensorDType.Float16"
  }
}

layer{
  type: "ViewOp"
  top: "view_23"
  bottom: "fuse_ln_mul_13"
  layer_param{
    attr_0: [128, 4096]
    shape: [128, 4096]
    dtype: "TensorDType.Float16"
  }
}

layer{
  type: "TransposeOp"
  top: "t_8"
  bottom: "arg17_1"
  layer_param{
    shape: [4096, 4608]
    dtype: "TensorDType.Float16"
  }
}

layer{
  type: "AddMMOp"
  top: "addmm_2"
  bottom: "arg18_1"
  bottom: "view_23"
  bottom: "t_8"
  layer_param{
    shape: [128, 4608]
    dtype: "TensorDType.Float16"
  }
}

layer{
  type: "ViewOp"
  top: "view_24"
  bottom: "addmm_2"
  layer_param{
    attr_0: [128, 1, 4608]
    shape: [128, 1, 4608]
    dtype: "TensorDType.Float16"
  }
}

layer{
  type: "SplitWithSizeOp"
  top: "split_with_sizes_2"
  bottom: "view_24"
  layer_param{
    attr_0: [4096, 256, 256]
    attr_1: -1
    shape{
      output_0: [128, 1, 4096]
      output_1: [128, 1, 256]
      output_2: [128, 1, 256]
    }
  }
}

layer{
  type: "GetItemOp"
  top: "getitem_14"
  bottom: "split_with_sizes_2"
  layer_param{
    attr_0: 0
    shape: [128, 1, 4096]
    dtype: "TensorDType.Float16"
  }
}

layer{
  type: "GetItemOp"
  top: "getitem_15"
  bottom: "split_with_sizes_2"
  layer_param{
    attr_0: 1
    shape: [128, 1, 256]
    dtype: "TensorDType.Float16"
  }
}

layer{
  type: "GetItemOp"
  top: "getitem_16"
  bottom: "split_with_sizes_2"
  layer_param{
    attr_0: 2
    shape: [128, 1, 256]
    dtype: "TensorDType.Float16"
  }
}

layer{
  type: "ViewOp"
  top: "view_25"
  bottom: "getitem_14"
  layer_param{
    attr_0: [128, 1, 32, 128]
    shape: [128, 1, 32, 128]
    dtype: "TensorDType.Float16"
  }
}

layer{
  type: "ViewOp"
  top: "view_26"
  bottom: "getitem_15"
  layer_param{
    attr_0: [128, 1, 2, 128]
    shape: [128, 1, 2, 128]
    dtype: "TensorDType.Float16"
  }
}

layer{
  type: "ViewOp"
  top: "view_27"
  bottom: "getitem_16"
  layer_param{
    attr_0: [128, 1, 2, 128]
    shape: [128, 1, 2, 128]
    dtype: "TensorDType.Float16"
  }
}

layer{
  type: "RotaryPosEmbOp"
  top: "rotary_pos_emb_4"
  bottom: "view_25"
  bottom: "transpose_1"
  layer_param{
    shape: [128, 1, 32, 128]
    dtype: "TensorDType.Float16"
  }
}

layer{
  type: "RotaryPosEmbOp"
  top: "rotary_pos_emb_5"
  bottom: "view_26"
  bottom: "transpose_1"
  layer_param{
    shape: [128, 1, 2, 128]
    dtype: "TensorDType.Float16"
  }
}

layer{
  type: "UnsqueezeOp"
  top: "unsqueeze_5"
  bottom: "rotary_pos_emb_5"
  layer_param{
    attr_0: -2
    shape: [128, 1, 2, 1, 128]
    dtype: "TensorDType.Float16"
  }
}

layer{
  type: "ExpandOp"
  top: "expand_4"
  bottom: "unsqueeze_5"
  layer_param{
    attr_0: [-1, -1, -1, 16, -1]
    shape: [128, 1, 2, 16, 128]
    dtype: "TensorDType.Float16"
  }
}

layer{
  type: "ViewOp"
  top: "view_28"
  bottom: "expand_4"
  layer_param{
    attr_0: [128, 1, 32, 128]
    shape: [128, 1, 32, 128]
    dtype: "TensorDType.Float16"
  }
}

layer{
  type: "UnsqueezeOp"
  top: "unsqueeze_6"
  bottom: "view_27"
  layer_param{
    attr_0: -2
    shape: [128, 1, 2, 1, 128]
    dtype: "TensorDType.Float16"
  }
}

layer{
  type: "ExpandOp"
  top: "expand_5"
  bottom: "unsqueeze_6"
  layer_param{
    attr_0: [-1, -1, -1, 16, -1]
    shape: [128, 1, 2, 16, 128]
    dtype: "TensorDType.Float16"
  }
}

layer{
  type: "ViewOp"
  top: "view_29"
  bottom: "expand_5"
  layer_param{
    attr_0: [128, 1, 32, 128]
    shape: [128, 1, 32, 128]
    dtype: "TensorDType.Float16"
  }
}

layer{
  type: "PermuteOp"
  top: "permute_8"
  bottom: "rotary_pos_emb_4"
  layer_param{
    attr_0: [1, 2, 0, 3]
    shape: [1, 32, 128, 128]
    dtype: "TensorDType.Float16"
  }
}

layer{
  type: "PermuteOp"
  top: "permute_9"
  bottom: "view_28"
  layer_param{
    attr_0: [1, 2, 0, 3]
    shape: [1, 32, 128, 128]
    dtype: "TensorDType.Float16"
  }
}

layer{
  type: "PermuteOp"
  top: "permute_10"
  bottom: "view_29"
  layer_param{
    attr_0: [1, 2, 0, 3]
    shape: [1, 32, 128, 128]
    dtype: "TensorDType.Float16"
  }
}

layer{
  type: "ScaledDotProductFlashAttentionForCpuOp"
  top: "_scaled_dot_product_flash_attention_for_cpu_2"
  bottom: "permute_8"
  bottom: "permute_9"
  bottom: "permute_10"
  layer_param{
    attr_0: 0.0
    attr_1: True
    shape{
      output_0: [1, 32, 128, 128]
      output_1: [1, 32, 128]
    }
  }
}

layer{
  type: "GetItemOp"
  top: "getitem_17"
  bottom: "_scaled_dot_product_flash_attention_for_cpu_2"
  layer_param{
    attr_0: 0
    shape: [1, 32, 128, 128]
    dtype: "TensorDType.Float16"
  }
}

layer{
  type: "PermuteOp"
  top: "permute_11"
  bottom: "getitem_17"
  layer_param{
    attr_0: [2, 0, 1, 3]
    shape: [128, 1, 32, 128]
    dtype: "TensorDType.Float16"
  }
}

layer{
  type: "ViewOp"
  top: "view_30"
  bottom: "permute_11"
  layer_param{
    attr_0: [128, 1, 4096]
    shape: [128, 1, 4096]
    dtype: "TensorDType.Float16"
  }
}

layer{
  type: "TransposeOp"
  top: "t_9"
  bottom: "arg19_1"
  layer_param{
    shape: [4096, 4096]
    dtype: "TensorDType.Float16"
  }
}

layer{
  type: "ViewOp"
  top: "view_31"
  bottom: "view_30"
  layer_param{
    attr_0: [128, 4096]
    shape: [128, 4096]
    dtype: "TensorDType.Float16"
  }
}

layer{
  type: "MatmulOp"
  top: "mm_6"
  bottom: "view_31"
  bottom: "t_9"
  layer_param{
    shape: [128, 4096]
    dtype: "TensorDType.Float16"
  }
}

layer{
  type: "ViewOp"
  top: "_unsafe_view_6"
  bottom: "mm_6"
  layer_param{
    attr_0: [128, 1, 4096]
    shape: [128, 1, 4096]
    dtype: "TensorDType.Float16"
  }
}

layer{
  type: "AddOp"
  top: "add_9"
  bottom: "add_7"
  bottom: "_unsafe_view_6"
  layer_param{
    shape: [128, 1, 4096]
    dtype: "TensorDType.Float16"
  }
}

layer{
  type: "TransposeOp"
  top: "t_10"
  bottom: "arg21_1"
  layer_param{
    shape: [4096, 27392]
    dtype: "TensorDType.Float16"
  }
}

layer{
  type: "ViewOp"
  top: "view_32"
  bottom: "fuse_ln_mul_15"
  layer_param{
    attr_0: [128, 4096]
    shape: [128, 4096]
    dtype: "TensorDType.Float16"
  }
}

layer{
  type: "MatmulOp"
  top: "mm_7"
  bottom: "view_32"
  bottom: "t_10"
  layer_param{
    shape: [128, 27392]
    dtype: "TensorDType.Float16"
  }
}

layer{
  type: "ViewOp"
  top: "_unsafe_view_7"
  bottom: "mm_7"
  layer_param{
    attr_0: [128, 1, 27392]
    shape: [128, 1, 27392]
    dtype: "TensorDType.Float16"
  }
}

layer{
  type: "SplitOp"
  top: "split_2"
  bottom: "_unsafe_view_7"
  layer_param{
    attr_0: 13696
    attr_1: -1
    shape{
      output_0: [128, 1, 13696]
      output_1: [128, 1, 13696]
    }
  }
}

layer{
  type: "GetItemOp"
  top: "getitem_19"
  bottom: "split_2"
  layer_param{
    attr_0: 0
    shape: [128, 1, 13696]
    dtype: "TensorDType.Float16"
  }
}

layer{
  type: "GetItemOp"
  top: "getitem_20"
  bottom: "split_2"
  layer_param{
    attr_0: 1
    shape: [128, 1, 13696]
    dtype: "TensorDType.Float16"
  }
}

layer{
  type: "SiluOp"
  top: "silu_2"
  bottom: "getitem_19"
  layer_param{
    shape: [128, 1, 13696]
    dtype: "TensorDType.Float16"
  }
}

layer{
  type: "MulOp"
  top: "mul_16"
  bottom: "silu_2"
  bottom: "getitem_20"
  layer_param{
    shape: [128, 1, 13696]
    dtype: "TensorDType.Float16"
  }
}

layer{
  type: "TransposeOp"
  top: "t_11"
  bottom: "arg22_1"
  layer_param{
    shape: [13696, 4096]
    dtype: "TensorDType.Float16"
  }
}

layer{
  type: "ViewOp"
  top: "view_33"
  bottom: "mul_16"
  layer_param{
    attr_0: [128, 13696]
    shape: [128, 13696]
    dtype: "TensorDType.Float16"
  }
}

layer{
  type: "MatmulOp"
  top: "mm_8"
  bottom: "view_33"
  bottom: "t_11"
  layer_param{
    shape: [128, 4096]
    dtype: "TensorDType.Float16"
  }
}

layer{
  type: "ViewOp"
  top: "_unsafe_view_8"
  bottom: "mm_8"
  layer_param{
    attr_0: [128, 1, 4096]
    shape: [128, 1, 4096]
    dtype: "TensorDType.Float16"
  }
}

layer{
  type: "AddOp"
  top: "add_11"
  bottom: "add_9"
  bottom: "_unsafe_view_8"
  layer_param{
    shape: [128, 1, 4096]
    dtype: "TensorDType.Float16"
  }
}

layer{
  type: "ViewOp"
  top: "view_34"
  bottom: "fuse_ln_mul_18"
  layer_param{
    attr_0: [128, 4096]
    shape: [128, 4096]
    dtype: "TensorDType.Float16"
  }
}

layer{
  type: "TransposeOp"
  top: "t_12"
  bottom: "arg24_1"
  layer_param{
    shape: [4096, 4608]
    dtype: "TensorDType.Float16"
  }
}

layer{
  type: "AddMMOp"
  top: "addmm_3"
  bottom: "arg25_1"
  bottom: "view_34"
  bottom: "t_12"
  layer_param{
    shape: [128, 4608]
    dtype: "TensorDType.Float16"
  }
}

layer{
  type: "ViewOp"
  top: "view_35"
  bottom: "addmm_3"
  layer_param{
    attr_0: [128, 1, 4608]
    shape: [128, 1, 4608]
    dtype: "TensorDType.Float16"
  }
}

layer{
  type: "SplitWithSizeOp"
  top: "split_with_sizes_3"
  bottom: "view_35"
  layer_param{
    attr_0: [4096, 256, 256]
    attr_1: -1
    shape{
      output_0: [128, 1, 4096]
      output_1: [128, 1, 256]
      output_2: [128, 1, 256]
    }
  }
}

layer{
  type: "GetItemOp"
  top: "getitem_21"
  bottom: "split_with_sizes_3"
  layer_param{
    attr_0: 0
    shape: [128, 1, 4096]
    dtype: "TensorDType.Float16"
  }
}

layer{
  type: "GetItemOp"
  top: "getitem_22"
  bottom: "split_with_sizes_3"
  layer_param{
    attr_0: 1
    shape: [128, 1, 256]
    dtype: "TensorDType.Float16"
  }
}

layer{
  type: "GetItemOp"
  top: "getitem_23"
  bottom: "split_with_sizes_3"
  layer_param{
    attr_0: 2
    shape: [128, 1, 256]
    dtype: "TensorDType.Float16"
  }
}

layer{
  type: "ViewOp"
  top: "view_36"
  bottom: "getitem_21"
  layer_param{
    attr_0: [128, 1, 32, 128]
    shape: [128, 1, 32, 128]
    dtype: "TensorDType.Float16"
  }
}

layer{
  type: "ViewOp"
  top: "view_37"
  bottom: "getitem_22"
  layer_param{
    attr_0: [128, 1, 2, 128]
    shape: [128, 1, 2, 128]
    dtype: "TensorDType.Float16"
  }
}

layer{
  type: "ViewOp"
  top: "view_38"
  bottom: "getitem_23"
  layer_param{
    attr_0: [128, 1, 2, 128]
    shape: [128, 1, 2, 128]
    dtype: "TensorDType.Float16"
  }
}

layer{
  type: "RotaryPosEmbOp"
  top: "rotary_pos_emb_6"
  bottom: "view_36"
  bottom: "transpose_1"
  layer_param{
    shape: [128, 1, 32, 128]
    dtype: "TensorDType.Float16"
  }
}

layer{
  type: "RotaryPosEmbOp"
  top: "rotary_pos_emb_7"
  bottom: "view_37"
  bottom: "transpose_1"
  layer_param{
    shape: [128, 1, 2, 128]
    dtype: "TensorDType.Float16"
  }
}

layer{
  type: "UnsqueezeOp"
  top: "unsqueeze_7"
  bottom: "rotary_pos_emb_7"
  layer_param{
    attr_0: -2
    shape: [128, 1, 2, 1, 128]
    dtype: "TensorDType.Float16"
  }
}

layer{
  type: "ExpandOp"
  top: "expand_6"
  bottom: "unsqueeze_7"
  layer_param{
    attr_0: [-1, -1, -1, 16, -1]
    shape: [128, 1, 2, 16, 128]
    dtype: "TensorDType.Float16"
  }
}

layer{
  type: "ViewOp"
  top: "view_39"
  bottom: "expand_6"
  layer_param{
    attr_0: [128, 1, 32, 128]
    shape: [128, 1, 32, 128]
    dtype: "TensorDType.Float16"
  }
}

layer{
  type: "UnsqueezeOp"
  top: "unsqueeze_8"
  bottom: "view_38"
  layer_param{
    attr_0: -2
    shape: [128, 1, 2, 1, 128]
    dtype: "TensorDType.Float16"
  }
}

layer{
  type: "ExpandOp"
  top: "expand_7"
  bottom: "unsqueeze_8"
  layer_param{
    attr_0: [-1, -1, -1, 16, -1]
    shape: [128, 1, 2, 16, 128]
    dtype: "TensorDType.Float16"
  }
}

layer{
  type: "ViewOp"
  top: "view_40"
  bottom: "expand_7"
  layer_param{
    attr_0: [128, 1, 32, 128]
    shape: [128, 1, 32, 128]
    dtype: "TensorDType.Float16"
  }
}

layer{
  type: "PermuteOp"
  top: "permute_12"
  bottom: "rotary_pos_emb_6"
  layer_param{
    attr_0: [1, 2, 0, 3]
    shape: [1, 32, 128, 128]
    dtype: "TensorDType.Float16"
  }
}

layer{
  type: "PermuteOp"
  top: "permute_13"
  bottom: "view_39"
  layer_param{
    attr_0: [1, 2, 0, 3]
    shape: [1, 32, 128, 128]
    dtype: "TensorDType.Float16"
  }
}

layer{
  type: "PermuteOp"
  top: "permute_14"
  bottom: "view_40"
  layer_param{
    attr_0: [1, 2, 0, 3]
    shape: [1, 32, 128, 128]
    dtype: "TensorDType.Float16"
  }
}

layer{
  type: "ScaledDotProductFlashAttentionForCpuOp"
  top: "_scaled_dot_product_flash_attention_for_cpu_3"
  bottom: "permute_12"
  bottom: "permute_13"
  bottom: "permute_14"
  layer_param{
    attr_0: 0.0
    attr_1: True
    shape{
      output_0: [1, 32, 128, 128]
      output_1: [1, 32, 128]
    }
  }
}

layer{
  type: "GetItemOp"
  top: "getitem_24"
  bottom: "_scaled_dot_product_flash_attention_for_cpu_3"
  layer_param{
    attr_0: 0
    shape: [1, 32, 128, 128]
    dtype: "TensorDType.Float16"
  }
}

layer{
  type: "PermuteOp"
  top: "permute_15"
  bottom: "getitem_24"
  layer_param{
    attr_0: [2, 0, 1, 3]
    shape: [128, 1, 32, 128]
    dtype: "TensorDType.Float16"
  }
}

layer{
  type: "ViewOp"
  top: "view_41"
  bottom: "permute_15"
  layer_param{
    attr_0: [128, 1, 4096]
    shape: [128, 1, 4096]
    dtype: "TensorDType.Float16"
  }
}

layer{
  type: "TransposeOp"
  top: "t_13"
  bottom: "arg26_1"
  layer_param{
    shape: [4096, 4096]
    dtype: "TensorDType.Float16"
  }
}

layer{
  type: "ViewOp"
  top: "view_42"
  bottom: "view_41"
  layer_param{
    attr_0: [128, 4096]
    shape: [128, 4096]
    dtype: "TensorDType.Float16"
  }
}

layer{
  type: "MatmulOp"
  top: "mm_9"
  bottom: "view_42"
  bottom: "t_13"
  layer_param{
    shape: [128, 4096]
    dtype: "TensorDType.Float16"
  }
}

layer{
  type: "ViewOp"
  top: "_unsafe_view_9"
  bottom: "mm_9"
  layer_param{
    attr_0: [128, 1, 4096]
    shape: [128, 1, 4096]
    dtype: "TensorDType.Float16"
  }
}

layer{
  type: "AddOp"
  top: "add_13"
  bottom: "add_11"
  bottom: "_unsafe_view_9"
  layer_param{
    shape: [128, 1, 4096]
    dtype: "TensorDType.Float16"
  }
}

layer{
  type: "TransposeOp"
  top: "t_14"
  bottom: "arg28_1"
  layer_param{
    shape: [4096, 27392]
    dtype: "TensorDType.Float16"
  }
}

layer{
  type: "ViewOp"
  top: "view_43"
  bottom: "fuse_ln_mul_20"
  layer_param{
    attr_0: [128, 4096]
    shape: [128, 4096]
    dtype: "TensorDType.Float16"
  }
}

layer{
  type: "MatmulOp"
  top: "mm_10"
  bottom: "view_43"
  bottom: "t_14"
  layer_param{
    shape: [128, 27392]
    dtype: "TensorDType.Float16"
  }
}

layer{
  type: "ViewOp"
  top: "_unsafe_view_10"
  bottom: "mm_10"
  layer_param{
    attr_0: [128, 1, 27392]
    shape: [128, 1, 27392]
    dtype: "TensorDType.Float16"
  }
}

layer{
  type: "SplitOp"
  top: "split_3"
  bottom: "_unsafe_view_10"
  layer_param{
    attr_0: 13696
    attr_1: -1
    shape{
      output_0: [128, 1, 13696]
      output_1: [128, 1, 13696]
    }
  }
}

layer{
  type: "GetItemOp"
  top: "getitem_26"
  bottom: "split_3"
  layer_param{
    attr_0: 0
    shape: [128, 1, 13696]
    dtype: "TensorDType.Float16"
  }
}

layer{
  type: "GetItemOp"
  top: "getitem_27"
  bottom: "split_3"
  layer_param{
    attr_0: 1
    shape: [128, 1, 13696]
    dtype: "TensorDType.Float16"
  }
}

layer{
  type: "SiluOp"
  top: "silu_3"
  bottom: "getitem_26"
  layer_param{
    shape: [128, 1, 13696]
    dtype: "TensorDType.Float16"
  }
}

layer{
  type: "MulOp"
  top: "mul_21"
  bottom: "silu_3"
  bottom: "getitem_27"
  layer_param{
    shape: [128, 1, 13696]
    dtype: "TensorDType.Float16"
  }
}

layer{
  type: "TransposeOp"
  top: "t_15"
  bottom: "arg29_1"
  layer_param{
    shape: [13696, 4096]
    dtype: "TensorDType.Float16"
  }
}

layer{
  type: "ViewOp"
  top: "view_44"
  bottom: "mul_21"
  layer_param{
    attr_0: [128, 13696]
    shape: [128, 13696]
    dtype: "TensorDType.Float16"
  }
}

layer{
  type: "MatmulOp"
  top: "mm_11"
  bottom: "view_44"
  bottom: "t_15"
  layer_param{
    shape: [128, 4096]
    dtype: "TensorDType.Float16"
  }
}

layer{
  type: "ViewOp"
  top: "_unsafe_view_11"
  bottom: "mm_11"
  layer_param{
    attr_0: [128, 1, 4096]
    shape: [128, 1, 4096]
    dtype: "TensorDType.Float16"
  }
}

layer{
  type: "AddOp"
  top: "add_15"
  bottom: "add_13"
  bottom: "_unsafe_view_11"
  layer_param{
    shape: [128, 1, 4096]
    dtype: "TensorDType.Float16"
  }
}

layer{
  type: "ViewOp"
  top: "view_45"
  bottom: "fuse_ln_mul_23"
  layer_param{
    attr_0: [128, 4096]
    shape: [128, 4096]
    dtype: "TensorDType.Float16"
  }
}

layer{
  type: "TransposeOp"
  top: "t_16"
  bottom: "arg31_1"
  layer_param{
    shape: [4096, 4608]
    dtype: "TensorDType.Float16"
  }
}

layer{
  type: "AddMMOp"
  top: "addmm_4"
  bottom: "arg32_1"
  bottom: "view_45"
  bottom: "t_16"
  layer_param{
    shape: [128, 4608]
    dtype: "TensorDType.Float16"
  }
}

layer{
  type: "ViewOp"
  top: "view_46"
  bottom: "addmm_4"
  layer_param{
    attr_0: [128, 1, 4608]
    shape: [128, 1, 4608]
    dtype: "TensorDType.Float16"
  }
}

layer{
  type: "SplitWithSizeOp"
  top: "split_with_sizes_4"
  bottom: "view_46"
  layer_param{
    attr_0: [4096, 256, 256]
    attr_1: -1
    shape{
      output_0: [128, 1, 4096]
      output_1: [128, 1, 256]
      output_2: [128, 1, 256]
    }
  }
}

layer{
  type: "GetItemOp"
  top: "getitem_28"
  bottom: "split_with_sizes_4"
  layer_param{
    attr_0: 0
    shape: [128, 1, 4096]
    dtype: "TensorDType.Float16"
  }
}

layer{
  type: "GetItemOp"
  top: "getitem_29"
  bottom: "split_with_sizes_4"
  layer_param{
    attr_0: 1
    shape: [128, 1, 256]
    dtype: "TensorDType.Float16"
  }
}

layer{
  type: "GetItemOp"
  top: "getitem_30"
  bottom: "split_with_sizes_4"
  layer_param{
    attr_0: 2
    shape: [128, 1, 256]
    dtype: "TensorDType.Float16"
  }
}

layer{
  type: "ViewOp"
  top: "view_47"
  bottom: "getitem_28"
  layer_param{
    attr_0: [128, 1, 32, 128]
    shape: [128, 1, 32, 128]
    dtype: "TensorDType.Float16"
  }
}

layer{
  type: "ViewOp"
  top: "view_48"
  bottom: "getitem_29"
  layer_param{
    attr_0: [128, 1, 2, 128]
    shape: [128, 1, 2, 128]
    dtype: "TensorDType.Float16"
  }
}

layer{
  type: "ViewOp"
  top: "view_49"
  bottom: "getitem_30"
  layer_param{
    attr_0: [128, 1, 2, 128]
    shape: [128, 1, 2, 128]
    dtype: "TensorDType.Float16"
  }
}

layer{
  type: "RotaryPosEmbOp"
  top: "rotary_pos_emb_8"
  bottom: "view_47"
  bottom: "transpose_1"
  layer_param{
    shape: [128, 1, 32, 128]
    dtype: "TensorDType.Float16"
  }
}

layer{
  type: "RotaryPosEmbOp"
  top: "rotary_pos_emb_9"
  bottom: "view_48"
  bottom: "transpose_1"
  layer_param{
    shape: [128, 1, 2, 128]
    dtype: "TensorDType.Float16"
  }
}

layer{
  type: "UnsqueezeOp"
  top: "unsqueeze_9"
  bottom: "rotary_pos_emb_9"
  layer_param{
    attr_0: -2
    shape: [128, 1, 2, 1, 128]
    dtype: "TensorDType.Float16"
  }
}

layer{
  type: "ExpandOp"
  top: "expand_8"
  bottom: "unsqueeze_9"
  layer_param{
    attr_0: [-1, -1, -1, 16, -1]
    shape: [128, 1, 2, 16, 128]
    dtype: "TensorDType.Float16"
  }
}

layer{
  type: "ViewOp"
  top: "view_50"
  bottom: "expand_8"
  layer_param{
    attr_0: [128, 1, 32, 128]
    shape: [128, 1, 32, 128]
    dtype: "TensorDType.Float16"
  }
}

layer{
  type: "UnsqueezeOp"
  top: "unsqueeze_10"
  bottom: "view_49"
  layer_param{
    attr_0: -2
    shape: [128, 1, 2, 1, 128]
    dtype: "TensorDType.Float16"
  }
}

layer{
  type: "ExpandOp"
  top: "expand_9"
  bottom: "unsqueeze_10"
  layer_param{
    attr_0: [-1, -1, -1, 16, -1]
    shape: [128, 1, 2, 16, 128]
    dtype: "TensorDType.Float16"
  }
}

layer{
  type: "ViewOp"
  top: "view_51"
  bottom: "expand_9"
  layer_param{
    attr_0: [128, 1, 32, 128]
    shape: [128, 1, 32, 128]
    dtype: "TensorDType.Float16"
  }
}

layer{
  type: "PermuteOp"
  top: "permute_16"
  bottom: "rotary_pos_emb_8"
  layer_param{
    attr_0: [1, 2, 0, 3]
    shape: [1, 32, 128, 128]
    dtype: "TensorDType.Float16"
  }
}

layer{
  type: "PermuteOp"
  top: "permute_17"
  bottom: "view_50"
  layer_param{
    attr_0: [1, 2, 0, 3]
    shape: [1, 32, 128, 128]
    dtype: "TensorDType.Float16"
  }
}

layer{
  type: "PermuteOp"
  top: "permute_18"
  bottom: "view_51"
  layer_param{
    attr_0: [1, 2, 0, 3]
    shape: [1, 32, 128, 128]
    dtype: "TensorDType.Float16"
  }
}

layer{
  type: "ScaledDotProductFlashAttentionForCpuOp"
  top: "_scaled_dot_product_flash_attention_for_cpu_4"
  bottom: "permute_16"
  bottom: "permute_17"
  bottom: "permute_18"
  layer_param{
    attr_0: 0.0
    attr_1: True
    shape{
      output_0: [1, 32, 128, 128]
      output_1: [1, 32, 128]
    }
  }
}

layer{
  type: "GetItemOp"
  top: "getitem_31"
  bottom: "_scaled_dot_product_flash_attention_for_cpu_4"
  layer_param{
    attr_0: 0
    shape: [1, 32, 128, 128]
    dtype: "TensorDType.Float16"
  }
}

layer{
  type: "PermuteOp"
  top: "permute_19"
  bottom: "getitem_31"
  layer_param{
    attr_0: [2, 0, 1, 3]
    shape: [128, 1, 32, 128]
    dtype: "TensorDType.Float16"
  }
}

layer{
  type: "ViewOp"
  top: "view_52"
  bottom: "permute_19"
  layer_param{
    attr_0: [128, 1, 4096]
    shape: [128, 1, 4096]
    dtype: "TensorDType.Float16"
  }
}

layer{
  type: "TransposeOp"
  top: "t_17"
  bottom: "arg33_1"
  layer_param{
    shape: [4096, 4096]
    dtype: "TensorDType.Float16"
  }
}

layer{
  type: "ViewOp"
  top: "view_53"
  bottom: "view_52"
  layer_param{
    attr_0: [128, 4096]
    shape: [128, 4096]
    dtype: "TensorDType.Float16"
  }
}

layer{
  type: "MatmulOp"
  top: "mm_12"
  bottom: "view_53"
  bottom: "t_17"
  layer_param{
    shape: [128, 4096]
    dtype: "TensorDType.Float16"
  }
}

layer{
  type: "ViewOp"
  top: "_unsafe_view_12"
  bottom: "mm_12"
  layer_param{
    attr_0: [128, 1, 4096]
    shape: [128, 1, 4096]
    dtype: "TensorDType.Float16"
  }
}

layer{
  type: "AddOp"
  top: "add_17"
  bottom: "add_15"
  bottom: "_unsafe_view_12"
  layer_param{
    shape: [128, 1, 4096]
    dtype: "TensorDType.Float16"
  }
}

layer{
  type: "TransposeOp"
  top: "t_18"
  bottom: "arg35_1"
  layer_param{
    shape: [4096, 27392]
    dtype: "TensorDType.Float16"
  }
}

layer{
  type: "ViewOp"
  top: "view_54"
  bottom: "fuse_ln_mul_25"
  layer_param{
    attr_0: [128, 4096]
    shape: [128, 4096]
    dtype: "TensorDType.Float16"
  }
}

layer{
  type: "MatmulOp"
  top: "mm_13"
  bottom: "view_54"
  bottom: "t_18"
  layer_param{
    shape: [128, 27392]
    dtype: "TensorDType.Float16"
  }
}

layer{
  type: "ViewOp"
  top: "_unsafe_view_13"
  bottom: "mm_13"
  layer_param{
    attr_0: [128, 1, 27392]
    shape: [128, 1, 27392]
    dtype: "TensorDType.Float16"
  }
}

layer{
  type: "SplitOp"
  top: "split_4"
  bottom: "_unsafe_view_13"
  layer_param{
    attr_0: 13696
    attr_1: -1
    shape{
      output_0: [128, 1, 13696]
      output_1: [128, 1, 13696]
    }
  }
}

layer{
  type: "GetItemOp"
  top: "getitem_33"
  bottom: "split_4"
  layer_param{
    attr_0: 0
    shape: [128, 1, 13696]
    dtype: "TensorDType.Float16"
  }
}

layer{
  type: "GetItemOp"
  top: "getitem_34"
  bottom: "split_4"
  layer_param{
    attr_0: 1
    shape: [128, 1, 13696]
    dtype: "TensorDType.Float16"
  }
}

layer{
  type: "SiluOp"
  top: "silu_4"
  bottom: "getitem_33"
  layer_param{
    shape: [128, 1, 13696]
    dtype: "TensorDType.Float16"
  }
}

layer{
  type: "MulOp"
  top: "mul_26"
  bottom: "silu_4"
  bottom: "getitem_34"
  layer_param{
    shape: [128, 1, 13696]
    dtype: "TensorDType.Float16"
  }
}

layer{
  type: "TransposeOp"
  top: "t_19"
  bottom: "arg36_1"
  layer_param{
    shape: [13696, 4096]
    dtype: "TensorDType.Float16"
  }
}

layer{
  type: "ViewOp"
  top: "view_55"
  bottom: "mul_26"
  layer_param{
    attr_0: [128, 13696]
    shape: [128, 13696]
    dtype: "TensorDType.Float16"
  }
}

layer{
  type: "MatmulOp"
  top: "mm_14"
  bottom: "view_55"
  bottom: "t_19"
  layer_param{
    shape: [128, 4096]
    dtype: "TensorDType.Float16"
  }
}

layer{
  type: "ViewOp"
  top: "_unsafe_view_14"
  bottom: "mm_14"
  layer_param{
    attr_0: [128, 1, 4096]
    shape: [128, 1, 4096]
    dtype: "TensorDType.Float16"
  }
}

layer{
  type: "AddOp"
  top: "add_19"
  bottom: "add_17"
  bottom: "_unsafe_view_14"
  layer_param{
    shape: [128, 1, 4096]
    dtype: "TensorDType.Float16"
  }
}

layer{
  type: "ViewOp"
  top: "view_56"
  bottom: "fuse_ln_mul_28"
  layer_param{
    attr_0: [128, 4096]
    shape: [128, 4096]
    dtype: "TensorDType.Float16"
  }
}

layer{
  type: "TransposeOp"
  top: "t_20"
  bottom: "arg38_1"
  layer_param{
    shape: [4096, 4608]
    dtype: "TensorDType.Float16"
  }
}

layer{
  type: "AddMMOp"
  top: "addmm_5"
  bottom: "arg39_1"
  bottom: "view_56"
  bottom: "t_20"
  layer_param{
    shape: [128, 4608]
    dtype: "TensorDType.Float16"
  }
}

layer{
  type: "ViewOp"
  top: "view_57"
  bottom: "addmm_5"
  layer_param{
    attr_0: [128, 1, 4608]
    shape: [128, 1, 4608]
    dtype: "TensorDType.Float16"
  }
}

layer{
  type: "SplitWithSizeOp"
  top: "split_with_sizes_5"
  bottom: "view_57"
  layer_param{
    attr_0: [4096, 256, 256]
    attr_1: -1
    shape{
      output_0: [128, 1, 4096]
      output_1: [128, 1, 256]
      output_2: [128, 1, 256]
    }
  }
}

layer{
  type: "GetItemOp"
  top: "getitem_35"
  bottom: "split_with_sizes_5"
  layer_param{
    attr_0: 0
    shape: [128, 1, 4096]
    dtype: "TensorDType.Float16"
  }
}

layer{
  type: "GetItemOp"
  top: "getitem_36"
  bottom: "split_with_sizes_5"
  layer_param{
    attr_0: 1
    shape: [128, 1, 256]
    dtype: "TensorDType.Float16"
  }
}

layer{
  type: "GetItemOp"
  top: "getitem_37"
  bottom: "split_with_sizes_5"
  layer_param{
    attr_0: 2
    shape: [128, 1, 256]
    dtype: "TensorDType.Float16"
  }
}

layer{
  type: "ViewOp"
  top: "view_58"
  bottom: "getitem_35"
  layer_param{
    attr_0: [128, 1, 32, 128]
    shape: [128, 1, 32, 128]
    dtype: "TensorDType.Float16"
  }
}

layer{
  type: "ViewOp"
  top: "view_59"
  bottom: "getitem_36"
  layer_param{
    attr_0: [128, 1, 2, 128]
    shape: [128, 1, 2, 128]
    dtype: "TensorDType.Float16"
  }
}

layer{
  type: "ViewOp"
  top: "view_60"
  bottom: "getitem_37"
  layer_param{
    attr_0: [128, 1, 2, 128]
    shape: [128, 1, 2, 128]
    dtype: "TensorDType.Float16"
  }
}

layer{
  type: "RotaryPosEmbOp"
  top: "rotary_pos_emb_10"
  bottom: "view_58"
  bottom: "transpose_1"
  layer_param{
    shape: [128, 1, 32, 128]
    dtype: "TensorDType.Float16"
  }
}

layer{
  type: "RotaryPosEmbOp"
  top: "rotary_pos_emb_11"
  bottom: "view_59"
  bottom: "transpose_1"
  layer_param{
    shape: [128, 1, 2, 128]
    dtype: "TensorDType.Float16"
  }
}

layer{
  type: "UnsqueezeOp"
  top: "unsqueeze_11"
  bottom: "rotary_pos_emb_11"
  layer_param{
    attr_0: -2
    shape: [128, 1, 2, 1, 128]
    dtype: "TensorDType.Float16"
  }
}

layer{
  type: "ExpandOp"
  top: "expand_10"
  bottom: "unsqueeze_11"
  layer_param{
    attr_0: [-1, -1, -1, 16, -1]
    shape: [128, 1, 2, 16, 128]
    dtype: "TensorDType.Float16"
  }
}

layer{
  type: "ViewOp"
  top: "view_61"
  bottom: "expand_10"
  layer_param{
    attr_0: [128, 1, 32, 128]
    shape: [128, 1, 32, 128]
    dtype: "TensorDType.Float16"
  }
}

layer{
  type: "UnsqueezeOp"
  top: "unsqueeze_12"
  bottom: "view_60"
  layer_param{
    attr_0: -2
    shape: [128, 1, 2, 1, 128]
    dtype: "TensorDType.Float16"
  }
}

layer{
  type: "ExpandOp"
  top: "expand_11"
  bottom: "unsqueeze_12"
  layer_param{
    attr_0: [-1, -1, -1, 16, -1]
    shape: [128, 1, 2, 16, 128]
    dtype: "TensorDType.Float16"
  }
}

layer{
  type: "ViewOp"
  top: "view_62"
  bottom: "expand_11"
  layer_param{
    attr_0: [128, 1, 32, 128]
    shape: [128, 1, 32, 128]
    dtype: "TensorDType.Float16"
  }
}

layer{
  type: "PermuteOp"
  top: "permute_20"
  bottom: "rotary_pos_emb_10"
  layer_param{
    attr_0: [1, 2, 0, 3]
    shape: [1, 32, 128, 128]
    dtype: "TensorDType.Float16"
  }
}

layer{
  type: "PermuteOp"
  top: "permute_21"
  bottom: "view_61"
  layer_param{
    attr_0: [1, 2, 0, 3]
    shape: [1, 32, 128, 128]
    dtype: "TensorDType.Float16"
  }
}

layer{
  type: "PermuteOp"
  top: "permute_22"
  bottom: "view_62"
  layer_param{
    attr_0: [1, 2, 0, 3]
    shape: [1, 32, 128, 128]
    dtype: "TensorDType.Float16"
  }
}

layer{
  type: "ScaledDotProductFlashAttentionForCpuOp"
  top: "_scaled_dot_product_flash_attention_for_cpu_5"
  bottom: "permute_20"
  bottom: "permute_21"
  bottom: "permute_22"
  layer_param{
    attr_0: 0.0
    attr_1: True
    shape{
      output_0: [1, 32, 128, 128]
      output_1: [1, 32, 128]
    }
  }
}

layer{
  type: "GetItemOp"
  top: "getitem_38"
  bottom: "_scaled_dot_product_flash_attention_for_cpu_5"
  layer_param{
    attr_0: 0
    shape: [1, 32, 128, 128]
    dtype: "TensorDType.Float16"
  }
}

layer{
  type: "PermuteOp"
  top: "permute_23"
  bottom: "getitem_38"
  layer_param{
    attr_0: [2, 0, 1, 3]
    shape: [128, 1, 32, 128]
    dtype: "TensorDType.Float16"
  }
}

layer{
  type: "ViewOp"
  top: "view_63"
  bottom: "permute_23"
  layer_param{
    attr_0: [128, 1, 4096]
    shape: [128, 1, 4096]
    dtype: "TensorDType.Float16"
  }
}

layer{
  type: "TransposeOp"
  top: "t_21"
  bottom: "arg40_1"
  layer_param{
    shape: [4096, 4096]
    dtype: "TensorDType.Float16"
  }
}

layer{
  type: "ViewOp"
  top: "view_64"
  bottom: "view_63"
  layer_param{
    attr_0: [128, 4096]
    shape: [128, 4096]
    dtype: "TensorDType.Float16"
  }
}

layer{
  type: "MatmulOp"
  top: "mm_15"
  bottom: "view_64"
  bottom: "t_21"
  layer_param{
    shape: [128, 4096]
    dtype: "TensorDType.Float16"
  }
}

layer{
  type: "ViewOp"
  top: "_unsafe_view_15"
  bottom: "mm_15"
  layer_param{
    attr_0: [128, 1, 4096]
    shape: [128, 1, 4096]
    dtype: "TensorDType.Float16"
  }
}

layer{
  type: "AddOp"
  top: "add_21"
  bottom: "add_19"
  bottom: "_unsafe_view_15"
  layer_param{
    shape: [128, 1, 4096]
    dtype: "TensorDType.Float16"
  }
}

layer{
  type: "TransposeOp"
  top: "t_22"
  bottom: "arg42_1"
  layer_param{
    shape: [4096, 27392]
    dtype: "TensorDType.Float16"
  }
}

layer{
  type: "ViewOp"
  top: "view_65"
  bottom: "fuse_ln_mul_30"
  layer_param{
    attr_0: [128, 4096]
    shape: [128, 4096]
    dtype: "TensorDType.Float16"
  }
}

layer{
  type: "MatmulOp"
  top: "mm_16"
  bottom: "view_65"
  bottom: "t_22"
  layer_param{
    shape: [128, 27392]
    dtype: "TensorDType.Float16"
  }
}

layer{
  type: "ViewOp"
  top: "_unsafe_view_16"
  bottom: "mm_16"
  layer_param{
    attr_0: [128, 1, 27392]
    shape: [128, 1, 27392]
    dtype: "TensorDType.Float16"
  }
}

layer{
  type: "SplitOp"
  top: "split_5"
  bottom: "_unsafe_view_16"
  layer_param{
    attr_0: 13696
    attr_1: -1
    shape{
      output_0: [128, 1, 13696]
      output_1: [128, 1, 13696]
    }
  }
}

layer{
  type: "GetItemOp"
  top: "getitem_40"
  bottom: "split_5"
  layer_param{
    attr_0: 0
    shape: [128, 1, 13696]
    dtype: "TensorDType.Float16"
  }
}

layer{
  type: "GetItemOp"
  top: "getitem_41"
  bottom: "split_5"
  layer_param{
    attr_0: 1
    shape: [128, 1, 13696]
    dtype: "TensorDType.Float16"
  }
}

layer{
  type: "SiluOp"
  top: "silu_5"
  bottom: "getitem_40"
  layer_param{
    shape: [128, 1, 13696]
    dtype: "TensorDType.Float16"
  }
}

layer{
  type: "MulOp"
  top: "mul_31"
  bottom: "silu_5"
  bottom: "getitem_41"
  layer_param{
    shape: [128, 1, 13696]
    dtype: "TensorDType.Float16"
  }
}

layer{
  type: "TransposeOp"
  top: "t_23"
  bottom: "arg43_1"
  layer_param{
    shape: [13696, 4096]
    dtype: "TensorDType.Float16"
  }
}

layer{
  type: "ViewOp"
  top: "view_66"
  bottom: "mul_31"
  layer_param{
    attr_0: [128, 13696]
    shape: [128, 13696]
    dtype: "TensorDType.Float16"
  }
}

layer{
  type: "MatmulOp"
  top: "mm_17"
  bottom: "view_66"
  bottom: "t_23"
  layer_param{
    shape: [128, 4096]
    dtype: "TensorDType.Float16"
  }
}

layer{
  type: "ViewOp"
  top: "_unsafe_view_17"
  bottom: "mm_17"
  layer_param{
    attr_0: [128, 1, 4096]
    shape: [128, 1, 4096]
    dtype: "TensorDType.Float16"
  }
}

layer{
  type: "AddOp"
  top: "add_23"
  bottom: "add_21"
  bottom: "_unsafe_view_17"
  layer_param{
    shape: [128, 1, 4096]
    dtype: "TensorDType.Float16"
  }
}

layer{
  type: "ViewOp"
  top: "view_67"
  bottom: "fuse_ln_mul_33"
  layer_param{
    attr_0: [128, 4096]
    shape: [128, 4096]
    dtype: "TensorDType.Float16"
  }
}

layer{
  type: "TransposeOp"
  top: "t_24"
  bottom: "arg45_1"
  layer_param{
    shape: [4096, 4608]
    dtype: "TensorDType.Float16"
  }
}

layer{
  type: "AddMMOp"
  top: "addmm_6"
  bottom: "arg46_1"
  bottom: "view_67"
  bottom: "t_24"
  layer_param{
    shape: [128, 4608]
    dtype: "TensorDType.Float16"
  }
}

layer{
  type: "ViewOp"
  top: "view_68"
  bottom: "addmm_6"
  layer_param{
    attr_0: [128, 1, 4608]
    shape: [128, 1, 4608]
    dtype: "TensorDType.Float16"
  }
}

layer{
  type: "SplitWithSizeOp"
  top: "split_with_sizes_6"
  bottom: "view_68"
  layer_param{
    attr_0: [4096, 256, 256]
    attr_1: -1
    shape{
      output_0: [128, 1, 4096]
      output_1: [128, 1, 256]
      output_2: [128, 1, 256]
    }
  }
}

layer{
  type: "GetItemOp"
  top: "getitem_42"
  bottom: "split_with_sizes_6"
  layer_param{
    attr_0: 0
    shape: [128, 1, 4096]
    dtype: "TensorDType.Float16"
  }
}

layer{
  type: "GetItemOp"
  top: "getitem_43"
  bottom: "split_with_sizes_6"
  layer_param{
    attr_0: 1
    shape: [128, 1, 256]
    dtype: "TensorDType.Float16"
  }
}

layer{
  type: "GetItemOp"
  top: "getitem_44"
  bottom: "split_with_sizes_6"
  layer_param{
    attr_0: 2
    shape: [128, 1, 256]
    dtype: "TensorDType.Float16"
  }
}

layer{
  type: "ViewOp"
  top: "view_69"
  bottom: "getitem_42"
  layer_param{
    attr_0: [128, 1, 32, 128]
    shape: [128, 1, 32, 128]
    dtype: "TensorDType.Float16"
  }
}

layer{
  type: "ViewOp"
  top: "view_70"
  bottom: "getitem_43"
  layer_param{
    attr_0: [128, 1, 2, 128]
    shape: [128, 1, 2, 128]
    dtype: "TensorDType.Float16"
  }
}

layer{
  type: "ViewOp"
  top: "view_71"
  bottom: "getitem_44"
  layer_param{
    attr_0: [128, 1, 2, 128]
    shape: [128, 1, 2, 128]
    dtype: "TensorDType.Float16"
  }
}

layer{
  type: "RotaryPosEmbOp"
  top: "rotary_pos_emb_12"
  bottom: "view_69"
  bottom: "transpose_1"
  layer_param{
    shape: [128, 1, 32, 128]
    dtype: "TensorDType.Float16"
  }
}

layer{
  type: "RotaryPosEmbOp"
  top: "rotary_pos_emb_13"
  bottom: "view_70"
  bottom: "transpose_1"
  layer_param{
    shape: [128, 1, 2, 128]
    dtype: "TensorDType.Float16"
  }
}

layer{
  type: "UnsqueezeOp"
  top: "unsqueeze_13"
  bottom: "rotary_pos_emb_13"
  layer_param{
    attr_0: -2
    shape: [128, 1, 2, 1, 128]
    dtype: "TensorDType.Float16"
  }
}

layer{
  type: "ExpandOp"
  top: "expand_12"
  bottom: "unsqueeze_13"
  layer_param{
    attr_0: [-1, -1, -1, 16, -1]
    shape: [128, 1, 2, 16, 128]
    dtype: "TensorDType.Float16"
  }
}

layer{
  type: "ViewOp"
  top: "view_72"
  bottom: "expand_12"
  layer_param{
    attr_0: [128, 1, 32, 128]
    shape: [128, 1, 32, 128]
    dtype: "TensorDType.Float16"
  }
}

layer{
  type: "UnsqueezeOp"
  top: "unsqueeze_14"
  bottom: "view_71"
  layer_param{
    attr_0: -2
    shape: [128, 1, 2, 1, 128]
    dtype: "TensorDType.Float16"
  }
}

layer{
  type: "ExpandOp"
  top: "expand_13"
  bottom: "unsqueeze_14"
  layer_param{
    attr_0: [-1, -1, -1, 16, -1]
    shape: [128, 1, 2, 16, 128]
    dtype: "TensorDType.Float16"
  }
}

layer{
  type: "ViewOp"
  top: "view_73"
  bottom: "expand_13"
  layer_param{
    attr_0: [128, 1, 32, 128]
    shape: [128, 1, 32, 128]
    dtype: "TensorDType.Float16"
  }
}

layer{
  type: "PermuteOp"
  top: "permute_24"
  bottom: "rotary_pos_emb_12"
  layer_param{
    attr_0: [1, 2, 0, 3]
    shape: [1, 32, 128, 128]
    dtype: "TensorDType.Float16"
  }
}

layer{
  type: "PermuteOp"
  top: "permute_25"
  bottom: "view_72"
  layer_param{
    attr_0: [1, 2, 0, 3]
    shape: [1, 32, 128, 128]
    dtype: "TensorDType.Float16"
  }
}

layer{
  type: "PermuteOp"
  top: "permute_26"
  bottom: "view_73"
  layer_param{
    attr_0: [1, 2, 0, 3]
    shape: [1, 32, 128, 128]
    dtype: "TensorDType.Float16"
  }
}

layer{
  type: "ScaledDotProductFlashAttentionForCpuOp"
  top: "_scaled_dot_product_flash_attention_for_cpu_6"
  bottom: "permute_24"
  bottom: "permute_25"
  bottom: "permute_26"
  layer_param{
    attr_0: 0.0
    attr_1: True
    shape{
      output_0: [1, 32, 128, 128]
      output_1: [1, 32, 128]
    }
  }
}

layer{
  type: "GetItemOp"
  top: "getitem_45"
  bottom: "_scaled_dot_product_flash_attention_for_cpu_6"
  layer_param{
    attr_0: 0
    shape: [1, 32, 128, 128]
    dtype: "TensorDType.Float16"
  }
}

layer{
  type: "PermuteOp"
  top: "permute_27"
  bottom: "getitem_45"
  layer_param{
    attr_0: [2, 0, 1, 3]
    shape: [128, 1, 32, 128]
    dtype: "TensorDType.Float16"
  }
}

layer{
  type: "ViewOp"
  top: "view_74"
  bottom: "permute_27"
  layer_param{
    attr_0: [128, 1, 4096]
    shape: [128, 1, 4096]
    dtype: "TensorDType.Float16"
  }
}

layer{
  type: "TransposeOp"
  top: "t_25"
  bottom: "arg47_1"
  layer_param{
    shape: [4096, 4096]
    dtype: "TensorDType.Float16"
  }
}

layer{
  type: "ViewOp"
  top: "view_75"
  bottom: "view_74"
  layer_param{
    attr_0: [128, 4096]
    shape: [128, 4096]
    dtype: "TensorDType.Float16"
  }
}

layer{
  type: "MatmulOp"
  top: "mm_18"
  bottom: "view_75"
  bottom: "t_25"
  layer_param{
    shape: [128, 4096]
    dtype: "TensorDType.Float16"
  }
}

layer{
  type: "ViewOp"
  top: "_unsafe_view_18"
  bottom: "mm_18"
  layer_param{
    attr_0: [128, 1, 4096]
    shape: [128, 1, 4096]
    dtype: "TensorDType.Float16"
  }
}

layer{
  type: "AddOp"
  top: "add_25"
  bottom: "add_23"
  bottom: "_unsafe_view_18"
  layer_param{
    shape: [128, 1, 4096]
    dtype: "TensorDType.Float16"
  }
}

layer{
  type: "TransposeOp"
  top: "t_26"
  bottom: "arg49_1"
  layer_param{
    shape: [4096, 27392]
    dtype: "TensorDType.Float16"
  }
}

layer{
  type: "ViewOp"
  top: "view_76"
  bottom: "fuse_ln_mul_35"
  layer_param{
    attr_0: [128, 4096]
    shape: [128, 4096]
    dtype: "TensorDType.Float16"
  }
}

layer{
  type: "MatmulOp"
  top: "mm_19"
  bottom: "view_76"
  bottom: "t_26"
  layer_param{
    shape: [128, 27392]
    dtype: "TensorDType.Float16"
  }
}

layer{
  type: "ViewOp"
  top: "_unsafe_view_19"
  bottom: "mm_19"
  layer_param{
    attr_0: [128, 1, 27392]
    shape: [128, 1, 27392]
    dtype: "TensorDType.Float16"
  }
}

layer{
  type: "SplitOp"
  top: "split_6"
  bottom: "_unsafe_view_19"
  layer_param{
    attr_0: 13696
    attr_1: -1
    shape{
      output_0: [128, 1, 13696]
      output_1: [128, 1, 13696]
    }
  }
}

layer{
  type: "GetItemOp"
  top: "getitem_47"
  bottom: "split_6"
  layer_param{
    attr_0: 0
    shape: [128, 1, 13696]
    dtype: "TensorDType.Float16"
  }
}

layer{
  type: "GetItemOp"
  top: "getitem_48"
  bottom: "split_6"
  layer_param{
    attr_0: 1
    shape: [128, 1, 13696]
    dtype: "TensorDType.Float16"
  }
}

layer{
  type: "SiluOp"
  top: "silu_6"
  bottom: "getitem_47"
  layer_param{
    shape: [128, 1, 13696]
    dtype: "TensorDType.Float16"
  }
}

layer{
  type: "MulOp"
  top: "mul_36"
  bottom: "silu_6"
  bottom: "getitem_48"
  layer_param{
    shape: [128, 1, 13696]
    dtype: "TensorDType.Float16"
  }
}

layer{
  type: "TransposeOp"
  top: "t_27"
  bottom: "arg50_1"
  layer_param{
    shape: [13696, 4096]
    dtype: "TensorDType.Float16"
  }
}

layer{
  type: "ViewOp"
  top: "view_77"
  bottom: "mul_36"
  layer_param{
    attr_0: [128, 13696]
    shape: [128, 13696]
    dtype: "TensorDType.Float16"
  }
}

layer{
  type: "MatmulOp"
  top: "mm_20"
  bottom: "view_77"
  bottom: "t_27"
  layer_param{
    shape: [128, 4096]
    dtype: "TensorDType.Float16"
  }
}

layer{
  type: "ViewOp"
  top: "_unsafe_view_20"
  bottom: "mm_20"
  layer_param{
    attr_0: [128, 1, 4096]
    shape: [128, 1, 4096]
    dtype: "TensorDType.Float16"
  }
}

layer{
  type: "AddOp"
  top: "add_27"
  bottom: "add_25"
  bottom: "_unsafe_view_20"
  layer_param{
    shape: [128, 1, 4096]
    dtype: "TensorDType.Float16"
  }
}

layer{
  type: "ViewOp"
  top: "view_78"
  bottom: "fuse_ln_mul_38"
  layer_param{
    attr_0: [128, 4096]
    shape: [128, 4096]
    dtype: "TensorDType.Float16"
  }
}

layer{
  type: "TransposeOp"
  top: "t_28"
  bottom: "arg52_1"
  layer_param{
    shape: [4096, 4608]
    dtype: "TensorDType.Float16"
  }
}

layer{
  type: "AddMMOp"
  top: "addmm_7"
  bottom: "arg53_1"
  bottom: "view_78"
  bottom: "t_28"
  layer_param{
    shape: [128, 4608]
    dtype: "TensorDType.Float16"
  }
}

layer{
  type: "ViewOp"
  top: "view_79"
  bottom: "addmm_7"
  layer_param{
    attr_0: [128, 1, 4608]
    shape: [128, 1, 4608]
    dtype: "TensorDType.Float16"
  }
}

layer{
  type: "SplitWithSizeOp"
  top: "split_with_sizes_7"
  bottom: "view_79"
  layer_param{
    attr_0: [4096, 256, 256]
    attr_1: -1
    shape{
      output_0: [128, 1, 4096]
      output_1: [128, 1, 256]
      output_2: [128, 1, 256]
    }
  }
}

layer{
  type: "GetItemOp"
  top: "getitem_49"
  bottom: "split_with_sizes_7"
  layer_param{
    attr_0: 0
    shape: [128, 1, 4096]
    dtype: "TensorDType.Float16"
  }
}

layer{
  type: "GetItemOp"
  top: "getitem_50"
  bottom: "split_with_sizes_7"
  layer_param{
    attr_0: 1
    shape: [128, 1, 256]
    dtype: "TensorDType.Float16"
  }
}

layer{
  type: "GetItemOp"
  top: "getitem_51"
  bottom: "split_with_sizes_7"
  layer_param{
    attr_0: 2
    shape: [128, 1, 256]
    dtype: "TensorDType.Float16"
  }
}

layer{
  type: "ViewOp"
  top: "view_80"
  bottom: "getitem_49"
  layer_param{
    attr_0: [128, 1, 32, 128]
    shape: [128, 1, 32, 128]
    dtype: "TensorDType.Float16"
  }
}

layer{
  type: "ViewOp"
  top: "view_81"
  bottom: "getitem_50"
  layer_param{
    attr_0: [128, 1, 2, 128]
    shape: [128, 1, 2, 128]
    dtype: "TensorDType.Float16"
  }
}

layer{
  type: "ViewOp"
  top: "view_82"
  bottom: "getitem_51"
  layer_param{
    attr_0: [128, 1, 2, 128]
    shape: [128, 1, 2, 128]
    dtype: "TensorDType.Float16"
  }
}

layer{
  type: "RotaryPosEmbOp"
  top: "rotary_pos_emb_14"
  bottom: "view_80"
  bottom: "transpose_1"
  layer_param{
    shape: [128, 1, 32, 128]
    dtype: "TensorDType.Float16"
  }
}

layer{
  type: "RotaryPosEmbOp"
  top: "rotary_pos_emb_15"
  bottom: "view_81"
  bottom: "transpose_1"
  layer_param{
    shape: [128, 1, 2, 128]
    dtype: "TensorDType.Float16"
  }
}

layer{
  type: "UnsqueezeOp"
  top: "unsqueeze_15"
  bottom: "rotary_pos_emb_15"
  layer_param{
    attr_0: -2
    shape: [128, 1, 2, 1, 128]
    dtype: "TensorDType.Float16"
  }
}

layer{
  type: "ExpandOp"
  top: "expand_14"
  bottom: "unsqueeze_15"
  layer_param{
    attr_0: [-1, -1, -1, 16, -1]
    shape: [128, 1, 2, 16, 128]
    dtype: "TensorDType.Float16"
  }
}

layer{
  type: "ViewOp"
  top: "view_83"
  bottom: "expand_14"
  layer_param{
    attr_0: [128, 1, 32, 128]
    shape: [128, 1, 32, 128]
    dtype: "TensorDType.Float16"
  }
}

layer{
  type: "UnsqueezeOp"
  top: "unsqueeze_16"
  bottom: "view_82"
  layer_param{
    attr_0: -2
    shape: [128, 1, 2, 1, 128]
    dtype: "TensorDType.Float16"
  }
}

layer{
  type: "ExpandOp"
  top: "expand_15"
  bottom: "unsqueeze_16"
  layer_param{
    attr_0: [-1, -1, -1, 16, -1]
    shape: [128, 1, 2, 16, 128]
    dtype: "TensorDType.Float16"
  }
}

layer{
  type: "ViewOp"
  top: "view_84"
  bottom: "expand_15"
  layer_param{
    attr_0: [128, 1, 32, 128]
    shape: [128, 1, 32, 128]
    dtype: "TensorDType.Float16"
  }
}

layer{
  type: "PermuteOp"
  top: "permute_28"
  bottom: "rotary_pos_emb_14"
  layer_param{
    attr_0: [1, 2, 0, 3]
    shape: [1, 32, 128, 128]
    dtype: "TensorDType.Float16"
  }
}

layer{
  type: "PermuteOp"
  top: "permute_29"
  bottom: "view_83"
  layer_param{
    attr_0: [1, 2, 0, 3]
    shape: [1, 32, 128, 128]
    dtype: "TensorDType.Float16"
  }
}

layer{
  type: "PermuteOp"
  top: "permute_30"
  bottom: "view_84"
  layer_param{
    attr_0: [1, 2, 0, 3]
    shape: [1, 32, 128, 128]
    dtype: "TensorDType.Float16"
  }
}

layer{
  type: "ScaledDotProductFlashAttentionForCpuOp"
  top: "_scaled_dot_product_flash_attention_for_cpu_7"
  bottom: "permute_28"
  bottom: "permute_29"
  bottom: "permute_30"
  layer_param{
    attr_0: 0.0
    attr_1: True
    shape{
      output_0: [1, 32, 128, 128]
      output_1: [1, 32, 128]
    }
  }
}

layer{
  type: "GetItemOp"
  top: "getitem_52"
  bottom: "_scaled_dot_product_flash_attention_for_cpu_7"
  layer_param{
    attr_0: 0
    shape: [1, 32, 128, 128]
    dtype: "TensorDType.Float16"
  }
}

layer{
  type: "PermuteOp"
  top: "permute_31"
  bottom: "getitem_52"
  layer_param{
    attr_0: [2, 0, 1, 3]
    shape: [128, 1, 32, 128]
    dtype: "TensorDType.Float16"
  }
}

layer{
  type: "ViewOp"
  top: "view_85"
  bottom: "permute_31"
  layer_param{
    attr_0: [128, 1, 4096]
    shape: [128, 1, 4096]
    dtype: "TensorDType.Float16"
  }
}

layer{
  type: "TransposeOp"
  top: "t_29"
  bottom: "arg54_1"
  layer_param{
    shape: [4096, 4096]
    dtype: "TensorDType.Float16"
  }
}

layer{
  type: "ViewOp"
  top: "view_86"
  bottom: "view_85"
  layer_param{
    attr_0: [128, 4096]
    shape: [128, 4096]
    dtype: "TensorDType.Float16"
  }
}

layer{
  type: "MatmulOp"
  top: "mm_21"
  bottom: "view_86"
  bottom: "t_29"
  layer_param{
    shape: [128, 4096]
    dtype: "TensorDType.Float16"
  }
}

layer{
  type: "ViewOp"
  top: "_unsafe_view_21"
  bottom: "mm_21"
  layer_param{
    attr_0: [128, 1, 4096]
    shape: [128, 1, 4096]
    dtype: "TensorDType.Float16"
  }
}

layer{
  type: "AddOp"
  top: "add_29"
  bottom: "add_27"
  bottom: "_unsafe_view_21"
  layer_param{
    shape: [128, 1, 4096]
    dtype: "TensorDType.Float16"
  }
}

layer{
  type: "TransposeOp"
  top: "t_30"
  bottom: "arg56_1"
  layer_param{
    shape: [4096, 27392]
    dtype: "TensorDType.Float16"
  }
}

layer{
  type: "ViewOp"
  top: "view_87"
  bottom: "fuse_ln_mul_40"
  layer_param{
    attr_0: [128, 4096]
    shape: [128, 4096]
    dtype: "TensorDType.Float16"
  }
}

layer{
  type: "MatmulOp"
  top: "mm_22"
  bottom: "view_87"
  bottom: "t_30"
  layer_param{
    shape: [128, 27392]
    dtype: "TensorDType.Float16"
  }
}

layer{
  type: "ViewOp"
  top: "_unsafe_view_22"
  bottom: "mm_22"
  layer_param{
    attr_0: [128, 1, 27392]
    shape: [128, 1, 27392]
    dtype: "TensorDType.Float16"
  }
}

layer{
  type: "SplitOp"
  top: "split_7"
  bottom: "_unsafe_view_22"
  layer_param{
    attr_0: 13696
    attr_1: -1
    shape{
      output_0: [128, 1, 13696]
      output_1: [128, 1, 13696]
    }
  }
}

layer{
  type: "GetItemOp"
  top: "getitem_54"
  bottom: "split_7"
  layer_param{
    attr_0: 0
    shape: [128, 1, 13696]
    dtype: "TensorDType.Float16"
  }
}

layer{
  type: "GetItemOp"
  top: "getitem_55"
  bottom: "split_7"
  layer_param{
    attr_0: 1
    shape: [128, 1, 13696]
    dtype: "TensorDType.Float16"
  }
}

layer{
  type: "SiluOp"
  top: "silu_7"
  bottom: "getitem_54"
  layer_param{
    shape: [128, 1, 13696]
    dtype: "TensorDType.Float16"
  }
}

layer{
  type: "MulOp"
  top: "mul_41"
  bottom: "silu_7"
  bottom: "getitem_55"
  layer_param{
    shape: [128, 1, 13696]
    dtype: "TensorDType.Float16"
  }
}

layer{
  type: "TransposeOp"
  top: "t_31"
  bottom: "arg57_1"
  layer_param{
    shape: [13696, 4096]
    dtype: "TensorDType.Float16"
  }
}

layer{
  type: "ViewOp"
  top: "view_88"
  bottom: "mul_41"
  layer_param{
    attr_0: [128, 13696]
    shape: [128, 13696]
    dtype: "TensorDType.Float16"
  }
}

layer{
  type: "MatmulOp"
  top: "mm_23"
  bottom: "view_88"
  bottom: "t_31"
  layer_param{
    shape: [128, 4096]
    dtype: "TensorDType.Float16"
  }
}

layer{
  type: "ViewOp"
  top: "_unsafe_view_23"
  bottom: "mm_23"
  layer_param{
    attr_0: [128, 1, 4096]
    shape: [128, 1, 4096]
    dtype: "TensorDType.Float16"
  }
}

layer{
  type: "AddOp"
  top: "add_31"
  bottom: "add_29"
  bottom: "_unsafe_view_23"
  layer_param{
    shape: [128, 1, 4096]
    dtype: "TensorDType.Float16"
  }
}

layer{
  type: "ViewOp"
  top: "view_89"
  bottom: "fuse_ln_mul_43"
  layer_param{
    attr_0: [128, 4096]
    shape: [128, 4096]
    dtype: "TensorDType.Float16"
  }
}

layer{
  type: "TransposeOp"
  top: "t_32"
  bottom: "arg59_1"
  layer_param{
    shape: [4096, 4608]
    dtype: "TensorDType.Float16"
  }
}

layer{
  type: "AddMMOp"
  top: "addmm_8"
  bottom: "arg60_1"
  bottom: "view_89"
  bottom: "t_32"
  layer_param{
    shape: [128, 4608]
    dtype: "TensorDType.Float16"
  }
}

layer{
  type: "ViewOp"
  top: "view_90"
  bottom: "addmm_8"
  layer_param{
    attr_0: [128, 1, 4608]
    shape: [128, 1, 4608]
    dtype: "TensorDType.Float16"
  }
}

layer{
  type: "SplitWithSizeOp"
  top: "split_with_sizes_8"
  bottom: "view_90"
  layer_param{
    attr_0: [4096, 256, 256]
    attr_1: -1
    shape{
      output_0: [128, 1, 4096]
      output_1: [128, 1, 256]
      output_2: [128, 1, 256]
    }
  }
}

layer{
  type: "GetItemOp"
  top: "getitem_56"
  bottom: "split_with_sizes_8"
  layer_param{
    attr_0: 0
    shape: [128, 1, 4096]
    dtype: "TensorDType.Float16"
  }
}

layer{
  type: "GetItemOp"
  top: "getitem_57"
  bottom: "split_with_sizes_8"
  layer_param{
    attr_0: 1
    shape: [128, 1, 256]
    dtype: "TensorDType.Float16"
  }
}

layer{
  type: "GetItemOp"
  top: "getitem_58"
  bottom: "split_with_sizes_8"
  layer_param{
    attr_0: 2
    shape: [128, 1, 256]
    dtype: "TensorDType.Float16"
  }
}

layer{
  type: "ViewOp"
  top: "view_91"
  bottom: "getitem_56"
  layer_param{
    attr_0: [128, 1, 32, 128]
    shape: [128, 1, 32, 128]
    dtype: "TensorDType.Float16"
  }
}

layer{
  type: "ViewOp"
  top: "view_92"
  bottom: "getitem_57"
  layer_param{
    attr_0: [128, 1, 2, 128]
    shape: [128, 1, 2, 128]
    dtype: "TensorDType.Float16"
  }
}

layer{
  type: "ViewOp"
  top: "view_93"
  bottom: "getitem_58"
  layer_param{
    attr_0: [128, 1, 2, 128]
    shape: [128, 1, 2, 128]
    dtype: "TensorDType.Float16"
  }
}

layer{
  type: "RotaryPosEmbOp"
  top: "rotary_pos_emb_16"
  bottom: "view_91"
  bottom: "transpose_1"
  layer_param{
    shape: [128, 1, 32, 128]
    dtype: "TensorDType.Float16"
  }
}

layer{
  type: "RotaryPosEmbOp"
  top: "rotary_pos_emb_17"
  bottom: "view_92"
  bottom: "transpose_1"
  layer_param{
    shape: [128, 1, 2, 128]
    dtype: "TensorDType.Float16"
  }
}

layer{
  type: "UnsqueezeOp"
  top: "unsqueeze_17"
  bottom: "rotary_pos_emb_17"
  layer_param{
    attr_0: -2
    shape: [128, 1, 2, 1, 128]
    dtype: "TensorDType.Float16"
  }
}

layer{
  type: "ExpandOp"
  top: "expand_16"
  bottom: "unsqueeze_17"
  layer_param{
    attr_0: [-1, -1, -1, 16, -1]
    shape: [128, 1, 2, 16, 128]
    dtype: "TensorDType.Float16"
  }
}

layer{
  type: "ViewOp"
  top: "view_94"
  bottom: "expand_16"
  layer_param{
    attr_0: [128, 1, 32, 128]
    shape: [128, 1, 32, 128]
    dtype: "TensorDType.Float16"
  }
}

layer{
  type: "UnsqueezeOp"
  top: "unsqueeze_18"
  bottom: "view_93"
  layer_param{
    attr_0: -2
    shape: [128, 1, 2, 1, 128]
    dtype: "TensorDType.Float16"
  }
}

layer{
  type: "ExpandOp"
  top: "expand_17"
  bottom: "unsqueeze_18"
  layer_param{
    attr_0: [-1, -1, -1, 16, -1]
    shape: [128, 1, 2, 16, 128]
    dtype: "TensorDType.Float16"
  }
}

layer{
  type: "ViewOp"
  top: "view_95"
  bottom: "expand_17"
  layer_param{
    attr_0: [128, 1, 32, 128]
    shape: [128, 1, 32, 128]
    dtype: "TensorDType.Float16"
  }
}

layer{
  type: "PermuteOp"
  top: "permute_32"
  bottom: "rotary_pos_emb_16"
  layer_param{
    attr_0: [1, 2, 0, 3]
    shape: [1, 32, 128, 128]
    dtype: "TensorDType.Float16"
  }
}

layer{
  type: "PermuteOp"
  top: "permute_33"
  bottom: "view_94"
  layer_param{
    attr_0: [1, 2, 0, 3]
    shape: [1, 32, 128, 128]
    dtype: "TensorDType.Float16"
  }
}

layer{
  type: "PermuteOp"
  top: "permute_34"
  bottom: "view_95"
  layer_param{
    attr_0: [1, 2, 0, 3]
    shape: [1, 32, 128, 128]
    dtype: "TensorDType.Float16"
  }
}

layer{
  type: "ScaledDotProductFlashAttentionForCpuOp"
  top: "_scaled_dot_product_flash_attention_for_cpu_8"
  bottom: "permute_32"
  bottom: "permute_33"
  bottom: "permute_34"
  layer_param{
    attr_0: 0.0
    attr_1: True
    shape{
      output_0: [1, 32, 128, 128]
      output_1: [1, 32, 128]
    }
  }
}

layer{
  type: "GetItemOp"
  top: "getitem_59"
  bottom: "_scaled_dot_product_flash_attention_for_cpu_8"
  layer_param{
    attr_0: 0
    shape: [1, 32, 128, 128]
    dtype: "TensorDType.Float16"
  }
}

layer{
  type: "PermuteOp"
  top: "permute_35"
  bottom: "getitem_59"
  layer_param{
    attr_0: [2, 0, 1, 3]
    shape: [128, 1, 32, 128]
    dtype: "TensorDType.Float16"
  }
}

layer{
  type: "ViewOp"
  top: "view_96"
  bottom: "permute_35"
  layer_param{
    attr_0: [128, 1, 4096]
    shape: [128, 1, 4096]
    dtype: "TensorDType.Float16"
  }
}

layer{
  type: "TransposeOp"
  top: "t_33"
  bottom: "arg61_1"
  layer_param{
    shape: [4096, 4096]
    dtype: "TensorDType.Float16"
  }
}

layer{
  type: "ViewOp"
  top: "view_97"
  bottom: "view_96"
  layer_param{
    attr_0: [128, 4096]
    shape: [128, 4096]
    dtype: "TensorDType.Float16"
  }
}

layer{
  type: "MatmulOp"
  top: "mm_24"
  bottom: "view_97"
  bottom: "t_33"
  layer_param{
    shape: [128, 4096]
    dtype: "TensorDType.Float16"
  }
}

layer{
  type: "ViewOp"
  top: "_unsafe_view_24"
  bottom: "mm_24"
  layer_param{
    attr_0: [128, 1, 4096]
    shape: [128, 1, 4096]
    dtype: "TensorDType.Float16"
  }
}

layer{
  type: "AddOp"
  top: "add_33"
  bottom: "add_31"
  bottom: "_unsafe_view_24"
  layer_param{
    shape: [128, 1, 4096]
    dtype: "TensorDType.Float16"
  }
}

layer{
  type: "TransposeOp"
  top: "t_34"
  bottom: "arg63_1"
  layer_param{
    shape: [4096, 27392]
    dtype: "TensorDType.Float16"
  }
}

layer{
  type: "ViewOp"
  top: "view_98"
  bottom: "fuse_ln_mul_45"
  layer_param{
    attr_0: [128, 4096]
    shape: [128, 4096]
    dtype: "TensorDType.Float16"
  }
}

layer{
  type: "MatmulOp"
  top: "mm_25"
  bottom: "view_98"
  bottom: "t_34"
  layer_param{
    shape: [128, 27392]
    dtype: "TensorDType.Float16"
  }
}

layer{
  type: "ViewOp"
  top: "_unsafe_view_25"
  bottom: "mm_25"
  layer_param{
    attr_0: [128, 1, 27392]
    shape: [128, 1, 27392]
    dtype: "TensorDType.Float16"
  }
}

layer{
  type: "SplitOp"
  top: "split_8"
  bottom: "_unsafe_view_25"
  layer_param{
    attr_0: 13696
    attr_1: -1
    shape{
      output_0: [128, 1, 13696]
      output_1: [128, 1, 13696]
    }
  }
}

layer{
  type: "GetItemOp"
  top: "getitem_61"
  bottom: "split_8"
  layer_param{
    attr_0: 0
    shape: [128, 1, 13696]
    dtype: "TensorDType.Float16"
  }
}

layer{
  type: "GetItemOp"
  top: "getitem_62"
  bottom: "split_8"
  layer_param{
    attr_0: 1
    shape: [128, 1, 13696]
    dtype: "TensorDType.Float16"
  }
}

layer{
  type: "SiluOp"
  top: "silu_8"
  bottom: "getitem_61"
  layer_param{
    shape: [128, 1, 13696]
    dtype: "TensorDType.Float16"
  }
}

layer{
  type: "MulOp"
  top: "mul_46"
  bottom: "silu_8"
  bottom: "getitem_62"
  layer_param{
    shape: [128, 1, 13696]
    dtype: "TensorDType.Float16"
  }
}

layer{
  type: "TransposeOp"
  top: "t_35"
  bottom: "arg64_1"
  layer_param{
    shape: [13696, 4096]
    dtype: "TensorDType.Float16"
  }
}

layer{
  type: "ViewOp"
  top: "view_99"
  bottom: "mul_46"
  layer_param{
    attr_0: [128, 13696]
    shape: [128, 13696]
    dtype: "TensorDType.Float16"
  }
}

layer{
  type: "MatmulOp"
  top: "mm_26"
  bottom: "view_99"
  bottom: "t_35"
  layer_param{
    shape: [128, 4096]
    dtype: "TensorDType.Float16"
  }
}

layer{
  type: "ViewOp"
  top: "_unsafe_view_26"
  bottom: "mm_26"
  layer_param{
    attr_0: [128, 1, 4096]
    shape: [128, 1, 4096]
    dtype: "TensorDType.Float16"
  }
}

layer{
  type: "AddOp"
  top: "add_35"
  bottom: "add_33"
  bottom: "_unsafe_view_26"
  layer_param{
    shape: [128, 1, 4096]
    dtype: "TensorDType.Float16"
  }
}

layer{
  type: "ViewOp"
  top: "view_100"
  bottom: "fuse_ln_mul_48"
  layer_param{
    attr_0: [128, 4096]
    shape: [128, 4096]
    dtype: "TensorDType.Float16"
  }
}

layer{
  type: "TransposeOp"
  top: "t_36"
  bottom: "arg66_1"
  layer_param{
    shape: [4096, 4608]
    dtype: "TensorDType.Float16"
  }
}

layer{
  type: "AddMMOp"
  top: "addmm_9"
  bottom: "arg67_1"
  bottom: "view_100"
  bottom: "t_36"
  layer_param{
    shape: [128, 4608]
    dtype: "TensorDType.Float16"
  }
}

layer{
  type: "ViewOp"
  top: "view_101"
  bottom: "addmm_9"
  layer_param{
    attr_0: [128, 1, 4608]
    shape: [128, 1, 4608]
    dtype: "TensorDType.Float16"
  }
}

layer{
  type: "SplitWithSizeOp"
  top: "split_with_sizes_9"
  bottom: "view_101"
  layer_param{
    attr_0: [4096, 256, 256]
    attr_1: -1
    shape{
      output_0: [128, 1, 4096]
      output_1: [128, 1, 256]
      output_2: [128, 1, 256]
    }
  }
}

layer{
  type: "GetItemOp"
  top: "getitem_63"
  bottom: "split_with_sizes_9"
  layer_param{
    attr_0: 0
    shape: [128, 1, 4096]
    dtype: "TensorDType.Float16"
  }
}

layer{
  type: "GetItemOp"
  top: "getitem_64"
  bottom: "split_with_sizes_9"
  layer_param{
    attr_0: 1
    shape: [128, 1, 256]
    dtype: "TensorDType.Float16"
  }
}

layer{
  type: "GetItemOp"
  top: "getitem_65"
  bottom: "split_with_sizes_9"
  layer_param{
    attr_0: 2
    shape: [128, 1, 256]
    dtype: "TensorDType.Float16"
  }
}

layer{
  type: "ViewOp"
  top: "view_102"
  bottom: "getitem_63"
  layer_param{
    attr_0: [128, 1, 32, 128]
    shape: [128, 1, 32, 128]
    dtype: "TensorDType.Float16"
  }
}

layer{
  type: "ViewOp"
  top: "view_103"
  bottom: "getitem_64"
  layer_param{
    attr_0: [128, 1, 2, 128]
    shape: [128, 1, 2, 128]
    dtype: "TensorDType.Float16"
  }
}

layer{
  type: "ViewOp"
  top: "view_104"
  bottom: "getitem_65"
  layer_param{
    attr_0: [128, 1, 2, 128]
    shape: [128, 1, 2, 128]
    dtype: "TensorDType.Float16"
  }
}

layer{
  type: "RotaryPosEmbOp"
  top: "rotary_pos_emb_18"
  bottom: "view_102"
  bottom: "transpose_1"
  layer_param{
    shape: [128, 1, 32, 128]
    dtype: "TensorDType.Float16"
  }
}

layer{
  type: "RotaryPosEmbOp"
  top: "rotary_pos_emb_19"
  bottom: "view_103"
  bottom: "transpose_1"
  layer_param{
    shape: [128, 1, 2, 128]
    dtype: "TensorDType.Float16"
  }
}

layer{
  type: "UnsqueezeOp"
  top: "unsqueeze_19"
  bottom: "rotary_pos_emb_19"
  layer_param{
    attr_0: -2
    shape: [128, 1, 2, 1, 128]
    dtype: "TensorDType.Float16"
  }
}

layer{
  type: "ExpandOp"
  top: "expand_18"
  bottom: "unsqueeze_19"
  layer_param{
    attr_0: [-1, -1, -1, 16, -1]
    shape: [128, 1, 2, 16, 128]
    dtype: "TensorDType.Float16"
  }
}

layer{
  type: "ViewOp"
  top: "view_105"
  bottom: "expand_18"
  layer_param{
    attr_0: [128, 1, 32, 128]
    shape: [128, 1, 32, 128]
    dtype: "TensorDType.Float16"
  }
}

layer{
  type: "UnsqueezeOp"
  top: "unsqueeze_20"
  bottom: "view_104"
  layer_param{
    attr_0: -2
    shape: [128, 1, 2, 1, 128]
    dtype: "TensorDType.Float16"
  }
}

layer{
  type: "ExpandOp"
  top: "expand_19"
  bottom: "unsqueeze_20"
  layer_param{
    attr_0: [-1, -1, -1, 16, -1]
    shape: [128, 1, 2, 16, 128]
    dtype: "TensorDType.Float16"
  }
}

layer{
  type: "ViewOp"
  top: "view_106"
  bottom: "expand_19"
  layer_param{
    attr_0: [128, 1, 32, 128]
    shape: [128, 1, 32, 128]
    dtype: "TensorDType.Float16"
  }
}

layer{
  type: "PermuteOp"
  top: "permute_36"
  bottom: "rotary_pos_emb_18"
  layer_param{
    attr_0: [1, 2, 0, 3]
    shape: [1, 32, 128, 128]
    dtype: "TensorDType.Float16"
  }
}

layer{
  type: "PermuteOp"
  top: "permute_37"
  bottom: "view_105"
  layer_param{
    attr_0: [1, 2, 0, 3]
    shape: [1, 32, 128, 128]
    dtype: "TensorDType.Float16"
  }
}

layer{
  type: "PermuteOp"
  top: "permute_38"
  bottom: "view_106"
  layer_param{
    attr_0: [1, 2, 0, 3]
    shape: [1, 32, 128, 128]
    dtype: "TensorDType.Float16"
  }
}

layer{
  type: "ScaledDotProductFlashAttentionForCpuOp"
  top: "_scaled_dot_product_flash_attention_for_cpu_9"
  bottom: "permute_36"
  bottom: "permute_37"
  bottom: "permute_38"
  layer_param{
    attr_0: 0.0
    attr_1: True
    shape{
      output_0: [1, 32, 128, 128]
      output_1: [1, 32, 128]
    }
  }
}

layer{
  type: "GetItemOp"
  top: "getitem_66"
  bottom: "_scaled_dot_product_flash_attention_for_cpu_9"
  layer_param{
    attr_0: 0
    shape: [1, 32, 128, 128]
    dtype: "TensorDType.Float16"
  }
}

layer{
  type: "PermuteOp"
  top: "permute_39"
  bottom: "getitem_66"
  layer_param{
    attr_0: [2, 0, 1, 3]
    shape: [128, 1, 32, 128]
    dtype: "TensorDType.Float16"
  }
}

layer{
  type: "ViewOp"
  top: "view_107"
  bottom: "permute_39"
  layer_param{
    attr_0: [128, 1, 4096]
    shape: [128, 1, 4096]
    dtype: "TensorDType.Float16"
  }
}

layer{
  type: "TransposeOp"
  top: "t_37"
  bottom: "arg68_1"
  layer_param{
    shape: [4096, 4096]
    dtype: "TensorDType.Float16"
  }
}

layer{
  type: "ViewOp"
  top: "view_108"
  bottom: "view_107"
  layer_param{
    attr_0: [128, 4096]
    shape: [128, 4096]
    dtype: "TensorDType.Float16"
  }
}

layer{
  type: "MatmulOp"
  top: "mm_27"
  bottom: "view_108"
  bottom: "t_37"
  layer_param{
    shape: [128, 4096]
    dtype: "TensorDType.Float16"
  }
}

layer{
  type: "ViewOp"
  top: "_unsafe_view_27"
  bottom: "mm_27"
  layer_param{
    attr_0: [128, 1, 4096]
    shape: [128, 1, 4096]
    dtype: "TensorDType.Float16"
  }
}

layer{
  type: "AddOp"
  top: "add_37"
  bottom: "add_35"
  bottom: "_unsafe_view_27"
  layer_param{
    shape: [128, 1, 4096]
    dtype: "TensorDType.Float16"
  }
}

layer{
  type: "TransposeOp"
  top: "t_38"
  bottom: "arg70_1"
  layer_param{
    shape: [4096, 27392]
    dtype: "TensorDType.Float16"
  }
}

layer{
  type: "ViewOp"
  top: "view_109"
  bottom: "fuse_ln_mul_50"
  layer_param{
    attr_0: [128, 4096]
    shape: [128, 4096]
    dtype: "TensorDType.Float16"
  }
}

layer{
  type: "MatmulOp"
  top: "mm_28"
  bottom: "view_109"
  bottom: "t_38"
  layer_param{
    shape: [128, 27392]
    dtype: "TensorDType.Float16"
  }
}

layer{
  type: "ViewOp"
  top: "_unsafe_view_28"
  bottom: "mm_28"
  layer_param{
    attr_0: [128, 1, 27392]
    shape: [128, 1, 27392]
    dtype: "TensorDType.Float16"
  }
}

layer{
  type: "SplitOp"
  top: "split_9"
  bottom: "_unsafe_view_28"
  layer_param{
    attr_0: 13696
    attr_1: -1
    shape{
      output_0: [128, 1, 13696]
      output_1: [128, 1, 13696]
    }
  }
}

layer{
  type: "GetItemOp"
  top: "getitem_68"
  bottom: "split_9"
  layer_param{
    attr_0: 0
    shape: [128, 1, 13696]
    dtype: "TensorDType.Float16"
  }
}

layer{
  type: "GetItemOp"
  top: "getitem_69"
  bottom: "split_9"
  layer_param{
    attr_0: 1
    shape: [128, 1, 13696]
    dtype: "TensorDType.Float16"
  }
}

layer{
  type: "SiluOp"
  top: "silu_9"
  bottom: "getitem_68"
  layer_param{
    shape: [128, 1, 13696]
    dtype: "TensorDType.Float16"
  }
}

layer{
  type: "MulOp"
  top: "mul_51"
  bottom: "silu_9"
  bottom: "getitem_69"
  layer_param{
    shape: [128, 1, 13696]
    dtype: "TensorDType.Float16"
  }
}

layer{
  type: "TransposeOp"
  top: "t_39"
  bottom: "arg71_1"
  layer_param{
    shape: [13696, 4096]
    dtype: "TensorDType.Float16"
  }
}

layer{
  type: "ViewOp"
  top: "view_110"
  bottom: "mul_51"
  layer_param{
    attr_0: [128, 13696]
    shape: [128, 13696]
    dtype: "TensorDType.Float16"
  }
}

layer{
  type: "MatmulOp"
  top: "mm_29"
  bottom: "view_110"
  bottom: "t_39"
  layer_param{
    shape: [128, 4096]
    dtype: "TensorDType.Float16"
  }
}

layer{
  type: "ViewOp"
  top: "_unsafe_view_29"
  bottom: "mm_29"
  layer_param{
    attr_0: [128, 1, 4096]
    shape: [128, 1, 4096]
    dtype: "TensorDType.Float16"
  }
}

layer{
  type: "AddOp"
  top: "add_39"
  bottom: "add_37"
  bottom: "_unsafe_view_29"
  layer_param{
    shape: [128, 1, 4096]
    dtype: "TensorDType.Float16"
  }
}

layer{
  type: "ViewOp"
  top: "view_111"
  bottom: "fuse_ln_mul_53"
  layer_param{
    attr_0: [128, 4096]
    shape: [128, 4096]
    dtype: "TensorDType.Float16"
  }
}

layer{
  type: "TransposeOp"
  top: "t_40"
  bottom: "arg73_1"
  layer_param{
    shape: [4096, 4608]
    dtype: "TensorDType.Float16"
  }
}

layer{
  type: "AddMMOp"
  top: "addmm_10"
  bottom: "arg74_1"
  bottom: "view_111"
  bottom: "t_40"
  layer_param{
    shape: [128, 4608]
    dtype: "TensorDType.Float16"
  }
}

layer{
  type: "ViewOp"
  top: "view_112"
  bottom: "addmm_10"
  layer_param{
    attr_0: [128, 1, 4608]
    shape: [128, 1, 4608]
    dtype: "TensorDType.Float16"
  }
}

layer{
  type: "SplitWithSizeOp"
  top: "split_with_sizes_10"
  bottom: "view_112"
  layer_param{
    attr_0: [4096, 256, 256]
    attr_1: -1
    shape{
      output_0: [128, 1, 4096]
      output_1: [128, 1, 256]
      output_2: [128, 1, 256]
    }
  }
}

layer{
  type: "GetItemOp"
  top: "getitem_70"
  bottom: "split_with_sizes_10"
  layer_param{
    attr_0: 0
    shape: [128, 1, 4096]
    dtype: "TensorDType.Float16"
  }
}

layer{
  type: "GetItemOp"
  top: "getitem_71"
  bottom: "split_with_sizes_10"
  layer_param{
    attr_0: 1
    shape: [128, 1, 256]
    dtype: "TensorDType.Float16"
  }
}

layer{
  type: "GetItemOp"
  top: "getitem_72"
  bottom: "split_with_sizes_10"
  layer_param{
    attr_0: 2
    shape: [128, 1, 256]
    dtype: "TensorDType.Float16"
  }
}

layer{
  type: "ViewOp"
  top: "view_113"
  bottom: "getitem_70"
  layer_param{
    attr_0: [128, 1, 32, 128]
    shape: [128, 1, 32, 128]
    dtype: "TensorDType.Float16"
  }
}

layer{
  type: "ViewOp"
  top: "view_114"
  bottom: "getitem_71"
  layer_param{
    attr_0: [128, 1, 2, 128]
    shape: [128, 1, 2, 128]
    dtype: "TensorDType.Float16"
  }
}

layer{
  type: "ViewOp"
  top: "view_115"
  bottom: "getitem_72"
  layer_param{
    attr_0: [128, 1, 2, 128]
    shape: [128, 1, 2, 128]
    dtype: "TensorDType.Float16"
  }
}

layer{
  type: "RotaryPosEmbOp"
  top: "rotary_pos_emb_20"
  bottom: "view_113"
  bottom: "transpose_1"
  layer_param{
    shape: [128, 1, 32, 128]
    dtype: "TensorDType.Float16"
  }
}

layer{
  type: "RotaryPosEmbOp"
  top: "rotary_pos_emb_21"
  bottom: "view_114"
  bottom: "transpose_1"
  layer_param{
    shape: [128, 1, 2, 128]
    dtype: "TensorDType.Float16"
  }
}

layer{
  type: "UnsqueezeOp"
  top: "unsqueeze_21"
  bottom: "rotary_pos_emb_21"
  layer_param{
    attr_0: -2
    shape: [128, 1, 2, 1, 128]
    dtype: "TensorDType.Float16"
  }
}

layer{
  type: "ExpandOp"
  top: "expand_20"
  bottom: "unsqueeze_21"
  layer_param{
    attr_0: [-1, -1, -1, 16, -1]
    shape: [128, 1, 2, 16, 128]
    dtype: "TensorDType.Float16"
  }
}

layer{
  type: "ViewOp"
  top: "view_116"
  bottom: "expand_20"
  layer_param{
    attr_0: [128, 1, 32, 128]
    shape: [128, 1, 32, 128]
    dtype: "TensorDType.Float16"
  }
}

layer{
  type: "UnsqueezeOp"
  top: "unsqueeze_22"
  bottom: "view_115"
  layer_param{
    attr_0: -2
    shape: [128, 1, 2, 1, 128]
    dtype: "TensorDType.Float16"
  }
}

layer{
  type: "ExpandOp"
  top: "expand_21"
  bottom: "unsqueeze_22"
  layer_param{
    attr_0: [-1, -1, -1, 16, -1]
    shape: [128, 1, 2, 16, 128]
    dtype: "TensorDType.Float16"
  }
}

layer{
  type: "ViewOp"
  top: "view_117"
  bottom: "expand_21"
  layer_param{
    attr_0: [128, 1, 32, 128]
    shape: [128, 1, 32, 128]
    dtype: "TensorDType.Float16"
  }
}

layer{
  type: "PermuteOp"
  top: "permute_40"
  bottom: "rotary_pos_emb_20"
  layer_param{
    attr_0: [1, 2, 0, 3]
    shape: [1, 32, 128, 128]
    dtype: "TensorDType.Float16"
  }
}

layer{
  type: "PermuteOp"
  top: "permute_41"
  bottom: "view_116"
  layer_param{
    attr_0: [1, 2, 0, 3]
    shape: [1, 32, 128, 128]
    dtype: "TensorDType.Float16"
  }
}

layer{
  type: "PermuteOp"
  top: "permute_42"
  bottom: "view_117"
  layer_param{
    attr_0: [1, 2, 0, 3]
    shape: [1, 32, 128, 128]
    dtype: "TensorDType.Float16"
  }
}

layer{
  type: "ScaledDotProductFlashAttentionForCpuOp"
  top: "_scaled_dot_product_flash_attention_for_cpu_10"
  bottom: "permute_40"
  bottom: "permute_41"
  bottom: "permute_42"
  layer_param{
    attr_0: 0.0
    attr_1: True
    shape{
      output_0: [1, 32, 128, 128]
      output_1: [1, 32, 128]
    }
  }
}

layer{
  type: "GetItemOp"
  top: "getitem_73"
  bottom: "_scaled_dot_product_flash_attention_for_cpu_10"
  layer_param{
    attr_0: 0
    shape: [1, 32, 128, 128]
    dtype: "TensorDType.Float16"
  }
}

layer{
  type: "PermuteOp"
  top: "permute_43"
  bottom: "getitem_73"
  layer_param{
    attr_0: [2, 0, 1, 3]
    shape: [128, 1, 32, 128]
    dtype: "TensorDType.Float16"
  }
}

layer{
  type: "ViewOp"
  top: "view_118"
  bottom: "permute_43"
  layer_param{
    attr_0: [128, 1, 4096]
    shape: [128, 1, 4096]
    dtype: "TensorDType.Float16"
  }
}

layer{
  type: "TransposeOp"
  top: "t_41"
  bottom: "arg75_1"
  layer_param{
    shape: [4096, 4096]
    dtype: "TensorDType.Float16"
  }
}

layer{
  type: "ViewOp"
  top: "view_119"
  bottom: "view_118"
  layer_param{
    attr_0: [128, 4096]
    shape: [128, 4096]
    dtype: "TensorDType.Float16"
  }
}

layer{
  type: "MatmulOp"
  top: "mm_30"
  bottom: "view_119"
  bottom: "t_41"
  layer_param{
    shape: [128, 4096]
    dtype: "TensorDType.Float16"
  }
}

layer{
  type: "ViewOp"
  top: "_unsafe_view_30"
  bottom: "mm_30"
  layer_param{
    attr_0: [128, 1, 4096]
    shape: [128, 1, 4096]
    dtype: "TensorDType.Float16"
  }
}

layer{
  type: "AddOp"
  top: "add_41"
  bottom: "add_39"
  bottom: "_unsafe_view_30"
  layer_param{
    shape: [128, 1, 4096]
    dtype: "TensorDType.Float16"
  }
}

layer{
  type: "TransposeOp"
  top: "t_42"
  bottom: "arg77_1"
  layer_param{
    shape: [4096, 27392]
    dtype: "TensorDType.Float16"
  }
}

layer{
  type: "ViewOp"
  top: "view_120"
  bottom: "fuse_ln_mul_55"
  layer_param{
    attr_0: [128, 4096]
    shape: [128, 4096]
    dtype: "TensorDType.Float16"
  }
}

layer{
  type: "MatmulOp"
  top: "mm_31"
  bottom: "view_120"
  bottom: "t_42"
  layer_param{
    shape: [128, 27392]
    dtype: "TensorDType.Float16"
  }
}

layer{
  type: "ViewOp"
  top: "_unsafe_view_31"
  bottom: "mm_31"
  layer_param{
    attr_0: [128, 1, 27392]
    shape: [128, 1, 27392]
    dtype: "TensorDType.Float16"
  }
}

layer{
  type: "SplitOp"
  top: "split_10"
  bottom: "_unsafe_view_31"
  layer_param{
    attr_0: 13696
    attr_1: -1
    shape{
      output_0: [128, 1, 13696]
      output_1: [128, 1, 13696]
    }
  }
}

layer{
  type: "GetItemOp"
  top: "getitem_75"
  bottom: "split_10"
  layer_param{
    attr_0: 0
    shape: [128, 1, 13696]
    dtype: "TensorDType.Float16"
  }
}

layer{
  type: "GetItemOp"
  top: "getitem_76"
  bottom: "split_10"
  layer_param{
    attr_0: 1
    shape: [128, 1, 13696]
    dtype: "TensorDType.Float16"
  }
}

layer{
  type: "SiluOp"
  top: "silu_10"
  bottom: "getitem_75"
  layer_param{
    shape: [128, 1, 13696]
    dtype: "TensorDType.Float16"
  }
}

layer{
  type: "MulOp"
  top: "mul_56"
  bottom: "silu_10"
  bottom: "getitem_76"
  layer_param{
    shape: [128, 1, 13696]
    dtype: "TensorDType.Float16"
  }
}

layer{
  type: "TransposeOp"
  top: "t_43"
  bottom: "arg78_1"
  layer_param{
    shape: [13696, 4096]
    dtype: "TensorDType.Float16"
  }
}

layer{
  type: "ViewOp"
  top: "view_121"
  bottom: "mul_56"
  layer_param{
    attr_0: [128, 13696]
    shape: [128, 13696]
    dtype: "TensorDType.Float16"
  }
}

layer{
  type: "MatmulOp"
  top: "mm_32"
  bottom: "view_121"
  bottom: "t_43"
  layer_param{
    shape: [128, 4096]
    dtype: "TensorDType.Float16"
  }
}

layer{
  type: "ViewOp"
  top: "_unsafe_view_32"
  bottom: "mm_32"
  layer_param{
    attr_0: [128, 1, 4096]
    shape: [128, 1, 4096]
    dtype: "TensorDType.Float16"
  }
}

layer{
  type: "AddOp"
  top: "add_43"
  bottom: "add_41"
  bottom: "_unsafe_view_32"
  layer_param{
    shape: [128, 1, 4096]
    dtype: "TensorDType.Float16"
  }
}

layer{
  type: "ViewOp"
  top: "view_122"
  bottom: "fuse_ln_mul_58"
  layer_param{
    attr_0: [128, 4096]
    shape: [128, 4096]
    dtype: "TensorDType.Float16"
  }
}

layer{
  type: "TransposeOp"
  top: "t_44"
  bottom: "arg80_1"
  layer_param{
    shape: [4096, 4608]
    dtype: "TensorDType.Float16"
  }
}

layer{
  type: "AddMMOp"
  top: "addmm_11"
  bottom: "arg81_1"
  bottom: "view_122"
  bottom: "t_44"
  layer_param{
    shape: [128, 4608]
    dtype: "TensorDType.Float16"
  }
}

layer{
  type: "ViewOp"
  top: "view_123"
  bottom: "addmm_11"
  layer_param{
    attr_0: [128, 1, 4608]
    shape: [128, 1, 4608]
    dtype: "TensorDType.Float16"
  }
}

layer{
  type: "SplitWithSizeOp"
  top: "split_with_sizes_11"
  bottom: "view_123"
  layer_param{
    attr_0: [4096, 256, 256]
    attr_1: -1
    shape{
      output_0: [128, 1, 4096]
      output_1: [128, 1, 256]
      output_2: [128, 1, 256]
    }
  }
}

layer{
  type: "GetItemOp"
  top: "getitem_77"
  bottom: "split_with_sizes_11"
  layer_param{
    attr_0: 0
    shape: [128, 1, 4096]
    dtype: "TensorDType.Float16"
  }
}

layer{
  type: "GetItemOp"
  top: "getitem_78"
  bottom: "split_with_sizes_11"
  layer_param{
    attr_0: 1
    shape: [128, 1, 256]
    dtype: "TensorDType.Float16"
  }
}

layer{
  type: "GetItemOp"
  top: "getitem_79"
  bottom: "split_with_sizes_11"
  layer_param{
    attr_0: 2
    shape: [128, 1, 256]
    dtype: "TensorDType.Float16"
  }
}

layer{
  type: "ViewOp"
  top: "view_124"
  bottom: "getitem_77"
  layer_param{
    attr_0: [128, 1, 32, 128]
    shape: [128, 1, 32, 128]
    dtype: "TensorDType.Float16"
  }
}

layer{
  type: "ViewOp"
  top: "view_125"
  bottom: "getitem_78"
  layer_param{
    attr_0: [128, 1, 2, 128]
    shape: [128, 1, 2, 128]
    dtype: "TensorDType.Float16"
  }
}

layer{
  type: "ViewOp"
  top: "view_126"
  bottom: "getitem_79"
  layer_param{
    attr_0: [128, 1, 2, 128]
    shape: [128, 1, 2, 128]
    dtype: "TensorDType.Float16"
  }
}

layer{
  type: "RotaryPosEmbOp"
  top: "rotary_pos_emb_22"
  bottom: "view_124"
  bottom: "transpose_1"
  layer_param{
    shape: [128, 1, 32, 128]
    dtype: "TensorDType.Float16"
  }
}

layer{
  type: "RotaryPosEmbOp"
  top: "rotary_pos_emb_23"
  bottom: "view_125"
  bottom: "transpose_1"
  layer_param{
    shape: [128, 1, 2, 128]
    dtype: "TensorDType.Float16"
  }
}

layer{
  type: "UnsqueezeOp"
  top: "unsqueeze_23"
  bottom: "rotary_pos_emb_23"
  layer_param{
    attr_0: -2
    shape: [128, 1, 2, 1, 128]
    dtype: "TensorDType.Float16"
  }
}

layer{
  type: "ExpandOp"
  top: "expand_22"
  bottom: "unsqueeze_23"
  layer_param{
    attr_0: [-1, -1, -1, 16, -1]
    shape: [128, 1, 2, 16, 128]
    dtype: "TensorDType.Float16"
  }
}

layer{
  type: "ViewOp"
  top: "view_127"
  bottom: "expand_22"
  layer_param{
    attr_0: [128, 1, 32, 128]
    shape: [128, 1, 32, 128]
    dtype: "TensorDType.Float16"
  }
}

layer{
  type: "UnsqueezeOp"
  top: "unsqueeze_24"
  bottom: "view_126"
  layer_param{
    attr_0: -2
    shape: [128, 1, 2, 1, 128]
    dtype: "TensorDType.Float16"
  }
}

layer{
  type: "ExpandOp"
  top: "expand_23"
  bottom: "unsqueeze_24"
  layer_param{
    attr_0: [-1, -1, -1, 16, -1]
    shape: [128, 1, 2, 16, 128]
    dtype: "TensorDType.Float16"
  }
}

layer{
  type: "ViewOp"
  top: "view_128"
  bottom: "expand_23"
  layer_param{
    attr_0: [128, 1, 32, 128]
    shape: [128, 1, 32, 128]
    dtype: "TensorDType.Float16"
  }
}

layer{
  type: "PermuteOp"
  top: "permute_44"
  bottom: "rotary_pos_emb_22"
  layer_param{
    attr_0: [1, 2, 0, 3]
    shape: [1, 32, 128, 128]
    dtype: "TensorDType.Float16"
  }
}

layer{
  type: "PermuteOp"
  top: "permute_45"
  bottom: "view_127"
  layer_param{
    attr_0: [1, 2, 0, 3]
    shape: [1, 32, 128, 128]
    dtype: "TensorDType.Float16"
  }
}

layer{
  type: "PermuteOp"
  top: "permute_46"
  bottom: "view_128"
  layer_param{
    attr_0: [1, 2, 0, 3]
    shape: [1, 32, 128, 128]
    dtype: "TensorDType.Float16"
  }
}

layer{
  type: "ScaledDotProductFlashAttentionForCpuOp"
  top: "_scaled_dot_product_flash_attention_for_cpu_11"
  bottom: "permute_44"
  bottom: "permute_45"
  bottom: "permute_46"
  layer_param{
    attr_0: 0.0
    attr_1: True
    shape{
      output_0: [1, 32, 128, 128]
      output_1: [1, 32, 128]
    }
  }
}

layer{
  type: "GetItemOp"
  top: "getitem_80"
  bottom: "_scaled_dot_product_flash_attention_for_cpu_11"
  layer_param{
    attr_0: 0
    shape: [1, 32, 128, 128]
    dtype: "TensorDType.Float16"
  }
}

layer{
  type: "PermuteOp"
  top: "permute_47"
  bottom: "getitem_80"
  layer_param{
    attr_0: [2, 0, 1, 3]
    shape: [128, 1, 32, 128]
    dtype: "TensorDType.Float16"
  }
}

layer{
  type: "ViewOp"
  top: "view_129"
  bottom: "permute_47"
  layer_param{
    attr_0: [128, 1, 4096]
    shape: [128, 1, 4096]
    dtype: "TensorDType.Float16"
  }
}

layer{
  type: "TransposeOp"
  top: "t_45"
  bottom: "arg82_1"
  layer_param{
    shape: [4096, 4096]
    dtype: "TensorDType.Float16"
  }
}

layer{
  type: "ViewOp"
  top: "view_130"
  bottom: "view_129"
  layer_param{
    attr_0: [128, 4096]
    shape: [128, 4096]
    dtype: "TensorDType.Float16"
  }
}

layer{
  type: "MatmulOp"
  top: "mm_33"
  bottom: "view_130"
  bottom: "t_45"
  layer_param{
    shape: [128, 4096]
    dtype: "TensorDType.Float16"
  }
}

layer{
  type: "ViewOp"
  top: "_unsafe_view_33"
  bottom: "mm_33"
  layer_param{
    attr_0: [128, 1, 4096]
    shape: [128, 1, 4096]
    dtype: "TensorDType.Float16"
  }
}

layer{
  type: "AddOp"
  top: "add_45"
  bottom: "add_43"
  bottom: "_unsafe_view_33"
  layer_param{
    shape: [128, 1, 4096]
    dtype: "TensorDType.Float16"
  }
}

layer{
  type: "TransposeOp"
  top: "t_46"
  bottom: "arg84_1"
  layer_param{
    shape: [4096, 27392]
    dtype: "TensorDType.Float16"
  }
}

layer{
  type: "ViewOp"
  top: "view_131"
  bottom: "fuse_ln_mul_60"
  layer_param{
    attr_0: [128, 4096]
    shape: [128, 4096]
    dtype: "TensorDType.Float16"
  }
}

layer{
  type: "MatmulOp"
  top: "mm_34"
  bottom: "view_131"
  bottom: "t_46"
  layer_param{
    shape: [128, 27392]
    dtype: "TensorDType.Float16"
  }
}

layer{
  type: "ViewOp"
  top: "_unsafe_view_34"
  bottom: "mm_34"
  layer_param{
    attr_0: [128, 1, 27392]
    shape: [128, 1, 27392]
    dtype: "TensorDType.Float16"
  }
}

layer{
  type: "SplitOp"
  top: "split_11"
  bottom: "_unsafe_view_34"
  layer_param{
    attr_0: 13696
    attr_1: -1
    shape{
      output_0: [128, 1, 13696]
      output_1: [128, 1, 13696]
    }
  }
}

layer{
  type: "GetItemOp"
  top: "getitem_82"
  bottom: "split_11"
  layer_param{
    attr_0: 0
    shape: [128, 1, 13696]
    dtype: "TensorDType.Float16"
  }
}

layer{
  type: "GetItemOp"
  top: "getitem_83"
  bottom: "split_11"
  layer_param{
    attr_0: 1
    shape: [128, 1, 13696]
    dtype: "TensorDType.Float16"
  }
}

layer{
  type: "SiluOp"
  top: "silu_11"
  bottom: "getitem_82"
  layer_param{
    shape: [128, 1, 13696]
    dtype: "TensorDType.Float16"
  }
}

layer{
  type: "MulOp"
  top: "mul_61"
  bottom: "silu_11"
  bottom: "getitem_83"
  layer_param{
    shape: [128, 1, 13696]
    dtype: "TensorDType.Float16"
  }
}

layer{
  type: "TransposeOp"
  top: "t_47"
  bottom: "arg85_1"
  layer_param{
    shape: [13696, 4096]
    dtype: "TensorDType.Float16"
  }
}

layer{
  type: "ViewOp"
  top: "view_132"
  bottom: "mul_61"
  layer_param{
    attr_0: [128, 13696]
    shape: [128, 13696]
    dtype: "TensorDType.Float16"
  }
}

layer{
  type: "MatmulOp"
  top: "mm_35"
  bottom: "view_132"
  bottom: "t_47"
  layer_param{
    shape: [128, 4096]
    dtype: "TensorDType.Float16"
  }
}

layer{
  type: "ViewOp"
  top: "_unsafe_view_35"
  bottom: "mm_35"
  layer_param{
    attr_0: [128, 1, 4096]
    shape: [128, 1, 4096]
    dtype: "TensorDType.Float16"
  }
}

layer{
  type: "AddOp"
  top: "add_47"
  bottom: "add_45"
  bottom: "_unsafe_view_35"
  layer_param{
    shape: [128, 1, 4096]
    dtype: "TensorDType.Float16"
  }
}

layer{
  type: "ViewOp"
  top: "view_133"
  bottom: "fuse_ln_mul_63"
  layer_param{
    attr_0: [128, 4096]
    shape: [128, 4096]
    dtype: "TensorDType.Float16"
  }
}

layer{
  type: "TransposeOp"
  top: "t_48"
  bottom: "arg87_1"
  layer_param{
    shape: [4096, 4608]
    dtype: "TensorDType.Float16"
  }
}

layer{
  type: "AddMMOp"
  top: "addmm_12"
  bottom: "arg88_1"
  bottom: "view_133"
  bottom: "t_48"
  layer_param{
    shape: [128, 4608]
    dtype: "TensorDType.Float16"
  }
}

layer{
  type: "ViewOp"
  top: "view_134"
  bottom: "addmm_12"
  layer_param{
    attr_0: [128, 1, 4608]
    shape: [128, 1, 4608]
    dtype: "TensorDType.Float16"
  }
}

layer{
  type: "SplitWithSizeOp"
  top: "split_with_sizes_12"
  bottom: "view_134"
  layer_param{
    attr_0: [4096, 256, 256]
    attr_1: -1
    shape{
      output_0: [128, 1, 4096]
      output_1: [128, 1, 256]
      output_2: [128, 1, 256]
    }
  }
}

layer{
  type: "GetItemOp"
  top: "getitem_84"
  bottom: "split_with_sizes_12"
  layer_param{
    attr_0: 0
    shape: [128, 1, 4096]
    dtype: "TensorDType.Float16"
  }
}

layer{
  type: "GetItemOp"
  top: "getitem_85"
  bottom: "split_with_sizes_12"
  layer_param{
    attr_0: 1
    shape: [128, 1, 256]
    dtype: "TensorDType.Float16"
  }
}

layer{
  type: "GetItemOp"
  top: "getitem_86"
  bottom: "split_with_sizes_12"
  layer_param{
    attr_0: 2
    shape: [128, 1, 256]
    dtype: "TensorDType.Float16"
  }
}

layer{
  type: "ViewOp"
  top: "view_135"
  bottom: "getitem_84"
  layer_param{
    attr_0: [128, 1, 32, 128]
    shape: [128, 1, 32, 128]
    dtype: "TensorDType.Float16"
  }
}

layer{
  type: "ViewOp"
  top: "view_136"
  bottom: "getitem_85"
  layer_param{
    attr_0: [128, 1, 2, 128]
    shape: [128, 1, 2, 128]
    dtype: "TensorDType.Float16"
  }
}

layer{
  type: "ViewOp"
  top: "view_137"
  bottom: "getitem_86"
  layer_param{
    attr_0: [128, 1, 2, 128]
    shape: [128, 1, 2, 128]
    dtype: "TensorDType.Float16"
  }
}

layer{
  type: "RotaryPosEmbOp"
  top: "rotary_pos_emb_24"
  bottom: "view_135"
  bottom: "transpose_1"
  layer_param{
    shape: [128, 1, 32, 128]
    dtype: "TensorDType.Float16"
  }
}

layer{
  type: "RotaryPosEmbOp"
  top: "rotary_pos_emb_25"
  bottom: "view_136"
  bottom: "transpose_1"
  layer_param{
    shape: [128, 1, 2, 128]
    dtype: "TensorDType.Float16"
  }
}

layer{
  type: "UnsqueezeOp"
  top: "unsqueeze_25"
  bottom: "rotary_pos_emb_25"
  layer_param{
    attr_0: -2
    shape: [128, 1, 2, 1, 128]
    dtype: "TensorDType.Float16"
  }
}

layer{
  type: "ExpandOp"
  top: "expand_24"
  bottom: "unsqueeze_25"
  layer_param{
    attr_0: [-1, -1, -1, 16, -1]
    shape: [128, 1, 2, 16, 128]
    dtype: "TensorDType.Float16"
  }
}

layer{
  type: "ViewOp"
  top: "view_138"
  bottom: "expand_24"
  layer_param{
    attr_0: [128, 1, 32, 128]
    shape: [128, 1, 32, 128]
    dtype: "TensorDType.Float16"
  }
}

layer{
  type: "UnsqueezeOp"
  top: "unsqueeze_26"
  bottom: "view_137"
  layer_param{
    attr_0: -2
    shape: [128, 1, 2, 1, 128]
    dtype: "TensorDType.Float16"
  }
}

layer{
  type: "ExpandOp"
  top: "expand_25"
  bottom: "unsqueeze_26"
  layer_param{
    attr_0: [-1, -1, -1, 16, -1]
    shape: [128, 1, 2, 16, 128]
    dtype: "TensorDType.Float16"
  }
}

layer{
  type: "ViewOp"
  top: "view_139"
  bottom: "expand_25"
  layer_param{
    attr_0: [128, 1, 32, 128]
    shape: [128, 1, 32, 128]
    dtype: "TensorDType.Float16"
  }
}

layer{
  type: "PermuteOp"
  top: "permute_48"
  bottom: "rotary_pos_emb_24"
  layer_param{
    attr_0: [1, 2, 0, 3]
    shape: [1, 32, 128, 128]
    dtype: "TensorDType.Float16"
  }
}

layer{
  type: "PermuteOp"
  top: "permute_49"
  bottom: "view_138"
  layer_param{
    attr_0: [1, 2, 0, 3]
    shape: [1, 32, 128, 128]
    dtype: "TensorDType.Float16"
  }
}

layer{
  type: "PermuteOp"
  top: "permute_50"
  bottom: "view_139"
  layer_param{
    attr_0: [1, 2, 0, 3]
    shape: [1, 32, 128, 128]
    dtype: "TensorDType.Float16"
  }
}

layer{
  type: "ScaledDotProductFlashAttentionForCpuOp"
  top: "_scaled_dot_product_flash_attention_for_cpu_12"
  bottom: "permute_48"
  bottom: "permute_49"
  bottom: "permute_50"
  layer_param{
    attr_0: 0.0
    attr_1: True
    shape{
      output_0: [1, 32, 128, 128]
      output_1: [1, 32, 128]
    }
  }
}

layer{
  type: "GetItemOp"
  top: "getitem_87"
  bottom: "_scaled_dot_product_flash_attention_for_cpu_12"
  layer_param{
    attr_0: 0
    shape: [1, 32, 128, 128]
    dtype: "TensorDType.Float16"
  }
}

layer{
  type: "PermuteOp"
  top: "permute_51"
  bottom: "getitem_87"
  layer_param{
    attr_0: [2, 0, 1, 3]
    shape: [128, 1, 32, 128]
    dtype: "TensorDType.Float16"
  }
}

layer{
  type: "ViewOp"
  top: "view_140"
  bottom: "permute_51"
  layer_param{
    attr_0: [128, 1, 4096]
    shape: [128, 1, 4096]
    dtype: "TensorDType.Float16"
  }
}

layer{
  type: "TransposeOp"
  top: "t_49"
  bottom: "arg89_1"
  layer_param{
    shape: [4096, 4096]
    dtype: "TensorDType.Float16"
  }
}

layer{
  type: "ViewOp"
  top: "view_141"
  bottom: "view_140"
  layer_param{
    attr_0: [128, 4096]
    shape: [128, 4096]
    dtype: "TensorDType.Float16"
  }
}

layer{
  type: "MatmulOp"
  top: "mm_36"
  bottom: "view_141"
  bottom: "t_49"
  layer_param{
    shape: [128, 4096]
    dtype: "TensorDType.Float16"
  }
}

layer{
  type: "ViewOp"
  top: "_unsafe_view_36"
  bottom: "mm_36"
  layer_param{
    attr_0: [128, 1, 4096]
    shape: [128, 1, 4096]
    dtype: "TensorDType.Float16"
  }
}

layer{
  type: "AddOp"
  top: "add_49"
  bottom: "add_47"
  bottom: "_unsafe_view_36"
  layer_param{
    shape: [128, 1, 4096]
    dtype: "TensorDType.Float16"
  }
}

layer{
  type: "TransposeOp"
  top: "t_50"
  bottom: "arg91_1"
  layer_param{
    shape: [4096, 27392]
    dtype: "TensorDType.Float16"
  }
}

layer{
  type: "ViewOp"
  top: "view_142"
  bottom: "fuse_ln_mul_65"
  layer_param{
    attr_0: [128, 4096]
    shape: [128, 4096]
    dtype: "TensorDType.Float16"
  }
}

layer{
  type: "MatmulOp"
  top: "mm_37"
  bottom: "view_142"
  bottom: "t_50"
  layer_param{
    shape: [128, 27392]
    dtype: "TensorDType.Float16"
  }
}

layer{
  type: "ViewOp"
  top: "_unsafe_view_37"
  bottom: "mm_37"
  layer_param{
    attr_0: [128, 1, 27392]
    shape: [128, 1, 27392]
    dtype: "TensorDType.Float16"
  }
}

layer{
  type: "SplitOp"
  top: "split_12"
  bottom: "_unsafe_view_37"
  layer_param{
    attr_0: 13696
    attr_1: -1
    shape{
      output_0: [128, 1, 13696]
      output_1: [128, 1, 13696]
    }
  }
}

layer{
  type: "GetItemOp"
  top: "getitem_89"
  bottom: "split_12"
  layer_param{
    attr_0: 0
    shape: [128, 1, 13696]
    dtype: "TensorDType.Float16"
  }
}

layer{
  type: "GetItemOp"
  top: "getitem_90"
  bottom: "split_12"
  layer_param{
    attr_0: 1
    shape: [128, 1, 13696]
    dtype: "TensorDType.Float16"
  }
}

layer{
  type: "SiluOp"
  top: "silu_12"
  bottom: "getitem_89"
  layer_param{
    shape: [128, 1, 13696]
    dtype: "TensorDType.Float16"
  }
}

layer{
  type: "MulOp"
  top: "mul_66"
  bottom: "silu_12"
  bottom: "getitem_90"
  layer_param{
    shape: [128, 1, 13696]
    dtype: "TensorDType.Float16"
  }
}

layer{
  type: "TransposeOp"
  top: "t_51"
  bottom: "arg92_1"
  layer_param{
    shape: [13696, 4096]
    dtype: "TensorDType.Float16"
  }
}

layer{
  type: "ViewOp"
  top: "view_143"
  bottom: "mul_66"
  layer_param{
    attr_0: [128, 13696]
    shape: [128, 13696]
    dtype: "TensorDType.Float16"
  }
}

layer{
  type: "MatmulOp"
  top: "mm_38"
  bottom: "view_143"
  bottom: "t_51"
  layer_param{
    shape: [128, 4096]
    dtype: "TensorDType.Float16"
  }
}

layer{
  type: "ViewOp"
  top: "_unsafe_view_38"
  bottom: "mm_38"
  layer_param{
    attr_0: [128, 1, 4096]
    shape: [128, 1, 4096]
    dtype: "TensorDType.Float16"
  }
}

layer{
  type: "AddOp"
  top: "add_51"
  bottom: "add_49"
  bottom: "_unsafe_view_38"
  layer_param{
    shape: [128, 1, 4096]
    dtype: "TensorDType.Float16"
  }
}

layer{
  type: "ViewOp"
  top: "view_144"
  bottom: "fuse_ln_mul_68"
  layer_param{
    attr_0: [128, 4096]
    shape: [128, 4096]
    dtype: "TensorDType.Float16"
  }
}

layer{
  type: "TransposeOp"
  top: "t_52"
  bottom: "arg94_1"
  layer_param{
    shape: [4096, 4608]
    dtype: "TensorDType.Float16"
  }
}

layer{
  type: "AddMMOp"
  top: "addmm_13"
  bottom: "arg95_1"
  bottom: "view_144"
  bottom: "t_52"
  layer_param{
    shape: [128, 4608]
    dtype: "TensorDType.Float16"
  }
}

layer{
  type: "ViewOp"
  top: "view_145"
  bottom: "addmm_13"
  layer_param{
    attr_0: [128, 1, 4608]
    shape: [128, 1, 4608]
    dtype: "TensorDType.Float16"
  }
}

layer{
  type: "SplitWithSizeOp"
  top: "split_with_sizes_13"
  bottom: "view_145"
  layer_param{
    attr_0: [4096, 256, 256]
    attr_1: -1
    shape{
      output_0: [128, 1, 4096]
      output_1: [128, 1, 256]
      output_2: [128, 1, 256]
    }
  }
}

layer{
  type: "GetItemOp"
  top: "getitem_91"
  bottom: "split_with_sizes_13"
  layer_param{
    attr_0: 0
    shape: [128, 1, 4096]
    dtype: "TensorDType.Float16"
  }
}

layer{
  type: "GetItemOp"
  top: "getitem_92"
  bottom: "split_with_sizes_13"
  layer_param{
    attr_0: 1
    shape: [128, 1, 256]
    dtype: "TensorDType.Float16"
  }
}

layer{
  type: "GetItemOp"
  top: "getitem_93"
  bottom: "split_with_sizes_13"
  layer_param{
    attr_0: 2
    shape: [128, 1, 256]
    dtype: "TensorDType.Float16"
  }
}

layer{
  type: "ViewOp"
  top: "view_146"
  bottom: "getitem_91"
  layer_param{
    attr_0: [128, 1, 32, 128]
    shape: [128, 1, 32, 128]
    dtype: "TensorDType.Float16"
  }
}

layer{
  type: "ViewOp"
  top: "view_147"
  bottom: "getitem_92"
  layer_param{
    attr_0: [128, 1, 2, 128]
    shape: [128, 1, 2, 128]
    dtype: "TensorDType.Float16"
  }
}

layer{
  type: "ViewOp"
  top: "view_148"
  bottom: "getitem_93"
  layer_param{
    attr_0: [128, 1, 2, 128]
    shape: [128, 1, 2, 128]
    dtype: "TensorDType.Float16"
  }
}

layer{
  type: "RotaryPosEmbOp"
  top: "rotary_pos_emb_26"
  bottom: "view_146"
  bottom: "transpose_1"
  layer_param{
    shape: [128, 1, 32, 128]
    dtype: "TensorDType.Float16"
  }
}

layer{
  type: "RotaryPosEmbOp"
  top: "rotary_pos_emb_27"
  bottom: "view_147"
  bottom: "transpose_1"
  layer_param{
    shape: [128, 1, 2, 128]
    dtype: "TensorDType.Float16"
  }
}

layer{
  type: "UnsqueezeOp"
  top: "unsqueeze_27"
  bottom: "rotary_pos_emb_27"
  layer_param{
    attr_0: -2
    shape: [128, 1, 2, 1, 128]
    dtype: "TensorDType.Float16"
  }
}

layer{
  type: "ExpandOp"
  top: "expand_26"
  bottom: "unsqueeze_27"
  layer_param{
    attr_0: [-1, -1, -1, 16, -1]
    shape: [128, 1, 2, 16, 128]
    dtype: "TensorDType.Float16"
  }
}

layer{
  type: "ViewOp"
  top: "view_149"
  bottom: "expand_26"
  layer_param{
    attr_0: [128, 1, 32, 128]
    shape: [128, 1, 32, 128]
    dtype: "TensorDType.Float16"
  }
}

layer{
  type: "UnsqueezeOp"
  top: "unsqueeze_28"
  bottom: "view_148"
  layer_param{
    attr_0: -2
    shape: [128, 1, 2, 1, 128]
    dtype: "TensorDType.Float16"
  }
}

layer{
  type: "ExpandOp"
  top: "expand_27"
  bottom: "unsqueeze_28"
  layer_param{
    attr_0: [-1, -1, -1, 16, -1]
    shape: [128, 1, 2, 16, 128]
    dtype: "TensorDType.Float16"
  }
}

layer{
  type: "ViewOp"
  top: "view_150"
  bottom: "expand_27"
  layer_param{
    attr_0: [128, 1, 32, 128]
    shape: [128, 1, 32, 128]
    dtype: "TensorDType.Float16"
  }
}

layer{
  type: "PermuteOp"
  top: "permute_52"
  bottom: "rotary_pos_emb_26"
  layer_param{
    attr_0: [1, 2, 0, 3]
    shape: [1, 32, 128, 128]
    dtype: "TensorDType.Float16"
  }
}

layer{
  type: "PermuteOp"
  top: "permute_53"
  bottom: "view_149"
  layer_param{
    attr_0: [1, 2, 0, 3]
    shape: [1, 32, 128, 128]
    dtype: "TensorDType.Float16"
  }
}

layer{
  type: "PermuteOp"
  top: "permute_54"
  bottom: "view_150"
  layer_param{
    attr_0: [1, 2, 0, 3]
    shape: [1, 32, 128, 128]
    dtype: "TensorDType.Float16"
  }
}

layer{
  type: "ScaledDotProductFlashAttentionForCpuOp"
  top: "_scaled_dot_product_flash_attention_for_cpu_13"
  bottom: "permute_52"
  bottom: "permute_53"
  bottom: "permute_54"
  layer_param{
    attr_0: 0.0
    attr_1: True
    shape{
      output_0: [1, 32, 128, 128]
      output_1: [1, 32, 128]
    }
  }
}

layer{
  type: "GetItemOp"
  top: "getitem_94"
  bottom: "_scaled_dot_product_flash_attention_for_cpu_13"
  layer_param{
    attr_0: 0
    shape: [1, 32, 128, 128]
    dtype: "TensorDType.Float16"
  }
}

layer{
  type: "PermuteOp"
  top: "permute_55"
  bottom: "getitem_94"
  layer_param{
    attr_0: [2, 0, 1, 3]
    shape: [128, 1, 32, 128]
    dtype: "TensorDType.Float16"
  }
}

layer{
  type: "ViewOp"
  top: "view_151"
  bottom: "permute_55"
  layer_param{
    attr_0: [128, 1, 4096]
    shape: [128, 1, 4096]
    dtype: "TensorDType.Float16"
  }
}

layer{
  type: "TransposeOp"
  top: "t_53"
  bottom: "arg96_1"
  layer_param{
    shape: [4096, 4096]
    dtype: "TensorDType.Float16"
  }
}

layer{
  type: "ViewOp"
  top: "view_152"
  bottom: "view_151"
  layer_param{
    attr_0: [128, 4096]
    shape: [128, 4096]
    dtype: "TensorDType.Float16"
  }
}

layer{
  type: "MatmulOp"
  top: "mm_39"
  bottom: "view_152"
  bottom: "t_53"
  layer_param{
    shape: [128, 4096]
    dtype: "TensorDType.Float16"
  }
}

layer{
  type: "ViewOp"
  top: "_unsafe_view_39"
  bottom: "mm_39"
  layer_param{
    attr_0: [128, 1, 4096]
    shape: [128, 1, 4096]
    dtype: "TensorDType.Float16"
  }
}

layer{
  type: "AddOp"
  top: "add_53"
  bottom: "add_51"
  bottom: "_unsafe_view_39"
  layer_param{
    shape: [128, 1, 4096]
    dtype: "TensorDType.Float16"
  }
}

layer{
  type: "TransposeOp"
  top: "t_54"
  bottom: "arg98_1"
  layer_param{
    shape: [4096, 27392]
    dtype: "TensorDType.Float16"
  }
}

layer{
  type: "ViewOp"
  top: "view_153"
  bottom: "fuse_ln_mul_70"
  layer_param{
    attr_0: [128, 4096]
    shape: [128, 4096]
    dtype: "TensorDType.Float16"
  }
}

layer{
  type: "MatmulOp"
  top: "mm_40"
  bottom: "view_153"
  bottom: "t_54"
  layer_param{
    shape: [128, 27392]
    dtype: "TensorDType.Float16"
  }
}

layer{
  type: "ViewOp"
  top: "_unsafe_view_40"
  bottom: "mm_40"
  layer_param{
    attr_0: [128, 1, 27392]
    shape: [128, 1, 27392]
    dtype: "TensorDType.Float16"
  }
}

layer{
  type: "SplitOp"
  top: "split_13"
  bottom: "_unsafe_view_40"
  layer_param{
    attr_0: 13696
    attr_1: -1
    shape{
      output_0: [128, 1, 13696]
      output_1: [128, 1, 13696]
    }
  }
}

layer{
  type: "GetItemOp"
  top: "getitem_96"
  bottom: "split_13"
  layer_param{
    attr_0: 0
    shape: [128, 1, 13696]
    dtype: "TensorDType.Float16"
  }
}

layer{
  type: "GetItemOp"
  top: "getitem_97"
  bottom: "split_13"
  layer_param{
    attr_0: 1
    shape: [128, 1, 13696]
    dtype: "TensorDType.Float16"
  }
}

layer{
  type: "SiluOp"
  top: "silu_13"
  bottom: "getitem_96"
  layer_param{
    shape: [128, 1, 13696]
    dtype: "TensorDType.Float16"
  }
}

layer{
  type: "MulOp"
  top: "mul_71"
  bottom: "silu_13"
  bottom: "getitem_97"
  layer_param{
    shape: [128, 1, 13696]
    dtype: "TensorDType.Float16"
  }
}

layer{
  type: "TransposeOp"
  top: "t_55"
  bottom: "arg99_1"
  layer_param{
    shape: [13696, 4096]
    dtype: "TensorDType.Float16"
  }
}

layer{
  type: "ViewOp"
  top: "view_154"
  bottom: "mul_71"
  layer_param{
    attr_0: [128, 13696]
    shape: [128, 13696]
    dtype: "TensorDType.Float16"
  }
}

layer{
  type: "MatmulOp"
  top: "mm_41"
  bottom: "view_154"
  bottom: "t_55"
  layer_param{
    shape: [128, 4096]
    dtype: "TensorDType.Float16"
  }
}

layer{
  type: "ViewOp"
  top: "_unsafe_view_41"
  bottom: "mm_41"
  layer_param{
    attr_0: [128, 1, 4096]
    shape: [128, 1, 4096]
    dtype: "TensorDType.Float16"
  }
}

layer{
  type: "AddOp"
  top: "add_55"
  bottom: "add_53"
  bottom: "_unsafe_view_41"
  layer_param{
    shape: [128, 1, 4096]
    dtype: "TensorDType.Float16"
  }
}

layer{
  type: "ViewOp"
  top: "view_155"
  bottom: "fuse_ln_mul_73"
  layer_param{
    attr_0: [128, 4096]
    shape: [128, 4096]
    dtype: "TensorDType.Float16"
  }
}

layer{
  type: "TransposeOp"
  top: "t_56"
  bottom: "arg101_1"
  layer_param{
    shape: [4096, 4608]
    dtype: "TensorDType.Float16"
  }
}

layer{
  type: "AddMMOp"
  top: "addmm_14"
  bottom: "arg102_1"
  bottom: "view_155"
  bottom: "t_56"
  layer_param{
    shape: [128, 4608]
    dtype: "TensorDType.Float16"
  }
}

layer{
  type: "ViewOp"
  top: "view_156"
  bottom: "addmm_14"
  layer_param{
    attr_0: [128, 1, 4608]
    shape: [128, 1, 4608]
    dtype: "TensorDType.Float16"
  }
}

layer{
  type: "SplitWithSizeOp"
  top: "split_with_sizes_14"
  bottom: "view_156"
  layer_param{
    attr_0: [4096, 256, 256]
    attr_1: -1
    shape{
      output_0: [128, 1, 4096]
      output_1: [128, 1, 256]
      output_2: [128, 1, 256]
    }
  }
}

layer{
  type: "GetItemOp"
  top: "getitem_98"
  bottom: "split_with_sizes_14"
  layer_param{
    attr_0: 0
    shape: [128, 1, 4096]
    dtype: "TensorDType.Float16"
  }
}

layer{
  type: "GetItemOp"
  top: "getitem_99"
  bottom: "split_with_sizes_14"
  layer_param{
    attr_0: 1
    shape: [128, 1, 256]
    dtype: "TensorDType.Float16"
  }
}

layer{
  type: "GetItemOp"
  top: "getitem_100"
  bottom: "split_with_sizes_14"
  layer_param{
    attr_0: 2
    shape: [128, 1, 256]
    dtype: "TensorDType.Float16"
  }
}

layer{
  type: "ViewOp"
  top: "view_157"
  bottom: "getitem_98"
  layer_param{
    attr_0: [128, 1, 32, 128]
    shape: [128, 1, 32, 128]
    dtype: "TensorDType.Float16"
  }
}

layer{
  type: "ViewOp"
  top: "view_158"
  bottom: "getitem_99"
  layer_param{
    attr_0: [128, 1, 2, 128]
    shape: [128, 1, 2, 128]
    dtype: "TensorDType.Float16"
  }
}

layer{
  type: "ViewOp"
  top: "view_159"
  bottom: "getitem_100"
  layer_param{
    attr_0: [128, 1, 2, 128]
    shape: [128, 1, 2, 128]
    dtype: "TensorDType.Float16"
  }
}

layer{
  type: "RotaryPosEmbOp"
  top: "rotary_pos_emb_28"
  bottom: "view_157"
  bottom: "transpose_1"
  layer_param{
    shape: [128, 1, 32, 128]
    dtype: "TensorDType.Float16"
  }
}

layer{
  type: "RotaryPosEmbOp"
  top: "rotary_pos_emb_29"
  bottom: "view_158"
  bottom: "transpose_1"
  layer_param{
    shape: [128, 1, 2, 128]
    dtype: "TensorDType.Float16"
  }
}

layer{
  type: "UnsqueezeOp"
  top: "unsqueeze_29"
  bottom: "rotary_pos_emb_29"
  layer_param{
    attr_0: -2
    shape: [128, 1, 2, 1, 128]
    dtype: "TensorDType.Float16"
  }
}

layer{
  type: "ExpandOp"
  top: "expand_28"
  bottom: "unsqueeze_29"
  layer_param{
    attr_0: [-1, -1, -1, 16, -1]
    shape: [128, 1, 2, 16, 128]
    dtype: "TensorDType.Float16"
  }
}

layer{
  type: "ViewOp"
  top: "view_160"
  bottom: "expand_28"
  layer_param{
    attr_0: [128, 1, 32, 128]
    shape: [128, 1, 32, 128]
    dtype: "TensorDType.Float16"
  }
}

layer{
  type: "UnsqueezeOp"
  top: "unsqueeze_30"
  bottom: "view_159"
  layer_param{
    attr_0: -2
    shape: [128, 1, 2, 1, 128]
    dtype: "TensorDType.Float16"
  }
}

layer{
  type: "ExpandOp"
  top: "expand_29"
  bottom: "unsqueeze_30"
  layer_param{
    attr_0: [-1, -1, -1, 16, -1]
    shape: [128, 1, 2, 16, 128]
    dtype: "TensorDType.Float16"
  }
}

layer{
  type: "ViewOp"
  top: "view_161"
  bottom: "expand_29"
  layer_param{
    attr_0: [128, 1, 32, 128]
    shape: [128, 1, 32, 128]
    dtype: "TensorDType.Float16"
  }
}

layer{
  type: "PermuteOp"
  top: "permute_56"
  bottom: "rotary_pos_emb_28"
  layer_param{
    attr_0: [1, 2, 0, 3]
    shape: [1, 32, 128, 128]
    dtype: "TensorDType.Float16"
  }
}

layer{
  type: "PermuteOp"
  top: "permute_57"
  bottom: "view_160"
  layer_param{
    attr_0: [1, 2, 0, 3]
    shape: [1, 32, 128, 128]
    dtype: "TensorDType.Float16"
  }
}

layer{
  type: "PermuteOp"
  top: "permute_58"
  bottom: "view_161"
  layer_param{
    attr_0: [1, 2, 0, 3]
    shape: [1, 32, 128, 128]
    dtype: "TensorDType.Float16"
  }
}

layer{
  type: "ScaledDotProductFlashAttentionForCpuOp"
  top: "_scaled_dot_product_flash_attention_for_cpu_14"
  bottom: "permute_56"
  bottom: "permute_57"
  bottom: "permute_58"
  layer_param{
    attr_0: 0.0
    attr_1: True
    shape{
      output_0: [1, 32, 128, 128]
      output_1: [1, 32, 128]
    }
  }
}

layer{
  type: "GetItemOp"
  top: "getitem_101"
  bottom: "_scaled_dot_product_flash_attention_for_cpu_14"
  layer_param{
    attr_0: 0
    shape: [1, 32, 128, 128]
    dtype: "TensorDType.Float16"
  }
}

layer{
  type: "PermuteOp"
  top: "permute_59"
  bottom: "getitem_101"
  layer_param{
    attr_0: [2, 0, 1, 3]
    shape: [128, 1, 32, 128]
    dtype: "TensorDType.Float16"
  }
}

layer{
  type: "ViewOp"
  top: "view_162"
  bottom: "permute_59"
  layer_param{
    attr_0: [128, 1, 4096]
    shape: [128, 1, 4096]
    dtype: "TensorDType.Float16"
  }
}

layer{
  type: "TransposeOp"
  top: "t_57"
  bottom: "arg103_1"
  layer_param{
    shape: [4096, 4096]
    dtype: "TensorDType.Float16"
  }
}

layer{
  type: "ViewOp"
  top: "view_163"
  bottom: "view_162"
  layer_param{
    attr_0: [128, 4096]
    shape: [128, 4096]
    dtype: "TensorDType.Float16"
  }
}

layer{
  type: "MatmulOp"
  top: "mm_42"
  bottom: "view_163"
  bottom: "t_57"
  layer_param{
    shape: [128, 4096]
    dtype: "TensorDType.Float16"
  }
}

layer{
  type: "ViewOp"
  top: "_unsafe_view_42"
  bottom: "mm_42"
  layer_param{
    attr_0: [128, 1, 4096]
    shape: [128, 1, 4096]
    dtype: "TensorDType.Float16"
  }
}

layer{
  type: "AddOp"
  top: "add_57"
  bottom: "add_55"
  bottom: "_unsafe_view_42"
  layer_param{
    shape: [128, 1, 4096]
    dtype: "TensorDType.Float16"
  }
}

layer{
  type: "TransposeOp"
  top: "t_58"
  bottom: "arg105_1"
  layer_param{
    shape: [4096, 27392]
    dtype: "TensorDType.Float16"
  }
}

layer{
  type: "ViewOp"
  top: "view_164"
  bottom: "fuse_ln_mul_75"
  layer_param{
    attr_0: [128, 4096]
    shape: [128, 4096]
    dtype: "TensorDType.Float16"
  }
}

layer{
  type: "MatmulOp"
  top: "mm_43"
  bottom: "view_164"
  bottom: "t_58"
  layer_param{
    shape: [128, 27392]
    dtype: "TensorDType.Float16"
  }
}

layer{
  type: "ViewOp"
  top: "_unsafe_view_43"
  bottom: "mm_43"
  layer_param{
    attr_0: [128, 1, 27392]
    shape: [128, 1, 27392]
    dtype: "TensorDType.Float16"
  }
}

layer{
  type: "SplitOp"
  top: "split_14"
  bottom: "_unsafe_view_43"
  layer_param{
    attr_0: 13696
    attr_1: -1
    shape{
      output_0: [128, 1, 13696]
      output_1: [128, 1, 13696]
    }
  }
}

layer{
  type: "GetItemOp"
  top: "getitem_103"
  bottom: "split_14"
  layer_param{
    attr_0: 0
    shape: [128, 1, 13696]
    dtype: "TensorDType.Float16"
  }
}

layer{
  type: "GetItemOp"
  top: "getitem_104"
  bottom: "split_14"
  layer_param{
    attr_0: 1
    shape: [128, 1, 13696]
    dtype: "TensorDType.Float16"
  }
}

layer{
  type: "SiluOp"
  top: "silu_14"
  bottom: "getitem_103"
  layer_param{
    shape: [128, 1, 13696]
    dtype: "TensorDType.Float16"
  }
}

layer{
  type: "MulOp"
  top: "mul_76"
  bottom: "silu_14"
  bottom: "getitem_104"
  layer_param{
    shape: [128, 1, 13696]
    dtype: "TensorDType.Float16"
  }
}

layer{
  type: "TransposeOp"
  top: "t_59"
  bottom: "arg106_1"
  layer_param{
    shape: [13696, 4096]
    dtype: "TensorDType.Float16"
  }
}

layer{
  type: "ViewOp"
  top: "view_165"
  bottom: "mul_76"
  layer_param{
    attr_0: [128, 13696]
    shape: [128, 13696]
    dtype: "TensorDType.Float16"
  }
}

layer{
  type: "MatmulOp"
  top: "mm_44"
  bottom: "view_165"
  bottom: "t_59"
  layer_param{
    shape: [128, 4096]
    dtype: "TensorDType.Float16"
  }
}

layer{
  type: "ViewOp"
  top: "_unsafe_view_44"
  bottom: "mm_44"
  layer_param{
    attr_0: [128, 1, 4096]
    shape: [128, 1, 4096]
    dtype: "TensorDType.Float16"
  }
}

layer{
  type: "AddOp"
  top: "add_59"
  bottom: "add_57"
  bottom: "_unsafe_view_44"
  layer_param{
    shape: [128, 1, 4096]
    dtype: "TensorDType.Float16"
  }
}

layer{
  type: "ViewOp"
  top: "view_166"
  bottom: "fuse_ln_mul_78"
  layer_param{
    attr_0: [128, 4096]
    shape: [128, 4096]
    dtype: "TensorDType.Float16"
  }
}

layer{
  type: "TransposeOp"
  top: "t_60"
  bottom: "arg108_1"
  layer_param{
    shape: [4096, 4608]
    dtype: "TensorDType.Float16"
  }
}

layer{
  type: "AddMMOp"
  top: "addmm_15"
  bottom: "arg109_1"
  bottom: "view_166"
  bottom: "t_60"
  layer_param{
    shape: [128, 4608]
    dtype: "TensorDType.Float16"
  }
}

layer{
  type: "ViewOp"
  top: "view_167"
  bottom: "addmm_15"
  layer_param{
    attr_0: [128, 1, 4608]
    shape: [128, 1, 4608]
    dtype: "TensorDType.Float16"
  }
}

layer{
  type: "SplitWithSizeOp"
  top: "split_with_sizes_15"
  bottom: "view_167"
  layer_param{
    attr_0: [4096, 256, 256]
    attr_1: -1
    shape{
      output_0: [128, 1, 4096]
      output_1: [128, 1, 256]
      output_2: [128, 1, 256]
    }
  }
}

layer{
  type: "GetItemOp"
  top: "getitem_105"
  bottom: "split_with_sizes_15"
  layer_param{
    attr_0: 0
    shape: [128, 1, 4096]
    dtype: "TensorDType.Float16"
  }
}

layer{
  type: "GetItemOp"
  top: "getitem_106"
  bottom: "split_with_sizes_15"
  layer_param{
    attr_0: 1
    shape: [128, 1, 256]
    dtype: "TensorDType.Float16"
  }
}

layer{
  type: "GetItemOp"
  top: "getitem_107"
  bottom: "split_with_sizes_15"
  layer_param{
    attr_0: 2
    shape: [128, 1, 256]
    dtype: "TensorDType.Float16"
  }
}

layer{
  type: "ViewOp"
  top: "view_168"
  bottom: "getitem_105"
  layer_param{
    attr_0: [128, 1, 32, 128]
    shape: [128, 1, 32, 128]
    dtype: "TensorDType.Float16"
  }
}

layer{
  type: "ViewOp"
  top: "view_169"
  bottom: "getitem_106"
  layer_param{
    attr_0: [128, 1, 2, 128]
    shape: [128, 1, 2, 128]
    dtype: "TensorDType.Float16"
  }
}

layer{
  type: "ViewOp"
  top: "view_170"
  bottom: "getitem_107"
  layer_param{
    attr_0: [128, 1, 2, 128]
    shape: [128, 1, 2, 128]
    dtype: "TensorDType.Float16"
  }
}

layer{
  type: "RotaryPosEmbOp"
  top: "rotary_pos_emb_30"
  bottom: "view_168"
  bottom: "transpose_1"
  layer_param{
    shape: [128, 1, 32, 128]
    dtype: "TensorDType.Float16"
  }
}

layer{
  type: "RotaryPosEmbOp"
  top: "rotary_pos_emb_31"
  bottom: "view_169"
  bottom: "transpose_1"
  layer_param{
    shape: [128, 1, 2, 128]
    dtype: "TensorDType.Float16"
  }
}

layer{
  type: "UnsqueezeOp"
  top: "unsqueeze_31"
  bottom: "rotary_pos_emb_31"
  layer_param{
    attr_0: -2
    shape: [128, 1, 2, 1, 128]
    dtype: "TensorDType.Float16"
  }
}

layer{
  type: "ExpandOp"
  top: "expand_30"
  bottom: "unsqueeze_31"
  layer_param{
    attr_0: [-1, -1, -1, 16, -1]
    shape: [128, 1, 2, 16, 128]
    dtype: "TensorDType.Float16"
  }
}

layer{
  type: "ViewOp"
  top: "view_171"
  bottom: "expand_30"
  layer_param{
    attr_0: [128, 1, 32, 128]
    shape: [128, 1, 32, 128]
    dtype: "TensorDType.Float16"
  }
}

layer{
  type: "UnsqueezeOp"
  top: "unsqueeze_32"
  bottom: "view_170"
  layer_param{
    attr_0: -2
    shape: [128, 1, 2, 1, 128]
    dtype: "TensorDType.Float16"
  }
}

layer{
  type: "ExpandOp"
  top: "expand_31"
  bottom: "unsqueeze_32"
  layer_param{
    attr_0: [-1, -1, -1, 16, -1]
    shape: [128, 1, 2, 16, 128]
    dtype: "TensorDType.Float16"
  }
}

layer{
  type: "ViewOp"
  top: "view_172"
  bottom: "expand_31"
  layer_param{
    attr_0: [128, 1, 32, 128]
    shape: [128, 1, 32, 128]
    dtype: "TensorDType.Float16"
  }
}

layer{
  type: "PermuteOp"
  top: "permute_60"
  bottom: "rotary_pos_emb_30"
  layer_param{
    attr_0: [1, 2, 0, 3]
    shape: [1, 32, 128, 128]
    dtype: "TensorDType.Float16"
  }
}

layer{
  type: "PermuteOp"
…
    attr_0: 13696
    attr_1: -1
    shape{
      output_0: [128, 1, 13696]
      output_1: [128, 1, 13696]
    }
  }
}

layer{
  type: "GetItemOp"
  top: "getitem_159"
  bottom: "split_22"
  layer_param{
    attr_0: 0
    shape: [128, 1, 13696]
    dtype: "TensorDType.Float16"
  }
}

layer{
  type: "GetItemOp"
  top: "getitem_160"
  bottom: "split_22"
  layer_param{
    attr_0: 1
    shape: [128, 1, 13696]
    dtype: "TensorDType.Float16"
  }
}

layer{
  type: "SiluOp"
  top: "silu_22"
  bottom: "getitem_159"
  layer_param{
    shape: [128, 1, 13696]
    dtype: "TensorDType.Float16"
  }
}

layer{
  type: "MulOp"
  top: "mul_116"
  bottom: "silu_22"
  bottom: "getitem_160"
  layer_param{
    shape: [128, 1, 13696]
    dtype: "TensorDType.Float16"
  }
}

layer{
  type: "TransposeOp"
  top: "t_91"
  bottom: "arg162_1"
  layer_param{
    shape: [13696, 4096]
    dtype: "TensorDType.Float16"
  }
}

layer{
  type: "ViewOp"
  top: "view_253"
  bottom: "mul_116"
  layer_param{
    attr_0: [128, 13696]
    shape: [128, 13696]
    dtype: "TensorDType.Float16"
  }
}

layer{
  type: "MatmulOp"
  top: "mm_68"
  bottom: "view_253"
  bottom: "t_91"
  layer_param{
    shape: [128, 4096]
    dtype: "TensorDType.Float16"
  }
}

layer{
  type: "ViewOp"
  top: "_unsafe_view_68"
  bottom: "mm_68"
  layer_param{
    attr_0: [128, 1, 4096]
    shape: [128, 1, 4096]
    dtype: "TensorDType.Float16"
  }
}

layer{
  type: "AddOp"
  top: "add_91"
  bottom: "add_89"
  bottom: "_unsafe_view_68"
  layer_param{
    shape: [128, 1, 4096]
    dtype: "TensorDType.Float16"
  }
}

layer{
  type: "ViewOp"
  top: "view_254"
  bottom: "fuse_ln_mul_118"
  layer_param{
    attr_0: [128, 4096]
    shape: [128, 4096]
    dtype: "TensorDType.Float16"
  }
}

layer{
  type: "TransposeOp"
  top: "t_92"
  bottom: "arg164_1"
  layer_param{
    shape: [4096, 4608]
    dtype: "TensorDType.Float16"
  }
}

layer{
  type: "AddMMOp"
  top: "addmm_23"
  bottom: "arg165_1"
  bottom: "view_254"
  bottom: "t_92"
  layer_param{
    shape: [128, 4608]
    dtype: "TensorDType.Float16"
  }
}

layer{
  type: "ViewOp"
  top: "view_255"
  bottom: "addmm_23"
  layer_param{
    attr_0: [128, 1, 4608]
    shape: [128, 1, 4608]
    dtype: "TensorDType.Float16"
  }
}

layer{
  type: "SplitWithSizeOp"
  top: "split_with_sizes_23"
  bottom: "view_255"
  layer_param{
    attr_0: [4096, 256, 256]
    attr_1: -1
    shape{
      output_0: [128, 1, 4096]
      output_1: [128, 1, 256]
      output_2: [128, 1, 256]
    }
  }
}

layer{
  type: "GetItemOp"
  top: "getitem_161"
  bottom: "split_with_sizes_23"
  layer_param{
    attr_0: 0
    shape: [128, 1, 4096]
    dtype: "TensorDType.Float16"
  }
}

layer{
  type: "GetItemOp"
  top: "getitem_162"
  bottom: "split_with_sizes_23"
  layer_param{
    attr_0: 1
    shape: [128, 1, 256]
    dtype: "TensorDType.Float16"
  }
}

layer{
  type: "GetItemOp"
  top: "getitem_163"
  bottom: "split_with_sizes_23"
  layer_param{
    attr_0: 2
    shape: [128, 1, 256]
    dtype: "TensorDType.Float16"
  }
}

layer{
  type: "ViewOp"
  top: "view_256"
  bottom: "getitem_161"
  layer_param{
    attr_0: [128, 1, 32, 128]
    shape: [128, 1, 32, 128]
    dtype: "TensorDType.Float16"
  }
}

layer{
  type: "ViewOp"
  top: "view_257"
  bottom: "getitem_162"
  layer_param{
    attr_0: [128, 1, 2, 128]
    shape: [128, 1, 2, 128]
    dtype: "TensorDType.Float16"
  }
}

layer{
  type: "ViewOp"
  top: "view_258"
  bottom: "getitem_163"
  layer_param{
    attr_0: [128, 1, 2, 128]
    shape: [128, 1, 2, 128]
    dtype: "TensorDType.Float16"
  }
}

layer{
  type: "RotaryPosEmbOp"
  top: "rotary_pos_emb_46"
  bottom: "view_256"
  bottom: "transpose_1"
  layer_param{
    shape: [128, 1, 32, 128]
    dtype: "TensorDType.Float16"
  }
}

layer{
  type: "RotaryPosEmbOp"
  top: "rotary_pos_emb_47"
  bottom: "view_257"
  bottom: "transpose_1"
  layer_param{
    shape: [128, 1, 2, 128]
    dtype: "TensorDType.Float16"
  }
}

layer{
  type: "UnsqueezeOp"
  top: "unsqueeze_47"
  bottom: "rotary_pos_emb_47"
  layer_param{
    attr_0: -2
    shape: [128, 1, 2, 1, 128]
    dtype: "TensorDType.Float16"
  }
}

layer{
  type: "ExpandOp"
  top: "expand_46"
  bottom: "unsqueeze_47"
  layer_param{
    attr_0: [-1, -1, -1, 16, -1]
    shape: [128, 1, 2, 16, 128]
    dtype: "TensorDType.Float16"
  }
}

layer{
  type: "ViewOp"
  top: "view_259"
  bottom: "expand_46"
  layer_param{
    attr_0: [128, 1, 32, 128]
    shape: [128, 1, 32, 128]
    dtype: "TensorDType.Float16"
  }
}

layer{
  type: "UnsqueezeOp"
  top: "unsqueeze_48"
  bottom: "view_258"
  layer_param{
    attr_0: -2
    shape: [128, 1, 2, 1, 128]
    dtype: "TensorDType.Float16"
  }
}

layer{
  type: "ExpandOp"
  top: "expand_47"
  bottom: "unsqueeze_48"
  layer_param{
    attr_0: [-1, -1, -1, 16, -1]
    shape: [128, 1, 2, 16, 128]
    dtype: "TensorDType.Float16"
  }
}

layer{
  type: "ViewOp"
  top: "view_260"
  bottom: "expand_47"
  layer_param{
    attr_0: [128, 1, 32, 128]
    shape: [128, 1, 32, 128]
    dtype: "TensorDType.Float16"
  }
}

layer{
  type: "PermuteOp"
  top: "permute_92"
  bottom: "rotary_pos_emb_46"
  layer_param{
    attr_0: [1, 2, 0, 3]
    shape: [1, 32, 128, 128]
    dtype: "TensorDType.Float16"
  }
}

layer{
  type: "PermuteOp"
  top: "permute_93"
  bottom: "view_259"
  layer_param{
    attr_0: [1, 2, 0, 3]
    shape: [1, 32, 128, 128]
    dtype: "TensorDType.Float16"
  }
}

layer{
  type: "PermuteOp"
  top: "permute_94"
  bottom: "view_260"
  layer_param{
    attr_0: [1, 2, 0, 3]
    shape: [1, 32, 128, 128]
    dtype: "TensorDType.Float16"
  }
}

layer{
  type: "ScaledDotProductFlashAttentionForCpuOp"
  top: "_scaled_dot_product_flash_attention_for_cpu_23"
  bottom: "permute_92"
  bottom: "permute_93"
  bottom: "permute_94"
  layer_param{
    attr_0: 0.0
    attr_1: True
    shape{
      output_0: [1, 32, 128, 128]
      output_1: [1, 32, 128]
    }
  }
}

layer{
  type: "GetItemOp"
  top: "getitem_164"
  bottom: "_scaled_dot_product_flash_attention_for_cpu_23"
  layer_param{
    attr_0: 0
    shape: [1, 32, 128, 128]
    dtype: "TensorDType.Float16"
  }
}

layer{
  type: "PermuteOp"
  top: "permute_95"
  bottom: "getitem_164"
  layer_param{
    attr_0: [2, 0, 1, 3]
    shape: [128, 1, 32, 128]
    dtype: "TensorDType.Float16"
  }
}

layer{
  type: "ViewOp"
  top: "view_261"
  bottom: "permute_95"
  layer_param{
    attr_0: [128, 1, 4096]
    shape: [128, 1, 4096]
    dtype: "TensorDType.Float16"
  }
}

layer{
  type: "TransposeOp"
  top: "t_93"
  bottom: "arg166_1"
  layer_param{
    shape: [4096, 4096]
    dtype: "TensorDType.Float16"
  }
}

layer{
  type: "ViewOp"
  top: "view_262"
  bottom: "view_261"
  layer_param{
    attr_0: [128, 4096]
    shape: [128, 4096]
    dtype: "TensorDType.Float16"
  }
}

layer{
  type: "MatmulOp"
  top: "mm_69"
  bottom: "view_262"
  bottom: "t_93"
  layer_param{
    shape: [128, 4096]
    dtype: "TensorDType.Float16"
  }
}

layer{
  type: "ViewOp"
  top: "_unsafe_view_69"
  bottom: "mm_69"
  layer_param{
    attr_0: [128, 1, 4096]
    shape: [128, 1, 4096]
    dtype: "TensorDType.Float16"
  }
}

layer{
  type: "AddOp"
  top: "add_93"
  bottom: "add_91"
  bottom: "_unsafe_view_69"
  layer_param{
    shape: [128, 1, 4096]
    dtype: "TensorDType.Float16"
  }
}

layer{
  type: "TransposeOp"
  top: "t_94"
  bottom: "arg168_1"
  layer_param{
    shape: [4096, 27392]
    dtype: "TensorDType.Float16"
  }
}

layer{
  type: "ViewOp"
  top: "view_263"
  bottom: "fuse_ln_mul_120"
  layer_param{
    attr_0: [128, 4096]
    shape: [128, 4096]
    dtype: "TensorDType.Float16"
  }
}

layer{
  type: "MatmulOp"
  top: "mm_70"
  bottom: "view_263"
  bottom: "t_94"
  layer_param{
    shape: [128, 27392]
    dtype: "TensorDType.Float16"
  }
}

layer{
  type: "ViewOp"
  top: "_unsafe_view_70"
  bottom: "mm_70"
  layer_param{
    attr_0: [128, 1, 27392]
    shape: [128, 1, 27392]
    dtype: "TensorDType.Float16"
  }
}

layer{
  type: "SplitOp"
  top: "split_23"
  bottom: "_unsafe_view_70"
  layer_param{
    attr_0: 13696
    attr_1: -1
    shape{
      output_0: [128, 1, 13696]
      output_1: [128, 1, 13696]
    }
  }
}

layer{
  type: "GetItemOp"
  top: "getitem_166"
  bottom: "split_23"
  layer_param{
    attr_0: 0
    shape: [128, 1, 13696]
    dtype: "TensorDType.Float16"
  }
}

layer{
  type: "GetItemOp"
  top: "getitem_167"
  bottom: "split_23"
  layer_param{
    attr_0: 1
    shape: [128, 1, 13696]
    dtype: "TensorDType.Float16"
  }
}

layer{
  type: "SiluOp"
  top: "silu_23"
  bottom: "getitem_166"
  layer_param{
    shape: [128, 1, 13696]
    dtype: "TensorDType.Float16"
  }
}

layer{
  type: "MulOp"
  top: "mul_121"
  bottom: "silu_23"
  bottom: "getitem_167"
  layer_param{
    shape: [128, 1, 13696]
    dtype: "TensorDType.Float16"
  }
}

layer{
  type: "TransposeOp"
  top: "t_95"
  bottom: "arg169_1"
  layer_param{
    shape: [13696, 4096]
    dtype: "TensorDType.Float16"
  }
}

layer{
  type: "ViewOp"
  top: "view_264"
  bottom: "mul_121"
  layer_param{
    attr_0: [128, 13696]
    shape: [128, 13696]
    dtype: "TensorDType.Float16"
  }
}

layer{
  type: "MatmulOp"
  top: "mm_71"
  bottom: "view_264"
  bottom: "t_95"
  layer_param{
    shape: [128, 4096]
    dtype: "TensorDType.Float16"
  }
}

layer{
  type: "ViewOp"
  top: "_unsafe_view_71"
  bottom: "mm_71"
  layer_param{
    attr_0: [128, 1, 4096]
    shape: [128, 1, 4096]
    dtype: "TensorDType.Float16"
  }
}

layer{
  type: "AddOp"
  top: "add_95"
  bottom: "add_93"
  bottom: "_unsafe_view_71"
  layer_param{
    shape: [128, 1, 4096]
    dtype: "TensorDType.Float16"
  }
}

layer{
  type: "ViewOp"
  top: "view_265"
  bottom: "fuse_ln_mul_123"
  layer_param{
    attr_0: [128, 4096]
    shape: [128, 4096]
    dtype: "TensorDType.Float16"
  }
}

layer{
  type: "TransposeOp"
  top: "t_96"
  bottom: "arg171_1"
  layer_param{
    shape: [4096, 4608]
    dtype: "TensorDType.Float16"
  }
}

layer{
  type: "AddMMOp"
  top: "addmm_24"
  bottom: "arg172_1"
  bottom: "view_265"
  bottom: "t_96"
  layer_param{
    shape: [128, 4608]
    dtype: "TensorDType.Float16"
  }
}

layer{
  type: "ViewOp"
  top: "view_266"
  bottom: "addmm_24"
  layer_param{
    attr_0: [128, 1, 4608]
    shape: [128, 1, 4608]
    dtype: "TensorDType.Float16"
  }
}

layer{
  type: "SplitWithSizeOp"
  top: "split_with_sizes_24"
  bottom: "view_266"
  layer_param{
    attr_0: [4096, 256, 256]
    attr_1: -1
    shape{
      output_0: [128, 1, 4096]
      output_1: [128, 1, 256]
      output_2: [128, 1, 256]
    }
  }
}

layer{
  type: "GetItemOp"
  top: "getitem_168"
  bottom: "split_with_sizes_24"
  layer_param{
    attr_0: 0
    shape: [128, 1, 4096]
    dtype: "TensorDType.Float16"
  }
}

layer{
  type: "GetItemOp"
  top: "getitem_169"
  bottom: "split_with_sizes_24"
  layer_param{
    attr_0: 1
    shape: [128, 1, 256]
    dtype: "TensorDType.Float16"
  }
}

layer{
  type: "GetItemOp"
  top: "getitem_170"
  bottom: "split_with_sizes_24"
  layer_param{
    attr_0: 2
    shape: [128, 1, 256]
    dtype: "TensorDType.Float16"
  }
}

layer{
  type: "ViewOp"
  top: "view_267"
  bottom: "getitem_168"
  layer_param{
    attr_0: [128, 1, 32, 128]
    shape: [128, 1, 32, 128]
    dtype: "TensorDType.Float16"
  }
}

layer{
  type: "ViewOp"
  top: "view_268"
  bottom: "getitem_169"
  layer_param{
    attr_0: [128, 1, 2, 128]
    shape: [128, 1, 2, 128]
    dtype: "TensorDType.Float16"
  }
}

layer{
  type: "ViewOp"
  top: "view_269"
  bottom: "getitem_170"
  layer_param{
    attr_0: [128, 1, 2, 128]
    shape: [128, 1, 2, 128]
    dtype: "TensorDType.Float16"
  }
}

layer{
  type: "RotaryPosEmbOp"
  top: "rotary_pos_emb_48"
  bottom: "view_267"
  bottom: "transpose_1"
  layer_param{
    shape: [128, 1, 32, 128]
    dtype: "TensorDType.Float16"
  }
}

layer{
  type: "RotaryPosEmbOp"
  top: "rotary_pos_emb_49"
  bottom: "view_268"
  bottom: "transpose_1"
  layer_param{
    shape: [128, 1, 2, 128]
    dtype: "TensorDType.Float16"
  }
}

layer{
  type: "UnsqueezeOp"
  top: "unsqueeze_49"
  bottom: "rotary_pos_emb_49"
  layer_param{
    attr_0: -2
    shape: [128, 1, 2, 1, 128]
    dtype: "TensorDType.Float16"
  }
}

layer{
  type: "ExpandOp"
  top: "expand_48"
  bottom: "unsqueeze_49"
  layer_param{
    attr_0: [-1, -1, -1, 16, -1]
    shape: [128, 1, 2, 16, 128]
    dtype: "TensorDType.Float16"
  }
}

layer{
  type: "ViewOp"
  top: "view_270"
  bottom: "expand_48"
  layer_param{
    attr_0: [128, 1, 32, 128]
    shape: [128, 1, 32, 128]
    dtype: "TensorDType.Float16"
  }
}

layer{
  type: "UnsqueezeOp"
  top: "unsqueeze_50"
  bottom: "view_269"
  layer_param{
    attr_0: -2
    shape: [128, 1, 2, 1, 128]
    dtype: "TensorDType.Float16"
  }
}

layer{
  type: "ExpandOp"
  top: "expand_49"
  bottom: "unsqueeze_50"
  layer_param{
    attr_0: [-1, -1, -1, 16, -1]
    shape: [128, 1, 2, 16, 128]
    dtype: "TensorDType.Float16"
  }
}

layer{
  type: "ViewOp"
  top: "view_271"
  bottom: "expand_49"
  layer_param{
    attr_0: [128, 1, 32, 128]
    shape: [128, 1, 32, 128]
    dtype: "TensorDType.Float16"
  }
}

layer{
  type: "PermuteOp"
  top: "permute_96"
  bottom: "rotary_pos_emb_48"
  layer_param{
    attr_0: [1, 2, 0, 3]
    shape: [1, 32, 128, 128]
    dtype: "TensorDType.Float16"
  }
}

layer{
  type: "PermuteOp"
  top: "permute_97"
  bottom: "view_270"
  layer_param{
    attr_0: [1, 2, 0, 3]
    shape: [1, 32, 128, 128]
    dtype: "TensorDType.Float16"
  }
}

layer{
  type: "PermuteOp"
  top: "permute_98"
  bottom: "view_271"
  layer_param{
    attr_0: [1, 2, 0, 3]
    shape: [1, 32, 128, 128]
    dtype: "TensorDType.Float16"
  }
}

layer{
  type: "ScaledDotProductFlashAttentionForCpuOp"
  top: "_scaled_dot_product_flash_attention_for_cpu_24"
  bottom: "permute_96"
  bottom: "permute_97"
  bottom: "permute_98"
  layer_param{
    attr_0: 0.0
    attr_1: True
    shape{
      output_0: [1, 32, 128, 128]
      output_1: [1, 32, 128]
    }
  }
}

layer{
  type: "GetItemOp"
  top: "getitem_171"
  bottom: "_scaled_dot_product_flash_attention_for_cpu_24"
  layer_param{
    attr_0: 0
    shape: [1, 32, 128, 128]
    dtype: "TensorDType.Float16"
  }
}

layer{
  type: "PermuteOp"
  top: "permute_99"
  bottom: "getitem_171"
  layer_param{
    attr_0: [2, 0, 1, 3]
    shape: [128, 1, 32, 128]
    dtype: "TensorDType.Float16"
  }
}

layer{
  type: "ViewOp"
  top: "view_272"
  bottom: "permute_99"
  layer_param{
    attr_0: [128, 1, 4096]
    shape: [128, 1, 4096]
    dtype: "TensorDType.Float16"
  }
}

layer{
  type: "TransposeOp"
  top: "t_97"
  bottom: "arg173_1"
  layer_param{
    shape: [4096, 4096]
    dtype: "TensorDType.Float16"
  }
}

layer{
  type: "ViewOp"
  top: "view_273"
  bottom: "view_272"
  layer_param{
    attr_0: [128, 4096]
    shape: [128, 4096]
    dtype: "TensorDType.Float16"
  }
}

layer{
  type: "MatmulOp"
  top: "mm_72"
  bottom: "view_273"
  bottom: "t_97"
  layer_param{
    shape: [128, 4096]
    dtype: "TensorDType.Float16"
  }
}

layer{
  type: "ViewOp"
  top: "_unsafe_view_72"
  bottom: "mm_72"
  layer_param{
    attr_0: [128, 1, 4096]
    shape: [128, 1, 4096]
    dtype: "TensorDType.Float16"
  }
}

layer{
  type: "AddOp"
  top: "add_97"
  bottom: "add_95"
  bottom: "_unsafe_view_72"
  layer_param{
    shape: [128, 1, 4096]
    dtype: "TensorDType.Float16"
  }
}

layer{
  type: "TransposeOp"
  top: "t_98"
  bottom: "arg175_1"
  layer_param{
    shape: [4096, 27392]
    dtype: "TensorDType.Float16"
  }
}

layer{
  type: "ViewOp"
  top: "view_274"
  bottom: "fuse_ln_mul_125"
  layer_param{
    attr_0: [128, 4096]
    shape: [128, 4096]
    dtype: "TensorDType.Float16"
  }
}

layer{
  type: "MatmulOp"
  top: "mm_73"
  bottom: "view_274"
  bottom: "t_98"
  layer_param{
    shape: [128, 27392]
    dtype: "TensorDType.Float16"
  }
}

layer{
  type: "ViewOp"
  top: "_unsafe_view_73"
  bottom: "mm_73"
  layer_param{
    attr_0: [128, 1, 27392]
    shape: [128, 1, 27392]
    dtype: "TensorDType.Float16"
  }
}

layer{
  type: "SplitOp"
  top: "split_24"
  bottom: "_unsafe_view_73"
  layer_param{
    attr_0: 13696
    attr_1: -1
    shape{
      output_0: [128, 1, 13696]
      output_1: [128, 1, 13696]
    }
  }
}

layer{
  type: "GetItemOp"
  top: "getitem_173"
  bottom: "split_24"
  layer_param{
    attr_0: 0
    shape: [128, 1, 13696]
    dtype: "TensorDType.Float16"
  }
}

layer{
  type: "GetItemOp"
  top: "getitem_174"
  bottom: "split_24"
  layer_param{
    attr_0: 1
    shape: [128, 1, 13696]
    dtype: "TensorDType.Float16"
  }
}

layer{
  type: "SiluOp"
  top: "silu_24"
  bottom: "getitem_173"
  layer_param{
    shape: [128, 1, 13696]
    dtype: "TensorDType.Float16"
  }
}

layer{
  type: "MulOp"
  top: "mul_126"
  bottom: "silu_24"
  bottom: "getitem_174"
  layer_param{
    shape: [128, 1, 13696]
    dtype: "TensorDType.Float16"
  }
}

layer{
  type: "TransposeOp"
  top: "t_99"
  bottom: "arg176_1"
  layer_param{
    shape: [13696, 4096]
    dtype: "TensorDType.Float16"
  }
}

layer{
  type: "ViewOp"
  top: "view_275"
  bottom: "mul_126"
  layer_param{
    attr_0: [128, 13696]
    shape: [128, 13696]
    dtype: "TensorDType.Float16"
  }
}

layer{
  type: "MatmulOp"
  top: "mm_74"
  bottom: "view_275"
  bottom: "t_99"
  layer_param{
    shape: [128, 4096]
    dtype: "TensorDType.Float16"
  }
}

layer{
  type: "ViewOp"
  top: "_unsafe_view_74"
  bottom: "mm_74"
  layer_param{
    attr_0: [128, 1, 4096]
    shape: [128, 1, 4096]
    dtype: "TensorDType.Float16"
  }
}

layer{
  type: "AddOp"
  top: "add_99"
  bottom: "add_97"
  bottom: "_unsafe_view_74"
  layer_param{
    shape: [128, 1, 4096]
    dtype: "TensorDType.Float16"
  }
}

layer{
  type: "ViewOp"
  top: "view_276"
  bottom: "fuse_ln_mul_128"
  layer_param{
    attr_0: [128, 4096]
    shape: [128, 4096]
    dtype: "TensorDType.Float16"
  }
}

layer{
  type: "TransposeOp"
  top: "t_100"
  bottom: "arg178_1"
  layer_param{
    shape: [4096, 4608]
    dtype: "TensorDType.Float16"
  }
}

layer{
  type: "AddMMOp"
  top: "addmm_25"
  bottom: "arg179_1"
  bottom: "view_276"
  bottom: "t_100"
  layer_param{
    shape: [128, 4608]
    dtype: "TensorDType.Float16"
  }
}

layer{
  type: "ViewOp"
  top: "view_277"
  bottom: "addmm_25"
  layer_param{
    attr_0: [128, 1, 4608]
    shape: [128, 1, 4608]
    dtype: "TensorDType.Float16"
  }
}

layer{
  type: "SplitWithSizeOp"
  top: "split_with_sizes_25"
  bottom: "view_277"
  layer_param{
    attr_0: [4096, 256, 256]
    attr_1: -1
    shape{
      output_0: [128, 1, 4096]
      output_1: [128, 1, 256]
      output_2: [128, 1, 256]
    }
  }
}

layer{
  type: "GetItemOp"
  top: "getitem_175"
  bottom: "split_with_sizes_25"
  layer_param{
    attr_0: 0
    shape: [128, 1, 4096]
    dtype: "TensorDType.Float16"
  }
}

layer{
  type: "GetItemOp"
  top: "getitem_176"
  bottom: "split_with_sizes_25"
  layer_param{
    attr_0: 1
    shape: [128, 1, 256]
    dtype: "TensorDType.Float16"
  }
}

layer{
  type: "GetItemOp"
  top: "getitem_177"
  bottom: "split_with_sizes_25"
  layer_param{
    attr_0: 2
    shape: [128, 1, 256]
    dtype: "TensorDType.Float16"
  }
}

layer{
  type: "ViewOp"
  top: "view_278"
  bottom: "getitem_175"
  layer_param{
    attr_0: [128, 1, 32, 128]
    shape: [128, 1, 32, 128]
    dtype: "TensorDType.Float16"
  }
}

layer{
  type: "ViewOp"
  top: "view_279"
  bottom: "getitem_176"
  layer_param{
    attr_0: [128, 1, 2, 128]
    shape: [128, 1, 2, 128]
    dtype: "TensorDType.Float16"
  }
}

layer{
  type: "ViewOp"
  top: "view_280"
  bottom: "getitem_177"
  layer_param{
    attr_0: [128, 1, 2, 128]
    shape: [128, 1, 2, 128]
    dtype: "TensorDType.Float16"
  }
}

layer{
  type: "RotaryPosEmbOp"
  top: "rotary_pos_emb_50"
  bottom: "view_278"
  bottom: "transpose_1"
  layer_param{
    shape: [128, 1, 32, 128]
    dtype: "TensorDType.Float16"
  }
}

layer{
  type: "RotaryPosEmbOp"
  top: "rotary_pos_emb_51"
  bottom: "view_279"
  bottom: "transpose_1"
  layer_param{
    shape: [128, 1, 2, 128]
    dtype: "TensorDType.Float16"
  }
}

layer{
  type: "UnsqueezeOp"
  top: "unsqueeze_51"
  bottom: "rotary_pos_emb_51"
  layer_param{
    attr_0: -2
    shape: [128, 1, 2, 1, 128]
    dtype: "TensorDType.Float16"
  }
}

layer{
  type: "ExpandOp"
  top: "expand_50"
  bottom: "unsqueeze_51"
  layer_param{
    attr_0: [-1, -1, -1, 16, -1]
    shape: [128, 1, 2, 16, 128]
    dtype: "TensorDType.Float16"
  }
}

layer{
  type: "ViewOp"
  top: "view_281"
  bottom: "expand_50"
  layer_param{
    attr_0: [128, 1, 32, 128]
    shape: [128, 1, 32, 128]
    dtype: "TensorDType.Float16"
  }
}

layer{
  type: "UnsqueezeOp"
  top: "unsqueeze_52"
  bottom: "view_280"
  layer_param{
    attr_0: -2
    shape: [128, 1, 2, 1, 128]
    dtype: "TensorDType.Float16"
  }
}

layer{
  type: "ExpandOp"
  top: "expand_51"
  bottom: "unsqueeze_52"
  layer_param{
    attr_0: [-1, -1, -1, 16, -1]
    shape: [128, 1, 2, 16, 128]
    dtype: "TensorDType.Float16"
  }
}

layer{
  type: "ViewOp"
  top: "view_282"
  bottom: "expand_51"
  layer_param{
    attr_0: [128, 1, 32, 128]
    shape: [128, 1, 32, 128]
    dtype: "TensorDType.Float16"
  }
}

layer{
  type: "PermuteOp"
  top: "permute_100"
  bottom: "rotary_pos_emb_50"
  layer_param{
    attr_0: [1, 2, 0, 3]
    shape: [1, 32, 128, 128]
    dtype: "TensorDType.Float16"
  }
}

layer{
  type: "PermuteOp"
  top: "permute_101"
  bottom: "view_281"
  layer_param{
    attr_0: [1, 2, 0, 3]
    shape: [1, 32, 128, 128]
    dtype: "TensorDType.Float16"
  }
}

layer{
  type: "PermuteOp"
  top: "permute_102"
  bottom: "view_282"
  layer_param{
    attr_0: [1, 2, 0, 3]
    shape: [1, 32, 128, 128]
    dtype: "TensorDType.Float16"
  }
}

layer{
  type: "ScaledDotProductFlashAttentionForCpuOp"
  top: "_scaled_dot_product_flash_attention_for_cpu_25"
  bottom: "permute_100"
  bottom: "permute_101"
  bottom: "permute_102"
  layer_param{
    attr_0: 0.0
    attr_1: True
    shape{
      output_0: [1, 32, 128, 128]
      output_1: [1, 32, 128]
    }
  }
}

layer{
  type: "GetItemOp"
  top: "getitem_178"
  bottom: "_scaled_dot_product_flash_attention_for_cpu_25"
  layer_param{
    attr_0: 0
    shape: [1, 32, 128, 128]
    dtype: "TensorDType.Float16"
  }
}

layer{
  type: "PermuteOp"
  top: "permute_103"
  bottom: "getitem_178"
  layer_param{
    attr_0: [2, 0, 1, 3]
    shape: [128, 1, 32, 128]
    dtype: "TensorDType.Float16"
  }
}

layer{
  type: "ViewOp"
  top: "view_283"
  bottom: "permute_103"
  layer_param{
    attr_0: [128, 1, 4096]
    shape: [128, 1, 4096]
    dtype: "TensorDType.Float16"
  }
}

layer{
  type: "TransposeOp"
  top: "t_101"
  bottom: "arg180_1"
  layer_param{
    shape: [4096, 4096]
    dtype: "TensorDType.Float16"
  }
}

layer{
  type: "ViewOp"
  top: "view_284"
  bottom: "view_283"
  layer_param{
    attr_0: [128, 4096]
    shape: [128, 4096]
    dtype: "TensorDType.Float16"
  }
}

layer{
  type: "MatmulOp"
  top: "mm_75"
  bottom: "view_284"
  bottom: "t_101"
  layer_param{
    shape: [128, 4096]
    dtype: "TensorDType.Float16"
  }
}

layer{
  type: "ViewOp"
  top: "_unsafe_view_75"
  bottom: "mm_75"
  layer_param{
    attr_0: [128, 1, 4096]
    shape: [128, 1, 4096]
    dtype: "TensorDType.Float16"
  }
}

layer{
  type: "AddOp"
  top: "add_101"
  bottom: "add_99"
  bottom: "_unsafe_view_75"
  layer_param{
    shape: [128, 1, 4096]
    dtype: "TensorDType.Float16"
  }
}

layer{
  type: "TransposeOp"
  top: "t_102"
  bottom: "arg182_1"
  layer_param{
    shape: [4096, 27392]
    dtype: "TensorDType.Float16"
  }
}

layer{
  type: "ViewOp"
  top: "view_285"
  bottom: "fuse_ln_mul_130"
  layer_param{
    attr_0: [128, 4096]
    shape: [128, 4096]
    dtype: "TensorDType.Float16"
  }
}

layer{
  type: "MatmulOp"
  top: "mm_76"
  bottom: "view_285"
  bottom: "t_102"
  layer_param{
    shape: [128, 27392]
    dtype: "TensorDType.Float16"
  }
}

layer{
  type: "ViewOp"
  top: "_unsafe_view_76"
  bottom: "mm_76"
  layer_param{
    attr_0: [128, 1, 27392]
    shape: [128, 1, 27392]
    dtype: "TensorDType.Float16"
  }
}

layer{
  type: "SplitOp"
  top: "split_25"
  bottom: "_unsafe_view_76"
  layer_param{
    attr_0: 13696
    attr_1: -1
    shape{
      output_0: [128, 1, 13696]
      output_1: [128, 1, 13696]
    }
  }
}

layer{
  type: "GetItemOp"
  top: "getitem_180"
  bottom: "split_25"
  layer_param{
    attr_0: 0
    shape: [128, 1, 13696]
    dtype: "TensorDType.Float16"
  }
}

layer{
  type: "GetItemOp"
  top: "getitem_181"
  bottom: "split_25"
  layer_param{
    attr_0: 1
    shape: [128, 1, 13696]
    dtype: "TensorDType.Float16"
  }
}

layer{
  type: "SiluOp"
  top: "silu_25"
  bottom: "getitem_180"
  layer_param{
    shape: [128, 1, 13696]
    dtype: "TensorDType.Float16"
  }
}

layer{
  type: "MulOp"
  top: "mul_131"
  bottom: "silu_25"
  bottom: "getitem_181"
  layer_param{
    shape: [128, 1, 13696]
    dtype: "TensorDType.Float16"
  }
}

layer{
  type: "TransposeOp"
  top: "t_103"
  bottom: "arg183_1"
  layer_param{
    shape: [13696, 4096]
    dtype: "TensorDType.Float16"
  }
}

layer{
  type: "ViewOp"
  top: "view_286"
  bottom: "mul_131"
  layer_param{
    attr_0: [128, 13696]
    shape: [128, 13696]
    dtype: "TensorDType.Float16"
  }
}

layer{
  type: "MatmulOp"
  top: "mm_77"
  bottom: "view_286"
  bottom: "t_103"
  layer_param{
    shape: [128, 4096]
    dtype: "TensorDType.Float16"
  }
}

layer{
  type: "ViewOp"
  top: "_unsafe_view_77"
  bottom: "mm_77"
  layer_param{
    attr_0: [128, 1, 4096]
    shape: [128, 1, 4096]
    dtype: "TensorDType.Float16"
  }
}

layer{
  type: "AddOp"
  top: "add_103"
  bottom: "add_101"
  bottom: "_unsafe_view_77"
  layer_param{
    shape: [128, 1, 4096]
    dtype: "TensorDType.Float16"
  }
}

layer{
  type: "ViewOp"
  top: "view_287"
  bottom: "fuse_ln_mul_133"
  layer_param{
    attr_0: [128, 4096]
    shape: [128, 4096]
    dtype: "TensorDType.Float16"
  }
}

layer{
  type: "TransposeOp"
  top: "t_104"
  bottom: "arg185_1"
  layer_param{
    shape: [4096, 4608]
    dtype: "TensorDType.Float16"
  }
}

layer{
  type: "AddMMOp"
  top: "addmm_26"
  bottom: "arg186_1"
  bottom: "view_287"
  bottom: "t_104"
  layer_param{
    shape: [128, 4608]
    dtype: "TensorDType.Float16"
  }
}

layer{
  type: "ViewOp"
  top: "view_288"
  bottom: "addmm_26"
  layer_param{
    attr_0: [128, 1, 4608]
    shape: [128, 1, 4608]
    dtype: "TensorDType.Float16"
  }
}

layer{
  type: "SplitWithSizeOp"
  top: "split_with_sizes_26"
  bottom: "view_288"
  layer_param{
    attr_0: [4096, 256, 256]
    attr_1: -1
    shape{
      output_0: [128, 1, 4096]
      output_1: [128, 1, 256]
      output_2: [128, 1, 256]
    }
  }
}

layer{
  type: "GetItemOp"
  top: "getitem_182"
  bottom: "split_with_sizes_26"
  layer_param{
    attr_0: 0
    shape: [128, 1, 4096]
    dtype: "TensorDType.Float16"
  }
}

layer{
  type: "GetItemOp"
  top: "getitem_183"
  bottom: "split_with_sizes_26"
  layer_param{
    attr_0: 1
    shape: [128, 1, 256]
    dtype: "TensorDType.Float16"
  }
}

layer{
  type: "GetItemOp"
  top: "getitem_184"
  bottom: "split_with_sizes_26"
  layer_param{
    attr_0: 2
    shape: [128, 1, 256]
    dtype: "TensorDType.Float16"
  }
}

layer{
  type: "ViewOp"
  top: "view_289"
  bottom: "getitem_182"
  layer_param{
    attr_0: [128, 1, 32, 128]
    shape: [128, 1, 32, 128]
    dtype: "TensorDType.Float16"
  }
}

layer{
  type: "ViewOp"
  top: "view_290"
  bottom: "getitem_183"
  layer_param{
    attr_0: [128, 1, 2, 128]
    shape: [128, 1, 2, 128]
    dtype: "TensorDType.Float16"
  }
}

layer{
  type: "ViewOp"
  top: "view_291"
  bottom: "getitem_184"
  layer_param{
    attr_0: [128, 1, 2, 128]
    shape: [128, 1, 2, 128]
    dtype: "TensorDType.Float16"
  }
}

layer{
  type: "RotaryPosEmbOp"
  top: "rotary_pos_emb_52"
  bottom: "view_289"
  bottom: "transpose_1"
  layer_param{
    shape: [128, 1, 32, 128]
    dtype: "TensorDType.Float16"
  }
}

layer{
  type: "RotaryPosEmbOp"
  top: "rotary_pos_emb_53"
  bottom: "view_290"
  bottom: "transpose_1"
  layer_param{
    shape: [128, 1, 2, 128]
    dtype: "TensorDType.Float16"
  }
}

layer{
  type: "UnsqueezeOp"
  top: "unsqueeze_53"
  bottom: "rotary_pos_emb_53"
  layer_param{
    attr_0: -2
    shape: [128, 1, 2, 1, 128]
    dtype: "TensorDType.Float16"
  }
}

layer{
  type: "ExpandOp"
  top: "expand_52"
  bottom: "unsqueeze_53"
  layer_param{
    attr_0: [-1, -1, -1, 16, -1]
    shape: [128, 1, 2, 16, 128]
    dtype: "TensorDType.Float16"
  }
}

layer{
  type: "ViewOp"
  top: "view_292"
  bottom: "expand_52"
  layer_param{
    attr_0: [128, 1, 32, 128]
    shape: [128, 1, 32, 128]
    dtype: "TensorDType.Float16"
  }
}

layer{
  type: "UnsqueezeOp"
  top: "unsqueeze_54"
  bottom: "view_291"
  layer_param{
    attr_0: -2
    shape: [128, 1, 2, 1, 128]
    dtype: "TensorDType.Float16"
  }
}

layer{
  type: "ExpandOp"
  top: "expand_53"
  bottom: "unsqueeze_54"
  layer_param{
    attr_0: [-1, -1, -1, 16, -1]
    shape: [128, 1, 2, 16, 128]
    dtype: "TensorDType.Float16"
  }
}

layer{
  type: "ViewOp"
  top: "view_293"
  bottom: "expand_53"
  layer_param{
    attr_0: [128, 1, 32, 128]
    shape: [128, 1, 32, 128]
    dtype: "TensorDType.Float16"
  }
}

layer{
  type: "PermuteOp"
  top: "permute_104"
  bottom: "rotary_pos_emb_52"
  layer_param{
    attr_0: [1, 2, 0, 3]
    shape: [1, 32, 128, 128]
    dtype: "TensorDType.Float16"
  }
}

layer{
  type: "PermuteOp"
  top: "permute_105"
  bottom: "view_292"
  layer_param{
    attr_0: [1, 2, 0, 3]
    shape: [1, 32, 128, 128]
    dtype: "TensorDType.Float16"
  }
}

layer{
  type: "PermuteOp"
  top: "permute_106"
  bottom: "view_293"
  layer_param{
    attr_0: [1, 2, 0, 3]
    shape: [1, 32, 128, 128]
    dtype: "TensorDType.Float16"
  }
}

layer{
  type: "ScaledDotProductFlashAttentionForCpuOp"
  top: "_scaled_dot_product_flash_attention_for_cpu_26"
  bottom: "permute_104"
  bottom: "permute_105"
  bottom: "permute_106"
  layer_param{
    attr_0: 0.0
    attr_1: True
    shape{
      output_0: [1, 32, 128, 128]
      output_1: [1, 32, 128]
    }
  }
}

layer{
  type: "GetItemOp"
  top: "getitem_185"
  bottom: "_scaled_dot_product_flash_attention_for_cpu_26"
  layer_param{
    attr_0: 0
    shape: [1, 32, 128, 128]
    dtype: "TensorDType.Float16"
  }
}

layer{
  type: "PermuteOp"
  top: "permute_107"
  bottom: "getitem_185"
  layer_param{
    attr_0: [2, 0, 1, 3]
    shape: [128, 1, 32, 128]
    dtype: "TensorDType.Float16"
  }
}

layer{
  type: "ViewOp"
  top: "view_294"
  bottom: "permute_107"
  layer_param{
    attr_0: [128, 1, 4096]
    shape: [128, 1, 4096]
    dtype: "TensorDType.Float16"
  }
}

layer{
  type: "TransposeOp"
  top: "t_105"
  bottom: "arg187_1"
  layer_param{
    shape: [4096, 4096]
    dtype: "TensorDType.Float16"
  }
}

layer{
  type: "ViewOp"
  top: "view_295"
  bottom: "view_294"
  layer_param{
    attr_0: [128, 4096]
    shape: [128, 4096]
    dtype: "TensorDType.Float16"
  }
}

layer{
  type: "MatmulOp"
  top: "mm_78"
  bottom: "view_295"
  bottom: "t_105"
  layer_param{
    shape: [128, 4096]
    dtype: "TensorDType.Float16"
  }
}

layer{
  type: "ViewOp"
  top: "_unsafe_view_78"
  bottom: "mm_78"
  layer_param{
    attr_0: [128, 1, 4096]
    shape: [128, 1, 4096]
    dtype: "TensorDType.Float16"
  }
}

layer{
  type: "AddOp"
  top: "add_105"
  bottom: "add_103"
  bottom: "_unsafe_view_78"
  layer_param{
    shape: [128, 1, 4096]
    dtype: "TensorDType.Float16"
  }
}

layer{
  type: "TransposeOp"
  top: "t_106"
  bottom: "arg189_1"
  layer_param{
    shape: [4096, 27392]
    dtype: "TensorDType.Float16"
  }
}

layer{
  type: "ViewOp"
  top: "view_296"
  bottom: "fuse_ln_mul_135"
  layer_param{
    attr_0: [128, 4096]
    shape: [128, 4096]
    dtype: "TensorDType.Float16"
  }
}

layer{
  type: "MatmulOp"
  top: "mm_79"
  bottom: "view_296"
  bottom: "t_106"
  layer_param{
    shape: [128, 27392]
    dtype: "TensorDType.Float16"
  }
}

layer{
  type: "ViewOp"
  top: "_unsafe_view_79"
  bottom: "mm_79"
  layer_param{
    attr_0: [128, 1, 27392]
    shape: [128, 1, 27392]
    dtype: "TensorDType.Float16"
  }
}

layer{
  type: "SplitOp"
  top: "split_26"
  bottom: "_unsafe_view_79"
  layer_param{
    attr_0: 13696
    attr_1: -1
    shape{
      output_0: [128, 1, 13696]
      output_1: [128, 1, 13696]
    }
  }
}

layer{
  type: "GetItemOp"
  top: "getitem_187"
  bottom: "split_26"
  layer_param{
    attr_0: 0
    shape: [128, 1, 13696]
    dtype: "TensorDType.Float16"
  }
}

layer{
  type: "GetItemOp"
  top: "getitem_188"
  bottom: "split_26"
  layer_param{
    attr_0: 1
    shape: [128, 1, 13696]
    dtype: "TensorDType.Float16"
  }
}

layer{
  type: "SiluOp"
  top: "silu_26"
  bottom: "getitem_187"
  layer_param{
    shape: [128, 1, 13696]
    dtype: "TensorDType.Float16"
  }
}

layer{
  type: "MulOp"
  top: "mul_136"
  bottom: "silu_26"
  bottom: "getitem_188"
  layer_param{
    shape: [128, 1, 13696]
    dtype: "TensorDType.Float16"
  }
}

layer{
  type: "TransposeOp"
  top: "t_107"
  bottom: "arg190_1"
  layer_param{
    shape: [13696, 4096]
    dtype: "TensorDType.Float16"
  }
}

layer{
  type: "ViewOp"
  top: "view_297"
  bottom: "mul_136"
  layer_param{
    attr_0: [128, 13696]
    shape: [128, 13696]
    dtype: "TensorDType.Float16"
  }
}

layer{
  type: "MatmulOp"
  top: "mm_80"
  bottom: "view_297"
  bottom: "t_107"
  layer_param{
    shape: [128, 4096]
    dtype: "TensorDType.Float16"
  }
}

layer{
  type: "ViewOp"
  top: "_unsafe_view_80"
  bottom: "mm_80"
  layer_param{
    attr_0: [128, 1, 4096]
    shape: [128, 1, 4096]
    dtype: "TensorDType.Float16"
  }
}

layer{
  type: "AddOp"
  top: "add_107"
  bottom: "add_105"
  bottom: "_unsafe_view_80"
  layer_param{
    shape: [128, 1, 4096]
    dtype: "TensorDType.Float16"
  }
}

layer{
  type: "ViewOp"
  top: "view_298"
  bottom: "fuse_ln_mul_138"
  layer_param{
    attr_0: [128, 4096]
    shape: [128, 4096]
    dtype: "TensorDType.Float16"
  }
}

layer{
  type: "TransposeOp"
  top: "t_108"
  bottom: "arg192_1"
  layer_param{
    shape: [4096, 4608]
    dtype: "TensorDType.Float16"
  }
}

layer{
  type: "AddMMOp"
  top: "addmm_27"
  bottom: "arg193_1"
  bottom: "view_298"
  bottom: "t_108"
  layer_param{
    shape: [128, 4608]
    dtype: "TensorDType.Float16"
  }
}

layer{
  type: "ViewOp"
  top: "view_299"
  bottom: "addmm_27"
  layer_param{
    attr_0: [128, 1, 4608]
    shape: [128, 1, 4608]
    dtype: "TensorDType.Float16"
  }
}

layer{
  type: "SplitWithSizeOp"
  top: "split_with_sizes_27"
  bottom: "view_299"
  layer_param{
    attr_0: [4096, 256, 256]
    attr_1: -1
    shape{
      output_0: [128, 1, 4096]
      output_1: [128, 1, 256]
      output_2: [128, 1, 256]
    }
  }
}

layer{
  type: "GetItemOp"
  top: "getitem_189"
  bottom: "split_with_sizes_27"
  layer_param{
    attr_0: 0
    shape: [128, 1, 4096]
    dtype: "TensorDType.Float16"
  }
}

layer{
  type: "GetItemOp"
  top: "getitem_190"
  bottom: "split_with_sizes_27"
  layer_param{
    attr_0: 1
    shape: [128, 1, 256]
    dtype: "TensorDType.Float16"
  }
}

layer{
  type: "GetItemOp"
  top: "getitem_191"
  bottom: "split_with_sizes_27"
  layer_param{
    attr_0: 2
    shape: [128, 1, 256]
    dtype: "TensorDType.Float16"
  }
}

layer{
  type: "ViewOp"
  top: "view_300"
  bottom: "getitem_189"
  layer_param{
    attr_0: [128, 1, 32, 128]
    shape: [128, 1, 32, 128]
    dtype: "TensorDType.Float16"
  }
}

layer{
  type: "ViewOp"
  top: "view_301"
  bottom: "getitem_190"
  layer_param{
    attr_0: [128, 1, 2, 128]
    shape: [128, 1, 2, 128]
    dtype: "TensorDType.Float16"
  }
}

layer{
  type: "ViewOp"
  top: "view_302"
  bottom: "getitem_191"
  layer_param{
    attr_0: [128, 1, 2, 128]
    shape: [128, 1, 2, 128]
    dtype: "TensorDType.Float16"
  }
}

layer{
  type: "RotaryPosEmbOp"
  top: "rotary_pos_emb_54"
  bottom: "view_300"
  bottom: "transpose_1"
  layer_param{
    shape: [128, 1, 32, 128]
    dtype: "TensorDType.Float16"
  }
}

layer{
  type: "RotaryPosEmbOp"
  top: "rotary_pos_emb_55"
  bottom: "view_301"
  bottom: "transpose_1"
  layer_param{
    shape: [128, 1, 2, 128]
    dtype: "TensorDType.Float16"
  }
}

layer{
  type: "UnsqueezeOp"
  top: "unsqueeze_55"
  bottom: "rotary_pos_emb_55"
  layer_param{
    attr_0: -2
    shape: [128, 1, 2, 1, 128]
    dtype: "TensorDType.Float16"
  }
}

layer{
  type: "ExpandOp"
  top: "expand_54"
  bottom: "unsqueeze_55"
  layer_param{
    attr_0: [-1, -1, -1, 16, -1]
    shape: [128, 1, 2, 16, 128]
    dtype: "TensorDType.Float16"
  }
}

layer{
  type: "ViewOp"
  top: "view_303"
  bottom: "expand_54"
  layer_param{
    attr_0: [128, 1, 32, 128]
    shape: [128, 1, 32, 128]
    dtype: "TensorDType.Float16"
  }
}

layer{
  type: "UnsqueezeOp"
  top: "unsqueeze_56"
  bottom: "view_302"
  layer_param{
    attr_0: -2
    shape: [128, 1, 2, 1, 128]
    dtype: "TensorDType.Float16"
  }
}

layer{
  type: "ExpandOp"
  top: "expand_55"
  bottom: "unsqueeze_56"
  layer_param{
    attr_0: [-1, -1, -1, 16, -1]
    shape: [128, 1, 2, 16, 128]
    dtype: "TensorDType.Float16"
  }
}

layer{
  type: "ViewOp"
  top: "view_304"
  bottom: "expand_55"
  layer_param{
    attr_0: [128, 1, 32, 128]
    shape: [128, 1, 32, 128]
    dtype: "TensorDType.Float16"
  }
}

layer{
  type: "PermuteOp"
  top: "permute_108"
  bottom: "rotary_pos_emb_54"
  layer_param{
    attr_0: [1, 2, 0, 3]
    shape: [1, 32, 128, 128]
    dtype: "TensorDType.Float16"
  }
}

layer{
  type: "PermuteOp"
  top: "permute_109"
  bottom: "view_303"
  layer_param{
    attr_0: [1, 2, 0, 3]
    shape: [1, 32, 128, 128]
    dtype: "TensorDType.Float16"
  }
}

layer{
  type: "PermuteOp"
  top: "permute_110"
  bottom: "view_304"
  layer_param{
    attr_0: [1, 2, 0, 3]
    shape: [1, 32, 128, 128]
    dtype: "TensorDType.Float16"
  }
}

layer{
  type: "ScaledDotProductFlashAttentionForCpuOp"
  top: "_scaled_dot_product_flash_attention_for_cpu_27"
  bottom: "permute_108"
  bottom: "permute_109"
  bottom: "permute_110"
  layer_param{
    attr_0: 0.0
    attr_1: True
    shape{
      output_0: [1, 32, 128, 128]
      output_1: [1, 32, 128]
    }
  }
}

layer{
  type: "GetItemOp"
  top: "getitem_192"
  bottom: "_scaled_dot_product_flash_attention_for_cpu_27"
  layer_param{
    attr_0: 0
    shape: [1, 32, 128, 128]
    dtype: "TensorDType.Float16"
  }
}

layer{
  type: "PermuteOp"
  top: "permute_111"
  bottom: "getitem_192"
  layer_param{
    attr_0: [2, 0, 1, 3]
    shape: [128, 1, 32, 128]
    dtype: "TensorDType.Float16"
  }
}

layer{
  type: "ViewOp"
  top: "view_305"
  bottom: "permute_111"
  layer_param{
    attr_0: [128, 1, 4096]
    shape: [128, 1, 4096]
    dtype: "TensorDType.Float16"
  }
}

layer{
  type: "TransposeOp"
  top: "t_109"
  bottom: "arg194_1"
  layer_param{
    shape: [4096, 4096]
    dtype: "TensorDType.Float16"
  }
}

layer{
  type: "ViewOp"
  top: "view_306"
  bottom: "view_305"
  layer_param{
    attr_0: [128, 4096]
    shape: [128, 4096]
    dtype: "TensorDType.Float16"
  }
}

layer{
  type: "MatmulOp"
  top: "mm_81"
  bottom: "view_306"
  bottom: "t_109"
  layer_param{
    shape: [128, 4096]
    dtype: "TensorDType.Float16"
  }
}

layer{
  type: "ViewOp"
  top: "_unsafe_view_81"
  bottom: "mm_81"
  layer_param{
    attr_0: [128, 1, 4096]
    shape: [128, 1, 4096]
    dtype: "TensorDType.Float16"
  }
}

layer{
  type: "AddOp"
  top: "add_109"
  bottom: "add_107"
  bottom: "_unsafe_view_81"
  layer_param{
    shape: [128, 1, 4096]
    dtype: "TensorDType.Float16"
  }
}

layer{
  type: "TransposeOp"
  top: "t_110"
  bottom: "arg196_1"
  layer_param{
    shape: [4096, 27392]
    dtype: "TensorDType.Float16"
  }
}

layer{
  type: "ViewOp"
  top: "view_307"
  bottom: "fuse_ln_mul_140"
  layer_param{
    attr_0: [128, 4096]
    shape: [128, 4096]
    dtype: "TensorDType.Float16"
  }
}

layer{
  type: "MatmulOp"
  top: "mm_82"
  bottom: "view_307"
  bottom: "t_110"
  layer_param{
    shape: [128, 27392]
    dtype: "TensorDType.Float16"
  }
}

layer{
  type: "ViewOp"
  top: "_unsafe_view_82"
  bottom: "mm_82"
  layer_param{
    attr_0: [128, 1, 27392]
    shape: [128, 1, 27392]
    dtype: "TensorDType.Float16"
  }
}

layer{
  type: "SplitOp"
  top: "split_27"
  bottom: "_unsafe_view_82"
  layer_param{
    attr_0: 13696
    attr_1: -1
    shape{
      output_0: [128, 1, 13696]
      output_1: [128, 1, 13696]
    }
  }
}

layer{
  type: "GetItemOp"
  top: "getitem_194"
  bottom: "split_27"
  layer_param{
    attr_0: 0
    shape: [128, 1, 13696]
    dtype: "TensorDType.Float16"
  }
}

layer{
  type: "GetItemOp"
  top: "getitem_195"
  bottom: "split_27"
  layer_param{
    attr_0: 1
    shape: [128, 1, 13696]
    dtype: "TensorDType.Float16"
  }
}

layer{
  type: "SiluOp"
  top: "silu_27"
  bottom: "getitem_194"
  layer_param{
    shape: [128, 1, 13696]
    dtype: "TensorDType.Float16"
  }
}

layer{
  type: "MulOp"
  top: "mul_141"
  bottom: "silu_27"
  bottom: "getitem_195"
  layer_param{
    shape: [128, 1, 13696]
    dtype: "TensorDType.Float16"
  }
}

layer{
  type: "TransposeOp"
  top: "t_111"
  bottom: "arg197_1"
  layer_param{
    shape: [13696, 4096]
    dtype: "TensorDType.Float16"
  }
}

layer{
  type: "ViewOp"
  top: "view_308"
  bottom: "mul_141"
  layer_param{
    attr_0: [128, 13696]
    shape: [128, 13696]
    dtype: "TensorDType.Float16"
  }
}

layer{
  type: "MatmulOp"
  top: "mm_83"
  bottom: "view_308"
  bottom: "t_111"
  layer_param{
    shape: [128, 4096]
    dtype: "TensorDType.Float16"
  }
}

layer{
  type: "ViewOp"
  top: "_unsafe_view_83"
  bottom: "mm_83"
  layer_param{
    attr_0: [128, 1, 4096]
    shape: [128, 1, 4096]
    dtype: "TensorDType.Float16"
  }
}

layer{
  type: "AddOp"
  top: "add_111"
  bottom: "add_109"
  bottom: "_unsafe_view_83"
  layer_param{
    shape: [128, 1, 4096]
    dtype: "TensorDType.Float16"
  }
}

layer{
  type: "TransposeOp"
  top: "t_112"
  bottom: "arg199_1"
  layer_param{
    shape: [4096, 65024]
    dtype: "TensorDType.Float16"
  }
}

layer{
  type: "ViewOp"
  top: "view_309"
  bottom: "fuse_ln_mul_143"
  layer_param{
    attr_0: [128, 4096]
    shape: [128, 4096]
    dtype: "TensorDType.Float16"
  }
}

layer{
  type: "MatmulOp"
  top: "mm_84"
  bottom: "view_309"
  bottom: "t_112"
  layer_param{
    shape: [128, 65024]
    dtype: "TensorDType.Float16"
  }
}

layer{
  type: "ViewOp"
  top: "_unsafe_view_84"
  bottom: "mm_84"
  layer_param{
    attr_0: [128, 1, 65024]
    shape: [128, 1, 65024]
    dtype: "TensorDType.Float16"
  }
}

layer{
  type: "TransposeOp"
  top: "transpose_2"
  bottom: "_unsafe_view_84"
  layer_param{
    attr_0: 0
    attr_1: 1
    shape: [1, 128, 65024]
    dtype: "TensorDType.Float16"
  }
}

layer{
  type: "OutputOp"
  top: "output"
  bottom: "transpose_2"
}

layer{
  type: "LayerNormOp"
  top: "fuse_ln_mul_3"
  bottom: "transpose"
  bottom: "arg2_1"
  layer_param{
    attr_0: 1e-05
  }
}

layer{
  type: "LayerNormOp"
  top: "fuse_ln_mul_5"
  bottom: "add_1"
  bottom: "arg6_1"
  layer_param{
    attr_0: 1e-05
  }
}

layer{
  type: "LayerNormOp"
  top: "fuse_ln_mul_8"
  bottom: "add_3"
  bottom: "arg9_1"
  layer_param{
    attr_0: 1e-05
  }
}

layer{
  type: "LayerNormOp"
  top: "fuse_ln_mul_10"
  bottom: "add_5"
  bottom: "arg13_1"
  layer_param{
    attr_0: 1e-05
  }
}

layer{
  type: "LayerNormOp"
  top: "fuse_ln_mul_13"
  bottom: "add_7"
  bottom: "arg16_1"
  layer_param{
    attr_0: 1e-05
  }
}

layer{
  type: "LayerNormOp"
  top: "fuse_ln_mul_15"
  bottom: "add_9"
  bottom: "arg20_1"
  layer_param{
    attr_0: 1e-05
  }
}

layer{
  type: "LayerNormOp"
  top: "fuse_ln_mul_18"
  bottom: "add_11"
  bottom: "arg23_1"
  layer_param{
    attr_0: 1e-05
  }
}

layer{
  type: "LayerNormOp"
  top: "fuse_ln_mul_20"
  bottom: "add_13"
  bottom: "arg27_1"
  layer_param{
    attr_0: 1e-05
  }
}

layer{
  type: "LayerNormOp"
  top: "fuse_ln_mul_23"
  bottom: "add_15"
  bottom: "arg30_1"
  layer_param{
    attr_0: 1e-05
  }
}

layer{
  type: "LayerNormOp"
  top: "fuse_ln_mul_25"
  bottom: "add_17"
  bottom: "arg34_1"
  layer_param{
    attr_0: 1e-05
  }
}

layer{
  type: "LayerNormOp"
  top: "fuse_ln_mul_28"
  bottom: "add_19"
  bottom: "arg37_1"
  layer_param{
    attr_0: 1e-05
  }
}

layer{
  type: "LayerNormOp"
  top: "fuse_ln_mul_30"
  bottom: "add_21"
  bottom: "arg41_1"
  layer_param{
    attr_0: 1e-05
  }
}

layer{
  type: "LayerNormOp"
  top: "fuse_ln_mul_33"
  bottom: "add_23"
  bottom: "arg44_1"
  layer_param{
    attr_0: 1e-05
  }
}

layer{
  type: "LayerNormOp"
  top: "fuse_ln_mul_35"
  bottom: "add_25"
  bottom: "arg48_1"
  layer_param{
    attr_0: 1e-05
  }
}

layer{
  type: "LayerNormOp"
  top: "fuse_ln_mul_38"
  bottom: "add_27"
  bottom: "arg51_1"
  layer_param{
    attr_0: 1e-05
  }
}

layer{
  type: "LayerNormOp"
  top: "fuse_ln_mul_40"
  bottom: "add_29"
  bottom: "arg55_1"
  layer_param{
    attr_0: 1e-05
  }
}

layer{
  type: "LayerNormOp"
  top: "fuse_ln_mul_43"
  bottom: "add_31"
  bottom: "arg58_1"
  layer_param{
    attr_0: 1e-05
  }
}

layer{
  type: "LayerNormOp"
  top: "fuse_ln_mul_45"
  bottom: "add_33"
  bottom: "arg62_1"
  layer_param{
    attr_0: 1e-05
  }
}

layer{
  type: "LayerNormOp"
  top: "fuse_ln_mul_48"
  bottom: "add_35"
  bottom: "arg65_1"
  layer_param{
    attr_0: 1e-05
  }
}

layer{
  type: "LayerNormOp"
  top: "fuse_ln_mul_50"
  bottom: "add_37"
  bottom: "arg69_1"
  layer_param{
    attr_0: 1e-05
  }
}

layer{
  type: "LayerNormOp"
  top: "fuse_ln_mul_53"
  bottom: "add_39"
  bottom: "arg72_1"
  layer_param{
    attr_0: 1e-05
  }
}

layer{
  type: "LayerNormOp"
  top: "fuse_ln_mul_55"
  bottom: "add_41"
  bottom: "arg76_1"
  layer_param{
    attr_0: 1e-05
  }
}

layer{
  type: "LayerNormOp"
  top: "fuse_ln_mul_58"
  bottom: "add_43"
  bottom: "arg79_1"
  layer_param{
    attr_0: 1e-05
  }
}

layer{
  type: "LayerNormOp"
  top: "fuse_ln_mul_60"
  bottom: "add_45"
  bottom: "arg83_1"
  layer_param{
    attr_0: 1e-05
  }
}

layer{
  type: "LayerNormOp"
  top: "fuse_ln_mul_63"
  bottom: "add_47"
  bottom: "arg86_1"
  layer_param{
    attr_0: 1e-05
  }
}

layer{
  type: "LayerNormOp"
  top: "fuse_ln_mul_65"
  bottom: "add_49"
  bottom: "arg90_1"
  layer_param{
    attr_0: 1e-05
  }
}

layer{
  type: "LayerNormOp"
  top: "fuse_ln_mul_68"
  bottom: "add_51"
  bottom: "arg93_1"
  layer_param{
    attr_0: 1e-05
  }
}

layer{
  type: "LayerNormOp"
  top: "fuse_ln_mul_70"
  bottom: "add_53"
  bottom: "arg97_1"
  layer_param{
    attr_0: 1e-05
  }
}

layer{
  type: "LayerNormOp"
  top: "fuse_ln_mul_73"
  bottom: "add_55"
  bottom: "arg100_1"
  layer_param{
    attr_0: 1e-05
  }
}

layer{
  type: "LayerNormOp"
  top: "fuse_ln_mul_75"
  bottom: "add_57"
  bottom: "arg104_1"
  layer_param{
    attr_0: 1e-05
  }
}

layer{
  type: "LayerNormOp"
  top: "fuse_ln_mul_78"
  bottom: "add_59"
  bottom: "arg107_1"
  layer_param{
    attr_0: 1e-05
  }
}

layer{
  type: "LayerNormOp"
  top: "fuse_ln_mul_80"
  bottom: "add_61"
  bottom: "arg111_1"
  layer_param{
    attr_0: 1e-05
  }
}

layer{
  type: "LayerNormOp"
  top: "fuse_ln_mul_83"
  bottom: "add_63"
  bottom: "arg114_1"
  layer_param{
    attr_0: 1e-05
  }
}

layer{
  type: "LayerNormOp"
  top: "fuse_ln_mul_85"
  bottom: "add_65"
  bottom: "arg118_1"
  layer_param{
    attr_0: 1e-05
  }
}

layer{
  type: "LayerNormOp"
  top: "fuse_ln_mul_88"
  bottom: "add_67"
  bottom: "arg121_1"
  layer_param{
    attr_0: 1e-05
  }
}

layer{
  type: "LayerNormOp"
  top: "fuse_ln_mul_90"
  bottom: "add_69"
  bottom: "arg125_1"
  layer_param{
    attr_0: 1e-05
  }
}

layer{
  type: "LayerNormOp"
  top: "fuse_ln_mul_93"
  bottom: "add_71"
  bottom: "arg128_1"
  layer_param{
    attr_0: 1e-05
  }
}

layer{
  type: "LayerNormOp"
  top: "fuse_ln_mul_95"
  bottom: "add_73"
  bottom: "arg132_1"
  layer_param{
    attr_0: 1e-05
  }
}

layer{
  type: "LayerNormOp"
  top: "fuse_ln_mul_98"
  bottom: "add_75"
  bottom: "arg135_1"
  layer_param{
    attr_0: 1e-05
  }
}

layer{
  type: "LayerNormOp"
  top: "fuse_ln_mul_100"
  bottom: "add_77"
  bottom: "arg139_1"
  layer_param{
    attr_0: 1e-05
  }
}

layer{
  type: "LayerNormOp"
  top: "fuse_ln_mul_103"
  bottom: "add_79"
  bottom: "arg142_1"
  layer_param{
    attr_0: 1e-05
  }
}

layer{
  type: "LayerNormOp"
  top: "fuse_ln_mul_105"
  bottom: "add_81"
  bottom: "arg146_1"
  layer_param{
    attr_0: 1e-05
  }
}

layer{
  type: "LayerNormOp"
  top: "fuse_ln_mul_108"
  bottom: "add_83"
  bottom: "arg149_1"
  layer_param{
    attr_0: 1e-05
  }
}

layer{
  type: "LayerNormOp"
  top: "fuse_ln_mul_110"
  bottom: "add_85"
  bottom: "arg153_1"
  layer_param{
    attr_0: 1e-05
  }
}

layer{
  type: "LayerNormOp"
  top: "fuse_ln_mul_113"
  bottom: "add_87"
  bottom: "arg156_1"
  layer_param{
    attr_0: 1e-05
  }
}

layer{
  type: "LayerNormOp"
  top: "fuse_ln_mul_115"
  bottom: "add_89"
  bottom: "arg160_1"
  layer_param{
    attr_0: 1e-05
  }
}

layer{
  type: "LayerNormOp"
  top: "fuse_ln_mul_118"
  bottom: "add_91"
  bottom: "arg163_1"
  layer_param{
    attr_0: 1e-05
  }
}

layer{
  type: "LayerNormOp"
  top: "fuse_ln_mul_120"
  bottom: "add_93"
  bottom: "arg167_1"
  layer_param{
    attr_0: 1e-05
  }
}

layer{
  type: "LayerNormOp"
  top: "fuse_ln_mul_123"
  bottom: "add_95"
  bottom: "arg170_1"
  layer_param{
    attr_0: 1e-05
  }
}

layer{
  type: "LayerNormOp"
  top: "fuse_ln_mul_125"
  bottom: "add_97"
  bottom: "arg174_1"
  layer_param{
    attr_0: 1e-05
  }
}

layer{
  type: "LayerNormOp"
  top: "fuse_ln_mul_128"
  bottom: "add_99"
  bottom: "arg177_1"
  layer_param{
    attr_0: 1e-05
  }
}

layer{
  type: "LayerNormOp"
  top: "fuse_ln_mul_130"
  bottom: "add_101"
  bottom: "arg181_1"
  layer_param{
    attr_0: 1e-05
  }
}

layer{
  type: "LayerNormOp"
  top: "fuse_ln_mul_133"
  bottom: "add_103"
  bottom: "arg184_1"
  layer_param{
    attr_0: 1e-05
  }
}

layer{
  type: "LayerNormOp"
  top: "fuse_ln_mul_135"
  bottom: "add_105"
  bottom: "arg188_1"
  layer_param{
    attr_0: 1e-05
  }
}

layer{
  type: "LayerNormOp"
  top: "fuse_ln_mul_138"
  bottom: "add_107"
  bottom: "arg191_1"
  layer_param{
    attr_0: 1e-05
  }
}

layer{
  type: "LayerNormOp"
  top: "fuse_ln_mul_140"
  bottom: "add_109"
  bottom: "arg195_1"
  layer_param{
    attr_0: 1e-05
  }
}

layer{
  type: "LayerNormOp"
  top: "fuse_ln_mul_143"
  bottom: "add_111"
  bottom: "arg198_1"
  layer_param{
    attr_0: 1e-05
  }
}
