name: "forward"

layer{
  type: "PlaceholderOp"
  top: "arg0_1"
  layer_param{
    shape: [1536]
    dtype: "TensorDType.BFloat16"
  }
}

layer{
  type: "PlaceholderOp"
  top: "arg1_1"
  layer_param{
    shape: [1536]
    dtype: "TensorDType.BFloat16"
  }
}

layer{
  type: "PlaceholderOp"
  top: "arg2_1"
  layer_param{
    shape: [1536]
    dtype: "TensorDType.BFloat16"
  }
}

layer{
  type: "PlaceholderOp"
  top: "arg3_1"
  layer_param{
    shape: [1536]
    dtype: "TensorDType.BFloat16"
  }
}

layer{
  type: "PlaceholderOp"
  top: "arg4_1"
  layer_param{
    shape: [1536]
    dtype: "TensorDType.BFloat16"
  }
}

layer{
  type: "PlaceholderOp"
  top: "arg5_1"
  layer_param{
    shape: [1536]
    dtype: "TensorDType.BFloat16"
  }
}

layer{
  type: "PlaceholderOp"
  top: "arg6_1"
  layer_param{
    shape: [1536]
    dtype: "TensorDType.BFloat16"
  }
}

layer{
  type: "PlaceholderOp"
  top: "arg7_1"
  layer_param{
    shape: [1536]
    dtype: "TensorDType.BFloat16"
  }
}

layer{
  type: "PlaceholderOp"
  top: "arg8_1"
  layer_param{
    shape: [1536]
    dtype: "TensorDType.BFloat16"
  }
}

layer{
  type: "PlaceholderOp"
  top: "arg9_1"
  layer_param{
    shape: [1536]
    dtype: "TensorDType.BFloat16"
  }
}

layer{
  type: "PlaceholderOp"
  top: "arg10_1"
  layer_param{
    shape: [1536]
    dtype: "TensorDType.BFloat16"
  }
}

layer{
  type: "PlaceholderOp"
  top: "arg11_1"
  layer_param{
    shape: [1536]
    dtype: "TensorDType.BFloat16"
  }
}

layer{
  type: "PlaceholderOp"
  top: "arg12_1"
  layer_param{
    shape: [1536]
    dtype: "TensorDType.BFloat16"
  }
}

layer{
  type: "PlaceholderOp"
  top: "arg13_1"
  layer_param{
    shape: [1536]
    dtype: "TensorDType.BFloat16"
  }
}

layer{
  type: "PlaceholderOp"
  top: "arg14_1"
  layer_param{
    shape: [1536]
    dtype: "TensorDType.BFloat16"
  }
}

layer{
  type: "PlaceholderOp"
  top: "arg15_1"
  layer_param{
    shape: [1536]
    dtype: "TensorDType.BFloat16"
  }
}

layer{
  type: "PlaceholderOp"
  top: "arg16_1"
  layer_param{
    shape: [1536]
    dtype: "TensorDType.BFloat16"
  }
}

layer{
  type: "PlaceholderOp"
  top: "arg17_1"
  layer_param{
    shape: [1536]
    dtype: "TensorDType.BFloat16"
  }
}

layer{
  type: "PlaceholderOp"
  top: "arg18_1"
  layer_param{
    shape: [1536]
    dtype: "TensorDType.BFloat16"
  }
}

layer{
  type: "PlaceholderOp"
  top: "arg19_1"
  layer_param{
    shape: [1536]
    dtype: "TensorDType.BFloat16"
  }
}

layer{
  type: "PlaceholderOp"
  top: "arg20_1"
  layer_param{
    shape: [1536]
    dtype: "TensorDType.BFloat16"
  }
}

layer{
  type: "PlaceholderOp"
  top: "arg21_1"
  layer_param{
    shape: [1536]
    dtype: "TensorDType.BFloat16"
  }
}

layer{
  type: "PlaceholderOp"
  top: "arg22_1"
  layer_param{
    shape: [1536]
    dtype: "TensorDType.BFloat16"
  }
}

layer{
  type: "PlaceholderOp"
  top: "arg23_1"
  layer_param{
    shape: [1536]
    dtype: "TensorDType.BFloat16"
  }
}

layer{
  type: "PlaceholderOp"
  top: "arg24_1"
  layer_param{
    shape: [1536]
    dtype: "TensorDType.BFloat16"
  }
}

layer{
  type: "PlaceholderOp"
  top: "arg25_1"
  layer_param{
    shape: [1536]
    dtype: "TensorDType.BFloat16"
  }
}

layer{
  type: "PlaceholderOp"
  top: "arg26_1"
  layer_param{
    shape: [1536]
    dtype: "TensorDType.BFloat16"
  }
}

layer{
  type: "PlaceholderOp"
  top: "arg27_1"
  layer_param{
    shape: [1536]
    dtype: "TensorDType.BFloat16"
  }
}

layer{
  type: "PlaceholderOp"
  top: "arg28_1"
  layer_param{
    shape: [1536]
    dtype: "TensorDType.BFloat16"
  }
}

layer{
  type: "PlaceholderOp"
  top: "arg29_1"
  layer_param{
    shape: [1536]
    dtype: "TensorDType.BFloat16"
  }
}

layer{
  type: "PlaceholderOp"
  top: "arg30_1"
  layer_param{
    shape: [1536]
    dtype: "TensorDType.BFloat16"
  }
}

layer{
  type: "PlaceholderOp"
  top: "arg31_1"
  layer_param{
    shape: [1536]
    dtype: "TensorDType.BFloat16"
  }
}

layer{
  type: "PlaceholderOp"
  top: "arg32_1"
  layer_param{
    shape: [1536]
    dtype: "TensorDType.BFloat16"
  }
}

layer{
  type: "PlaceholderOp"
  top: "arg33_1"
  layer_param{
    shape: [1536]
    dtype: "TensorDType.BFloat16"
  }
}

layer{
  type: "PlaceholderOp"
  top: "arg34_1"
  layer_param{
    shape: [1536]
    dtype: "TensorDType.BFloat16"
  }
}

layer{
  type: "PlaceholderOp"
  top: "arg35_1"
  layer_param{
    shape: [1536]
    dtype: "TensorDType.BFloat16"
  }
}

layer{
  type: "PlaceholderOp"
  top: "arg36_1"
  layer_param{
    shape: [1536]
    dtype: "TensorDType.BFloat16"
  }
}

layer{
  type: "PlaceholderOp"
  top: "arg37_1"
  layer_param{
    shape: [1536]
    dtype: "TensorDType.BFloat16"
  }
}

layer{
  type: "PlaceholderOp"
  top: "arg38_1"
  layer_param{
    shape: [1536]
    dtype: "TensorDType.BFloat16"
  }
}

layer{
  type: "PlaceholderOp"
  top: "arg39_1"
  layer_param{
    shape: [1536]
    dtype: "TensorDType.BFloat16"
  }
}

layer{
  type: "PlaceholderOp"
  top: "arg40_1"
  layer_param{
    shape: [1536]
    dtype: "TensorDType.BFloat16"
  }
}

layer{
  type: "PlaceholderOp"
  top: "arg41_1"
  layer_param{
    shape: [1536]
    dtype: "TensorDType.BFloat16"
  }
}

layer{
  type: "PlaceholderOp"
  top: "arg42_1"
  layer_param{
    shape: [1536]
    dtype: "TensorDType.BFloat16"
  }
}

layer{
  type: "PlaceholderOp"
  top: "arg43_1"
  layer_param{
    shape: [1536]
    dtype: "TensorDType.BFloat16"
  }
}

layer{
  type: "PlaceholderOp"
  top: "arg44_1"
  layer_param{
    shape: [1536]
    dtype: "TensorDType.BFloat16"
  }
}

layer{
  type: "PlaceholderOp"
  top: "arg45_1"
  layer_param{
    shape: [1536]
    dtype: "TensorDType.BFloat16"
  }
}

layer{
  type: "PlaceholderOp"
  top: "arg46_1"
  layer_param{
    shape: [1536]
    dtype: "TensorDType.BFloat16"
  }
}

layer{
  type: "PlaceholderOp"
  top: "arg47_1"
  layer_param{
    shape: [1536]
    dtype: "TensorDType.BFloat16"
  }
}

layer{
  type: "PlaceholderOp"
  top: "arg48_1"
  layer_param{
    shape: [1536]
    dtype: "TensorDType.BFloat16"
  }
}

layer{
  type: "PlaceholderOp"
  top: "arg49_1"
  layer_param{
    shape: [1536]
    dtype: "TensorDType.BFloat16"
  }
}

layer{
  type: "PlaceholderOp"
  top: "arg50_1"
  layer_param{
    shape: [1536]
    dtype: "TensorDType.BFloat16"
  }
}

layer{
  type: "PlaceholderOp"
  top: "arg51_1"
  layer_param{
    shape: [1536]
    dtype: "TensorDType.BFloat16"
  }
}

layer{
  type: "PlaceholderOp"
  top: "arg52_1"
  layer_param{
    shape: [1536]
    dtype: "TensorDType.BFloat16"
  }
}

layer{
  type: "PlaceholderOp"
  top: "arg53_1"
  layer_param{
    shape: [1536]
    dtype: "TensorDType.BFloat16"
  }
}

layer{
  type: "PlaceholderOp"
  top: "arg54_1"
  layer_param{
    shape: [1536]
    dtype: "TensorDType.BFloat16"
  }
}

layer{
  type: "PlaceholderOp"
  top: "arg55_1"
  layer_param{
    shape: [1536]
    dtype: "TensorDType.BFloat16"
  }
}

layer{
  type: "PlaceholderOp"
  top: "arg56_1"
  layer_param{
    shape: [1536]
    dtype: "TensorDType.BFloat16"
  }
}

layer{
  type: "PlaceholderOp"
  top: "arg57_1"
  layer_param{
    shape: [1536]
    dtype: "TensorDType.BFloat16"
  }
}

layer{
  type: "PlaceholderOp"
  top: "arg58_1"
  layer_param{
    shape: [1536]
    dtype: "TensorDType.BFloat16"
  }
}

layer{
  type: "PlaceholderOp"
  top: "arg59_1"
  layer_param{
    shape: [1536]
    dtype: "TensorDType.BFloat16"
  }
}

layer{
  type: "PlaceholderOp"
  top: "arg60_1"
  layer_param{
    shape: [1536]
    dtype: "TensorDType.BFloat16"
  }
}

layer{
  type: "PlaceholderOp"
  top: "arg61_1"
  layer_param{
    shape: [1536]
    dtype: "TensorDType.BFloat16"
  }
}

layer{
  type: "PlaceholderOp"
  top: "arg62_1"
  layer_param{
    shape: [1536]
    dtype: "TensorDType.BFloat16"
  }
}

layer{
  type: "PlaceholderOp"
  top: "arg63_1"
  layer_param{
    shape: [1536]
    dtype: "TensorDType.BFloat16"
  }
}

layer{
  type: "PlaceholderOp"
  top: "arg64_1"
  layer_param{
    shape: [1536]
    dtype: "TensorDType.BFloat16"
  }
}

layer{
  type: "PlaceholderOp"
  top: "arg65_1"
  layer_param{
    shape: [1536]
    dtype: "TensorDType.BFloat16"
  }
}

layer{
  type: "PlaceholderOp"
  top: "arg66_1"
  layer_param{
    shape: [1536]
    dtype: "TensorDType.BFloat16"
  }
}

layer{
  type: "PlaceholderOp"
  top: "arg67_1"
  layer_param{
    shape: [1536]
    dtype: "TensorDType.BFloat16"
  }
}

layer{
  type: "PlaceholderOp"
  top: "arg68_1"
  layer_param{
    shape: [1536]
    dtype: "TensorDType.BFloat16"
  }
}

layer{
  type: "PlaceholderOp"
  top: "arg69_1"
  layer_param{
    shape: [1536]
    dtype: "TensorDType.BFloat16"
  }
}

layer{
  type: "PlaceholderOp"
  top: "arg70_1"
  layer_param{
    shape: [1536]
    dtype: "TensorDType.BFloat16"
  }
}

layer{
  type: "PlaceholderOp"
  top: "arg71_1"
  layer_param{
    shape: [1536]
    dtype: "TensorDType.BFloat16"
  }
}

layer{
  type: "PlaceholderOp"
  top: "arg72_1"
  layer_param{
    shape: [1536]
    dtype: "TensorDType.BFloat16"
  }
}

layer{
  type: "PlaceholderOp"
  top: "arg73_1"
  layer_param{
    shape: [1536]
    dtype: "TensorDType.BFloat16"
  }
}

layer{
  type: "PlaceholderOp"
  top: "arg74_1"
  layer_param{
    shape: [1536]
    dtype: "TensorDType.BFloat16"
  }
}

layer{
  type: "PlaceholderOp"
  top: "arg75_1"
  layer_param{
    shape: [1536]
    dtype: "TensorDType.BFloat16"
  }
}

layer{
  type: "PlaceholderOp"
  top: "arg76_1"
  layer_param{
    shape: [1536]
    dtype: "TensorDType.BFloat16"
  }
}

layer{
  type: "PlaceholderOp"
  top: "arg77_1"
  layer_param{
    shape: [1536]
    dtype: "TensorDType.BFloat16"
  }
}

layer{
  type: "PlaceholderOp"
  top: "arg78_1"
  layer_param{
    shape: [1536]
    dtype: "TensorDType.BFloat16"
  }
}

layer{
  type: "PlaceholderOp"
  top: "arg79_1"
  layer_param{
    shape: [1536]
    dtype: "TensorDType.BFloat16"
  }
}

layer{
  type: "PlaceholderOp"
  top: "arg80_1"
  layer_param{
    shape: [1536]
    dtype: "TensorDType.BFloat16"
  }
}

layer{
  type: "PlaceholderOp"
  top: "arg81_1"
  layer_param{
    shape: [1536]
    dtype: "TensorDType.BFloat16"
  }
}

layer{
  type: "PlaceholderOp"
  top: "arg82_1"
  layer_param{
    shape: [1536]
    dtype: "TensorDType.BFloat16"
  }
}

layer{
  type: "PlaceholderOp"
  top: "arg83_1"
  layer_param{
    shape: [1536]
    dtype: "TensorDType.BFloat16"
  }
}

layer{
  type: "PlaceholderOp"
  top: "arg84_1"
  layer_param{
    shape: [1536]
    dtype: "TensorDType.BFloat16"
  }
}

layer{
  type: "PlaceholderOp"
  top: "arg85_1"
  layer_param{
    shape: [1536]
    dtype: "TensorDType.BFloat16"
  }
}

layer{
  type: "PlaceholderOp"
  top: "arg86_1"
  layer_param{
    shape: [1536]
    dtype: "TensorDType.BFloat16"
  }
}

layer{
  type: "PlaceholderOp"
  top: "arg87_1"
  layer_param{
    shape: [1536]
    dtype: "TensorDType.BFloat16"
  }
}

layer{
  type: "PlaceholderOp"
  top: "arg88_1"
  layer_param{
    shape: [1536]
    dtype: "TensorDType.BFloat16"
  }
}

layer{
  type: "PlaceholderOp"
  top: "arg89_1"
  layer_param{
    shape: [1536]
    dtype: "TensorDType.BFloat16"
  }
}

layer{
  type: "PlaceholderOp"
  top: "arg90_1"
  layer_param{
    shape: [1536]
    dtype: "TensorDType.BFloat16"
  }
}

layer{
  type: "PlaceholderOp"
  top: "arg91_1"
  layer_param{
    shape: [1536]
    dtype: "TensorDType.BFloat16"
  }
}

layer{
  type: "PlaceholderOp"
  top: "arg92_1"
  layer_param{
    shape: [1536]
    dtype: "TensorDType.BFloat16"
  }
}

layer{
  type: "PlaceholderOp"
  top: "arg93_1"
  layer_param{
    shape: [1536]
    dtype: "TensorDType.BFloat16"
  }
}

layer{
  type: "PlaceholderOp"
  top: "arg94_1"
  layer_param{
    shape: [1536]
    dtype: "TensorDType.BFloat16"
  }
}

layer{
  type: "PlaceholderOp"
  top: "arg95_1"
  layer_param{
    shape: [1536]
    dtype: "TensorDType.BFloat16"
  }
}

layer{
  type: "PlaceholderOp"
  top: "arg96_1"
  layer_param{
    shape: [1536]
    dtype: "TensorDType.BFloat16"
  }
}

layer{
  type: "PlaceholderOp"
  top: "arg97_1"
  layer_param{
    shape: [1536]
    dtype: "TensorDType.BFloat16"
  }
}

layer{
  type: "PlaceholderOp"
  top: "arg98_1"
  layer_param{
    shape: [1536]
    dtype: "TensorDType.BFloat16"
  }
}

layer{
  type: "PlaceholderOp"
  top: "arg99_1"
  layer_param{
    shape: [1536]
    dtype: "TensorDType.BFloat16"
  }
}

layer{
  type: "PlaceholderOp"
  top: "arg100_1"
  layer_param{
    shape: [1536]
    dtype: "TensorDType.BFloat16"
  }
}

layer{
  type: "PlaceholderOp"
  top: "arg101_1"
  layer_param{
    shape: [1536]
    dtype: "TensorDType.BFloat16"
  }
}

layer{
  type: "PlaceholderOp"
  top: "arg102_1"
  layer_param{
    shape: [1536]
    dtype: "TensorDType.BFloat16"
  }
}

layer{
  type: "PlaceholderOp"
  top: "arg103_1"
  layer_param{
    shape: [1536]
    dtype: "TensorDType.BFloat16"
  }
}

layer{
  type: "PlaceholderOp"
  top: "arg104_1"
  layer_param{
    shape: [1536]
    dtype: "TensorDType.BFloat16"
  }
}

layer{
  type: "PlaceholderOp"
  top: "arg105_1"
  layer_param{
    shape: [73440, 1536]
    dtype: "TensorDType.BFloat16"
  }
}

layer{
  type: "PlaceholderOp"
  top: "arg106_1"
  layer_param{
    shape: [1536, 1536]
    dtype: "TensorDType.BFloat16"
  }
}

layer{
  type: "PlaceholderOp"
  top: "arg107_1"
  layer_param{
    shape: [512, 1536]
    dtype: "TensorDType.BFloat16"
  }
}

layer{
  type: "PlaceholderOp"
  top: "arg108_1"
  layer_param{
    shape: [512, 1536]
    dtype: "TensorDType.BFloat16"
  }
}

layer{
  type: "PlaceholderOp"
  top: "arg109_1"
  layer_param{
    shape: [1536, 1536]
    dtype: "TensorDType.BFloat16"
  }
}

layer{
  type: "PlaceholderOp"
  top: "arg110_1"
  layer_param{
    shape: [3840, 1536]
    dtype: "TensorDType.BFloat16"
  }
}

layer{
  type: "PlaceholderOp"
  top: "arg111_1"
  layer_param{
    shape: [3840, 1536]
    dtype: "TensorDType.BFloat16"
  }
}

layer{
  type: "PlaceholderOp"
  top: "arg112_1"
  layer_param{
    shape: [1536, 3840]
    dtype: "TensorDType.BFloat16"
  }
}

layer{
  type: "PlaceholderOp"
  top: "arg113_1"
  layer_param{
    shape: [1536, 1536]
    dtype: "TensorDType.BFloat16"
  }
}

layer{
  type: "PlaceholderOp"
  top: "arg114_1"
  layer_param{
    shape: [512, 1536]
    dtype: "TensorDType.BFloat16"
  }
}

layer{
  type: "PlaceholderOp"
  top: "arg115_1"
  layer_param{
    shape: [512, 1536]
    dtype: "TensorDType.BFloat16"
  }
}

layer{
  type: "PlaceholderOp"
  top: "arg116_1"
  layer_param{
    shape: [1536, 1536]
    dtype: "TensorDType.BFloat16"
  }
}

layer{
  type: "PlaceholderOp"
  top: "arg117_1"
  layer_param{
    shape: [3840, 1536]
    dtype: "TensorDType.BFloat16"
  }
}

layer{
  type: "PlaceholderOp"
  top: "arg118_1"
  layer_param{
    shape: [3840, 1536]
    dtype: "TensorDType.BFloat16"
  }
}

layer{
  type: "PlaceholderOp"
  top: "arg119_1"
  layer_param{
    shape: [1536, 3840]
    dtype: "TensorDType.BFloat16"
  }
}

layer{
  type: "PlaceholderOp"
  top: "arg120_1"
  layer_param{
    shape: [1536, 1536]
    dtype: "TensorDType.BFloat16"
  }
}

layer{
  type: "PlaceholderOp"
  top: "arg121_1"
  layer_param{
    shape: [512, 1536]
    dtype: "TensorDType.BFloat16"
  }
}

layer{
  type: "PlaceholderOp"
  top: "arg122_1"
  layer_param{
    shape: [512, 1536]
    dtype: "TensorDType.BFloat16"
  }
}

layer{
  type: "PlaceholderOp"
  top: "arg123_1"
  layer_param{
    shape: [1536, 1536]
    dtype: "TensorDType.BFloat16"
  }
}

layer{
  type: "PlaceholderOp"
  top: "arg124_1"
  layer_param{
    shape: [3840, 1536]
    dtype: "TensorDType.BFloat16"
  }
}

layer{
  type: "PlaceholderOp"
  top: "arg125_1"
  layer_param{
    shape: [3840, 1536]
    dtype: "TensorDType.BFloat16"
  }
}

layer{
  type: "PlaceholderOp"
  top: "arg126_1"
  layer_param{
    shape: [1536, 3840]
    dtype: "TensorDType.BFloat16"
  }
}

layer{
  type: "PlaceholderOp"
  top: "arg127_1"
  layer_param{
    shape: [1536, 1536]
    dtype: "TensorDType.BFloat16"
  }
}

layer{
  type: "PlaceholderOp"
  top: "arg128_1"
  layer_param{
    shape: [512, 1536]
    dtype: "TensorDType.BFloat16"
  }
}

layer{
  type: "PlaceholderOp"
  top: "arg129_1"
  layer_param{
    shape: [512, 1536]
    dtype: "TensorDType.BFloat16"
  }
}

layer{
  type: "PlaceholderOp"
  top: "arg130_1"
  layer_param{
    shape: [1536, 1536]
    dtype: "TensorDType.BFloat16"
  }
}

layer{
  type: "PlaceholderOp"
  top: "arg131_1"
  layer_param{
    shape: [3840, 1536]
    dtype: "TensorDType.BFloat16"
  }
}

layer{
  type: "PlaceholderOp"
  top: "arg132_1"
  layer_param{
    shape: [3840, 1536]
    dtype: "TensorDType.BFloat16"
  }
}

layer{
  type: "PlaceholderOp"
  top: "arg133_1"
  layer_param{
    shape: [1536, 3840]
    dtype: "TensorDType.BFloat16"
  }
}

layer{
  type: "PlaceholderOp"
  top: "arg134_1"
  layer_param{
    shape: [1536, 1536]
    dtype: "TensorDType.BFloat16"
  }
}

layer{
  type: "PlaceholderOp"
  top: "arg135_1"
  layer_param{
    shape: [512, 1536]
    dtype: "TensorDType.BFloat16"
  }
}

layer{
  type: "PlaceholderOp"
  top: "arg136_1"
  layer_param{
    shape: [512, 1536]
    dtype: "TensorDType.BFloat16"
  }
}

layer{
  type: "PlaceholderOp"
  top: "arg137_1"
  layer_param{
    shape: [1536, 1536]
    dtype: "TensorDType.BFloat16"
  }
}

layer{
  type: "PlaceholderOp"
  top: "arg138_1"
  layer_param{
    shape: [3840, 1536]
    dtype: "TensorDType.BFloat16"
  }
}

layer{
  type: "PlaceholderOp"
  top: "arg139_1"
  layer_param{
    shape: [3840, 1536]
    dtype: "TensorDType.BFloat16"
  }
}

layer{
  type: "PlaceholderOp"
  top: "arg140_1"
  layer_param{
    shape: [1536, 3840]
    dtype: "TensorDType.BFloat16"
  }
}

layer{
  type: "PlaceholderOp"
  top: "arg141_1"
  layer_param{
    shape: [1536, 1536]
    dtype: "TensorDType.BFloat16"
  }
}

layer{
  type: "PlaceholderOp"
  top: "arg142_1"
  layer_param{
    shape: [512, 1536]
    dtype: "TensorDType.BFloat16"
  }
}

layer{
  type: "PlaceholderOp"
  top: "arg143_1"
  layer_param{
    shape: [512, 1536]
    dtype: "TensorDType.BFloat16"
  }
}

layer{
  type: "PlaceholderOp"
  top: "arg144_1"
  layer_param{
    shape: [1536, 1536]
    dtype: "TensorDType.BFloat16"
  }
}

layer{
  type: "PlaceholderOp"
  top: "arg145_1"
  layer_param{
    shape: [3840, 1536]
    dtype: "TensorDType.BFloat16"
  }
}

layer{
  type: "PlaceholderOp"
  top: "arg146_1"
  layer_param{
    shape: [3840, 1536]
    dtype: "TensorDType.BFloat16"
  }
}

layer{
  type: "PlaceholderOp"
  top: "arg147_1"
  layer_param{
    shape: [1536, 3840]
    dtype: "TensorDType.BFloat16"
  }
}

layer{
  type: "PlaceholderOp"
  top: "arg148_1"
  layer_param{
    shape: [1536, 1536]
    dtype: "TensorDType.BFloat16"
  }
}

layer{
  type: "PlaceholderOp"
  top: "arg149_1"
  layer_param{
    shape: [512, 1536]
    dtype: "TensorDType.BFloat16"
  }
}

layer{
  type: "PlaceholderOp"
  top: "arg150_1"
  layer_param{
    shape: [512, 1536]
    dtype: "TensorDType.BFloat16"
  }
}

layer{
  type: "PlaceholderOp"
  top: "arg151_1"
  layer_param{
    shape: [1536, 1536]
    dtype: "TensorDType.BFloat16"
  }
}

layer{
  type: "PlaceholderOp"
  top: "arg152_1"
  layer_param{
    shape: [3840, 1536]
    dtype: "TensorDType.BFloat16"
  }
}

layer{
  type: "PlaceholderOp"
  top: "arg153_1"
  layer_param{
    shape: [3840, 1536]
    dtype: "TensorDType.BFloat16"
  }
}

layer{
  type: "PlaceholderOp"
  top: "arg154_1"
  layer_param{
    shape: [1536, 3840]
    dtype: "TensorDType.BFloat16"
  }
}

layer{
  type: "PlaceholderOp"
  top: "arg155_1"
  layer_param{
    shape: [1536, 1536]
    dtype: "TensorDType.BFloat16"
  }
}

layer{
  type: "PlaceholderOp"
  top: "arg156_1"
  layer_param{
    shape: [512, 1536]
    dtype: "TensorDType.BFloat16"
  }
}

layer{
  type: "PlaceholderOp"
  top: "arg157_1"
  layer_param{
    shape: [512, 1536]
    dtype: "TensorDType.BFloat16"
  }
}

layer{
  type: "PlaceholderOp"
  top: "arg158_1"
  layer_param{
    shape: [1536, 1536]
    dtype: "TensorDType.BFloat16"
  }
}

layer{
  type: "PlaceholderOp"
  top: "arg159_1"
  layer_param{
    shape: [3840, 1536]
    dtype: "TensorDType.BFloat16"
  }
}

layer{
  type: "PlaceholderOp"
  top: "arg160_1"
  layer_param{
    shape: [3840, 1536]
    dtype: "TensorDType.BFloat16"
  }
}

layer{
  type: "PlaceholderOp"
  top: "arg161_1"
  layer_param{
    shape: [1536, 3840]
    dtype: "TensorDType.BFloat16"
  }
}

layer{
  type: "PlaceholderOp"
  top: "arg162_1"
  layer_param{
    shape: [1536, 1536]
    dtype: "TensorDType.BFloat16"
  }
}

layer{
  type: "PlaceholderOp"
  top: "arg163_1"
  layer_param{
    shape: [512, 1536]
    dtype: "TensorDType.BFloat16"
  }
}

layer{
  type: "PlaceholderOp"
  top: "arg164_1"
  layer_param{
    shape: [512, 1536]
    dtype: "TensorDType.BFloat16"
  }
}

layer{
  type: "PlaceholderOp"
  top: "arg165_1"
  layer_param{
    shape: [1536, 1536]
    dtype: "TensorDType.BFloat16"
  }
}

layer{
  type: "PlaceholderOp"
  top: "arg166_1"
  layer_param{
    shape: [3840, 1536]
    dtype: "TensorDType.BFloat16"
  }
}

layer{
  type: "PlaceholderOp"
  top: "arg167_1"
  layer_param{
    shape: [3840, 1536]
    dtype: "TensorDType.BFloat16"
  }
}

layer{
  type: "PlaceholderOp"
  top: "arg168_1"
  layer_param{
    shape: [1536, 3840]
    dtype: "TensorDType.BFloat16"
  }
}

layer{
  type: "PlaceholderOp"
  top: "arg169_1"
  layer_param{
    shape: [1536, 1536]
    dtype: "TensorDType.BFloat16"
  }
}

layer{
  type: "PlaceholderOp"
  top: "arg170_1"
  layer_param{
    shape: [512, 1536]
    dtype: "TensorDType.BFloat16"
  }
}

layer{
  type: "PlaceholderOp"
  top: "arg171_1"
  layer_param{
    shape: [512, 1536]
    dtype: "TensorDType.BFloat16"
  }
}

layer{
  type: "PlaceholderOp"
  top: "arg172_1"
  layer_param{
    shape: [1536, 1536]
    dtype: "TensorDType.BFloat16"
  }
}

layer{
  type: "PlaceholderOp"
  top: "arg173_1"
  layer_param{
    shape: [3840, 1536]
    dtype: "TensorDType.BFloat16"
  }
}

layer{
  type: "PlaceholderOp"
  top: "arg174_1"
  layer_param{
    shape: [3840, 1536]
    dtype: "TensorDType.BFloat16"
  }
}

layer{
  type: "PlaceholderOp"
  top: "arg175_1"
  layer_param{
    shape: [1536, 3840]
    dtype: "TensorDType.BFloat16"
  }
}

layer{
  type: "PlaceholderOp"
  top: "arg176_1"
  layer_param{
    shape: [1536, 1536]
    dtype: "TensorDType.BFloat16"
  }
}

layer{
  type: "PlaceholderOp"
  top: "arg177_1"
  layer_param{
    shape: [512, 1536]
    dtype: "TensorDType.BFloat16"
  }
}

layer{
  type: "PlaceholderOp"
  top: "arg178_1"
  layer_param{
    shape: [512, 1536]
    dtype: "TensorDType.BFloat16"
  }
}

layer{
  type: "PlaceholderOp"
  top: "arg179_1"
  layer_param{
    shape: [1536, 1536]
    dtype: "TensorDType.BFloat16"
  }
}

layer{
  type: "PlaceholderOp"
  top: "arg180_1"
  layer_param{
    shape: [3840, 1536]
    dtype: "TensorDType.BFloat16"
  }
}

layer{
  type: "PlaceholderOp"
  top: "arg181_1"
  layer_param{
    shape: [3840, 1536]
    dtype: "TensorDType.BFloat16"
  }
}

layer{
  type: "PlaceholderOp"
  top: "arg182_1"
  layer_param{
    shape: [1536, 3840]
    dtype: "TensorDType.BFloat16"
  }
}

layer{
  type: "PlaceholderOp"
  top: "arg183_1"
  layer_param{
    shape: [1536, 1536]
    dtype: "TensorDType.BFloat16"
  }
}

layer{
  type: "PlaceholderOp"
  top: "arg184_1"
  layer_param{
    shape: [512, 1536]
    dtype: "TensorDType.BFloat16"
  }
}

layer{
  type: "PlaceholderOp"
  top: "arg185_1"
  layer_param{
    shape: [512, 1536]
    dtype: "TensorDType.BFloat16"
  }
}

layer{
  type: "PlaceholderOp"
  top: "arg186_1"
  layer_param{
    shape: [1536, 1536]
    dtype: "TensorDType.BFloat16"
  }
}

layer{
  type: "PlaceholderOp"
  top: "arg187_1"
  layer_param{
    shape: [3840, 1536]
    dtype: "TensorDType.BFloat16"
  }
}

layer{
  type: "PlaceholderOp"
  top: "arg188_1"
  layer_param{
    shape: [3840, 1536]
    dtype: "TensorDType.BFloat16"
  }
}

layer{
  type: "PlaceholderOp"
  top: "arg189_1"
  layer_param{
    shape: [1536, 3840]
    dtype: "TensorDType.BFloat16"
  }
}

layer{
  type: "PlaceholderOp"
  top: "arg190_1"
  layer_param{
    shape: [1536, 1536]
    dtype: "TensorDType.BFloat16"
  }
}

layer{
  type: "PlaceholderOp"
  top: "arg191_1"
  layer_param{
    shape: [512, 1536]
    dtype: "TensorDType.BFloat16"
  }
}

layer{
  type: "PlaceholderOp"
  top: "arg192_1"
  layer_param{
    shape: [512, 1536]
    dtype: "TensorDType.BFloat16"
  }
}

layer{
  type: "PlaceholderOp"
  top: "arg193_1"
  layer_param{
    shape: [1536, 1536]
    dtype: "TensorDType.BFloat16"
  }
}

layer{
  type: "PlaceholderOp"
  top: "arg194_1"
  layer_param{
    shape: [3840, 1536]
    dtype: "TensorDType.BFloat16"
  }
}

layer{
  type: "PlaceholderOp"
  top: "arg195_1"
  layer_param{
    shape: [3840, 1536]
    dtype: "TensorDType.BFloat16"
  }
}

layer{
  type: "PlaceholderOp"
  top: "arg196_1"
  layer_param{
    shape: [1536, 3840]
    dtype: "TensorDType.BFloat16"
  }
}

layer{
  type: "PlaceholderOp"
  top: "arg197_1"
  layer_param{
    shape: [1536, 1536]
    dtype: "TensorDType.BFloat16"
  }
}

layer{
  type: "PlaceholderOp"
  top: "arg198_1"
  layer_param{
    shape: [512, 1536]
    dtype: "TensorDType.BFloat16"
  }
}

layer{
  type: "PlaceholderOp"
  top: "arg199_1"
  layer_param{
    shape: [512, 1536]
    dtype: "TensorDType.BFloat16"
  }
}

layer{
  type: "PlaceholderOp"
  top: "arg200_1"
  layer_param{
    shape: [1536, 1536]
    dtype: "TensorDType.BFloat16"
  }
}

layer{
  type: "PlaceholderOp"
  top: "arg201_1"
  layer_param{
    shape: [3840, 1536]
    dtype: "TensorDType.BFloat16"
  }
}

layer{
  type: "PlaceholderOp"
  top: "arg202_1"
  layer_param{
    shape: [3840, 1536]
    dtype: "TensorDType.BFloat16"
  }
}

layer{
  type: "PlaceholderOp"
  top: "arg203_1"
  layer_param{
    shape: [1536, 3840]
    dtype: "TensorDType.BFloat16"
  }
}

layer{
  type: "PlaceholderOp"
  top: "arg204_1"
  layer_param{
    shape: [1536, 1536]
    dtype: "TensorDType.BFloat16"
  }
}

layer{
  type: "PlaceholderOp"
  top: "arg205_1"
  layer_param{
    shape: [512, 1536]
    dtype: "TensorDType.BFloat16"
  }
}

layer{
  type: "PlaceholderOp"
  top: "arg206_1"
  layer_param{
    shape: [512, 1536]
    dtype: "TensorDType.BFloat16"
  }
}

layer{
  type: "PlaceholderOp"
  top: "arg207_1"
  layer_param{
    shape: [1536, 1536]
    dtype: "TensorDType.BFloat16"
  }
}

layer{
  type: "PlaceholderOp"
  top: "arg208_1"
  layer_param{
    shape: [3840, 1536]
    dtype: "TensorDType.BFloat16"
  }
}

layer{
  type: "PlaceholderOp"
  top: "arg209_1"
  layer_param{
    shape: [3840, 1536]
    dtype: "TensorDType.BFloat16"
  }
}

layer{
  type: "PlaceholderOp"
  top: "arg210_1"
  layer_param{
    shape: [1536, 3840]
    dtype: "TensorDType.BFloat16"
  }
}

layer{
  type: "PlaceholderOp"
  top: "arg211_1"
  layer_param{
    shape: [1536, 1536]
    dtype: "TensorDType.BFloat16"
  }
}

layer{
  type: "PlaceholderOp"
  top: "arg212_1"
  layer_param{
    shape: [512, 1536]
    dtype: "TensorDType.BFloat16"
  }
}

layer{
  type: "PlaceholderOp"
  top: "arg213_1"
  layer_param{
    shape: [512, 1536]
    dtype: "TensorDType.BFloat16"
  }
}

layer{
  type: "PlaceholderOp"
  top: "arg214_1"
  layer_param{
    shape: [1536, 1536]
    dtype: "TensorDType.BFloat16"
  }
}

layer{
  type: "PlaceholderOp"
  top: "arg215_1"
  layer_param{
    shape: [3840, 1536]
    dtype: "TensorDType.BFloat16"
  }
}

layer{
  type: "PlaceholderOp"
  top: "arg216_1"
  layer_param{
    shape: [3840, 1536]
    dtype: "TensorDType.BFloat16"
  }
}

layer{
  type: "PlaceholderOp"
  top: "arg217_1"
  layer_param{
    shape: [1536, 3840]
    dtype: "TensorDType.BFloat16"
  }
}

layer{
  type: "PlaceholderOp"
  top: "arg218_1"
  layer_param{
    shape: [1536, 1536]
    dtype: "TensorDType.BFloat16"
  }
}

layer{
  type: "PlaceholderOp"
  top: "arg219_1"
  layer_param{
    shape: [512, 1536]
    dtype: "TensorDType.BFloat16"
  }
}

layer{
  type: "PlaceholderOp"
  top: "arg220_1"
  layer_param{
    shape: [512, 1536]
    dtype: "TensorDType.BFloat16"
  }
}

layer{
  type: "PlaceholderOp"
  top: "arg221_1"
  layer_param{
    shape: [1536, 1536]
    dtype: "TensorDType.BFloat16"
  }
}

layer{
  type: "PlaceholderOp"
  top: "arg222_1"
  layer_param{
    shape: [3840, 1536]
    dtype: "TensorDType.BFloat16"
  }
}

layer{
  type: "PlaceholderOp"
  top: "arg223_1"
  layer_param{
    shape: [3840, 1536]
    dtype: "TensorDType.BFloat16"
  }
}

layer{
  type: "PlaceholderOp"
  top: "arg224_1"
  layer_param{
    shape: [1536, 3840]
    dtype: "TensorDType.BFloat16"
  }
}

layer{
  type: "PlaceholderOp"
  top: "arg225_1"
  layer_param{
    shape: [1536, 1536]
    dtype: "TensorDType.BFloat16"
  }
}

layer{
  type: "PlaceholderOp"
  top: "arg226_1"
  layer_param{
    shape: [512, 1536]
    dtype: "TensorDType.BFloat16"
  }
}

layer{
  type: "PlaceholderOp"
  top: "arg227_1"
  layer_param{
    shape: [512, 1536]
    dtype: "TensorDType.BFloat16"
  }
}

layer{
  type: "PlaceholderOp"
  top: "arg228_1"
  layer_param{
    shape: [1536, 1536]
    dtype: "TensorDType.BFloat16"
  }
}

layer{
  type: "PlaceholderOp"
  top: "arg229_1"
  layer_param{
    shape: [3840, 1536]
    dtype: "TensorDType.BFloat16"
  }
}

layer{
  type: "PlaceholderOp"
  top: "arg230_1"
  layer_param{
    shape: [3840, 1536]
    dtype: "TensorDType.BFloat16"
  }
}

layer{
  type: "PlaceholderOp"
  top: "arg231_1"
  layer_param{
    shape: [1536, 3840]
    dtype: "TensorDType.BFloat16"
  }
}

layer{
  type: "PlaceholderOp"
  top: "arg232_1"
  layer_param{
    shape: [1536, 1536]
    dtype: "TensorDType.BFloat16"
  }
}

layer{
  type: "PlaceholderOp"
  top: "arg233_1"
  layer_param{
    shape: [512, 1536]
    dtype: "TensorDType.BFloat16"
  }
}

layer{
  type: "PlaceholderOp"
  top: "arg234_1"
  layer_param{
    shape: [512, 1536]
    dtype: "TensorDType.BFloat16"
  }
}

layer{
  type: "PlaceholderOp"
  top: "arg235_1"
  layer_param{
    shape: [1536, 1536]
    dtype: "TensorDType.BFloat16"
  }
}

layer{
  type: "PlaceholderOp"
  top: "arg236_1"
  layer_param{
    shape: [3840, 1536]
    dtype: "TensorDType.BFloat16"
  }
}

layer{
  type: "PlaceholderOp"
  top: "arg237_1"
  layer_param{
    shape: [3840, 1536]
    dtype: "TensorDType.BFloat16"
  }
}

layer{
  type: "PlaceholderOp"
  top: "arg238_1"
  layer_param{
    shape: [1536, 3840]
    dtype: "TensorDType.BFloat16"
  }
}

layer{
  type: "PlaceholderOp"
  top: "arg239_1"
  layer_param{
    shape: [1536, 1536]
    dtype: "TensorDType.BFloat16"
  }
}

layer{
  type: "PlaceholderOp"
  top: "arg240_1"
  layer_param{
    shape: [512, 1536]
    dtype: "TensorDType.BFloat16"
  }
}

layer{
  type: "PlaceholderOp"
  top: "arg241_1"
  layer_param{
    shape: [512, 1536]
    dtype: "TensorDType.BFloat16"
  }
}

layer{
  type: "PlaceholderOp"
  top: "arg242_1"
  layer_param{
    shape: [1536, 1536]
    dtype: "TensorDType.BFloat16"
  }
}

layer{
  type: "PlaceholderOp"
  top: "arg243_1"
  layer_param{
    shape: [3840, 1536]
    dtype: "TensorDType.BFloat16"
  }
}

layer{
  type: "PlaceholderOp"
  top: "arg244_1"
  layer_param{
    shape: [3840, 1536]
    dtype: "TensorDType.BFloat16"
  }
}

layer{
  type: "PlaceholderOp"
  top: "arg245_1"
  layer_param{
    shape: [1536, 3840]
    dtype: "TensorDType.BFloat16"
  }
}

layer{
  type: "PlaceholderOp"
  top: "arg246_1"
  layer_param{
    shape: [1536, 1536]
    dtype: "TensorDType.BFloat16"
  }
}

layer{
  type: "PlaceholderOp"
  top: "arg247_1"
  layer_param{
    shape: [512, 1536]
    dtype: "TensorDType.BFloat16"
  }
}

layer{
  type: "PlaceholderOp"
  top: "arg248_1"
  layer_param{
    shape: [512, 1536]
    dtype: "TensorDType.BFloat16"
  }
}

layer{
  type: "PlaceholderOp"
  top: "arg249_1"
  layer_param{
    shape: [1536, 1536]
    dtype: "TensorDType.BFloat16"
  }
}

layer{
  type: "PlaceholderOp"
  top: "arg250_1"
  layer_param{
    shape: [3840, 1536]
    dtype: "TensorDType.BFloat16"
  }
}

layer{
  type: "PlaceholderOp"
  top: "arg251_1"
  layer_param{
    shape: [3840, 1536]
    dtype: "TensorDType.BFloat16"
  }
}

layer{
  type: "PlaceholderOp"
  top: "arg252_1"
  layer_param{
    shape: [1536, 3840]
    dtype: "TensorDType.BFloat16"
  }
}

layer{
  type: "PlaceholderOp"
  top: "arg253_1"
  layer_param{
    shape: [1536, 1536]
    dtype: "TensorDType.BFloat16"
  }
}

layer{
  type: "PlaceholderOp"
  top: "arg254_1"
  layer_param{
    shape: [512, 1536]
    dtype: "TensorDType.BFloat16"
  }
}

layer{
  type: "PlaceholderOp"
  top: "arg255_1"
  layer_param{
    shape: [512, 1536]
    dtype: "TensorDType.BFloat16"
  }
}

layer{
  type: "PlaceholderOp"
  top: "arg256_1"
  layer_param{
    shape: [1536, 1536]
    dtype: "TensorDType.BFloat16"
  }
}

layer{
  type: "PlaceholderOp"
  top: "arg257_1"
  layer_param{
    shape: [3840, 1536]
    dtype: "TensorDType.BFloat16"
  }
}

layer{
  type: "PlaceholderOp"
  top: "arg258_1"
  layer_param{
    shape: [3840, 1536]
    dtype: "TensorDType.BFloat16"
  }
}

layer{
  type: "PlaceholderOp"
  top: "arg259_1"
  layer_param{
    shape: [1536, 3840]
    dtype: "TensorDType.BFloat16"
  }
}

layer{
  type: "PlaceholderOp"
  top: "arg260_1"
  layer_param{
    shape: [1536, 1536]
    dtype: "TensorDType.BFloat16"
  }
}

layer{
  type: "PlaceholderOp"
  top: "arg261_1"
  layer_param{
    shape: [512, 1536]
    dtype: "TensorDType.BFloat16"
  }
}

layer{
  type: "PlaceholderOp"
  top: "arg262_1"
  layer_param{
    shape: [512, 1536]
    dtype: "TensorDType.BFloat16"
  }
}

layer{
  type: "PlaceholderOp"
  top: "arg263_1"
  layer_param{
    shape: [1536, 1536]
    dtype: "TensorDType.BFloat16"
  }
}

layer{
  type: "PlaceholderOp"
  top: "arg264_1"
  layer_param{
    shape: [3840, 1536]
    dtype: "TensorDType.BFloat16"
  }
}

layer{
  type: "PlaceholderOp"
  top: "arg265_1"
  layer_param{
    shape: [3840, 1536]
    dtype: "TensorDType.BFloat16"
  }
}

layer{
  type: "PlaceholderOp"
  top: "arg266_1"
  layer_param{
    shape: [1536, 3840]
    dtype: "TensorDType.BFloat16"
  }
}

layer{
  type: "PlaceholderOp"
  top: "arg267_1"
  layer_param{
    shape: [1536, 1536]
    dtype: "TensorDType.BFloat16"
  }
}

layer{
  type: "PlaceholderOp"
  top: "arg268_1"
  layer_param{
    shape: [512, 1536]
    dtype: "TensorDType.BFloat16"
  }
}

layer{
  type: "PlaceholderOp"
  top: "arg269_1"
  layer_param{
    shape: [512, 1536]
    dtype: "TensorDType.BFloat16"
  }
}

layer{
  type: "PlaceholderOp"
  top: "arg270_1"
  layer_param{
    shape: [1536, 1536]
    dtype: "TensorDType.BFloat16"
  }
}

layer{
  type: "PlaceholderOp"
  top: "arg271_1"
  layer_param{
    shape: [3840, 1536]
    dtype: "TensorDType.BFloat16"
  }
}

layer{
  type: "PlaceholderOp"
  top: "arg272_1"
  layer_param{
    shape: [3840, 1536]
    dtype: "TensorDType.BFloat16"
  }
}

layer{
  type: "PlaceholderOp"
  top: "arg273_1"
  layer_param{
    shape: [1536, 3840]
    dtype: "TensorDType.BFloat16"
  }
}

layer{
  type: "PlaceholderOp"
  top: "arg274_1"
  layer_param{
    shape: [1536, 1536]
    dtype: "TensorDType.BFloat16"
  }
}

layer{
  type: "PlaceholderOp"
  top: "arg275_1"
  layer_param{
    shape: [512, 1536]
    dtype: "TensorDType.BFloat16"
  }
}

layer{
  type: "PlaceholderOp"
  top: "arg276_1"
  layer_param{
    shape: [512, 1536]
    dtype: "TensorDType.BFloat16"
  }
}

layer{
  type: "PlaceholderOp"
  top: "arg277_1"
  layer_param{
    shape: [1536, 1536]
    dtype: "TensorDType.BFloat16"
  }
}

layer{
  type: "PlaceholderOp"
  top: "arg278_1"
  layer_param{
    shape: [3840, 1536]
    dtype: "TensorDType.BFloat16"
  }
}

layer{
  type: "PlaceholderOp"
  top: "arg279_1"
  layer_param{
    shape: [3840, 1536]
    dtype: "TensorDType.BFloat16"
  }
}

layer{
  type: "PlaceholderOp"
  top: "arg280_1"
  layer_param{
    shape: [1536, 3840]
    dtype: "TensorDType.BFloat16"
  }
}

layer{
  type: "PlaceholderOp"
  top: "arg281_1"
  layer_param{
    shape: [1536, 1536]
    dtype: "TensorDType.BFloat16"
  }
}

layer{
  type: "PlaceholderOp"
  top: "arg282_1"
  layer_param{
    shape: [512, 1536]
    dtype: "TensorDType.BFloat16"
  }
}

layer{
  type: "PlaceholderOp"
  top: "arg283_1"
  layer_param{
    shape: [512, 1536]
    dtype: "TensorDType.BFloat16"
  }
}

layer{
  type: "PlaceholderOp"
  top: "arg284_1"
  layer_param{
    shape: [1536, 1536]
    dtype: "TensorDType.BFloat16"
  }
}

layer{
  type: "PlaceholderOp"
  top: "arg285_1"
  layer_param{
    shape: [3840, 1536]
    dtype: "TensorDType.BFloat16"
  }
}

layer{
  type: "PlaceholderOp"
  top: "arg286_1"
  layer_param{
    shape: [3840, 1536]
    dtype: "TensorDType.BFloat16"
  }
}

layer{
  type: "PlaceholderOp"
  top: "arg287_1"
  layer_param{
    shape: [1536, 3840]
    dtype: "TensorDType.BFloat16"
  }
}

layer{
  type: "PlaceholderOp"
  top: "arg288_1"
  layer_param{
    shape: [1536, 1536]
    dtype: "TensorDType.BFloat16"
  }
}

layer{
  type: "PlaceholderOp"
  top: "arg289_1"
  layer_param{
    shape: [512, 1536]
    dtype: "TensorDType.BFloat16"
  }
}

layer{
  type: "PlaceholderOp"
  top: "arg290_1"
  layer_param{
    shape: [512, 1536]
    dtype: "TensorDType.BFloat16"
  }
}

layer{
  type: "PlaceholderOp"
  top: "arg291_1"
  layer_param{
    shape: [1536, 1536]
    dtype: "TensorDType.BFloat16"
  }
}

layer{
  type: "PlaceholderOp"
  top: "arg292_1"
  layer_param{
    shape: [3840, 1536]
    dtype: "TensorDType.BFloat16"
  }
}

layer{
  type: "PlaceholderOp"
  top: "arg293_1"
  layer_param{
    shape: [3840, 1536]
    dtype: "TensorDType.BFloat16"
  }
}

layer{
  type: "PlaceholderOp"
  top: "arg294_1"
  layer_param{
    shape: [1536, 3840]
    dtype: "TensorDType.BFloat16"
  }
}

layer{
  type: "PlaceholderOp"
  top: "arg295_1"
  layer_param{
    shape: [1536, 1536]
    dtype: "TensorDType.BFloat16"
  }
}

layer{
  type: "PlaceholderOp"
  top: "arg296_1"
  layer_param{
    shape: [512, 1536]
    dtype: "TensorDType.BFloat16"
  }
}

layer{
  type: "PlaceholderOp"
  top: "arg297_1"
  layer_param{
    shape: [512, 1536]
    dtype: "TensorDType.BFloat16"
  }
}

layer{
  type: "PlaceholderOp"
  top: "arg298_1"
  layer_param{
    shape: [1536, 1536]
    dtype: "TensorDType.BFloat16"
  }
}

layer{
  type: "PlaceholderOp"
  top: "arg299_1"
  layer_param{
    shape: [3840, 1536]
    dtype: "TensorDType.BFloat16"
  }
}

layer{
  type: "PlaceholderOp"
  top: "arg300_1"
  layer_param{
    shape: [3840, 1536]
    dtype: "TensorDType.BFloat16"
  }
}

layer{
  type: "PlaceholderOp"
  top: "arg301_1"
  layer_param{
    shape: [1536, 3840]
    dtype: "TensorDType.BFloat16"
  }
}

layer{
  type: "PlaceholderOp"
  top: "arg302_1"
  layer_param{
    shape: [1536, 1536]
    dtype: "TensorDType.BFloat16"
  }
}

layer{
  type: "PlaceholderOp"
  top: "arg303_1"
  layer_param{
    shape: [512, 1536]
    dtype: "TensorDType.BFloat16"
  }
}

layer{
  type: "PlaceholderOp"
  top: "arg304_1"
  layer_param{
    shape: [512, 1536]
    dtype: "TensorDType.BFloat16"
  }
}

layer{
  type: "PlaceholderOp"
  top: "arg305_1"
  layer_param{
    shape: [1536, 1536]
    dtype: "TensorDType.BFloat16"
  }
}

layer{
  type: "PlaceholderOp"
  top: "arg306_1"
  layer_param{
    shape: [3840, 1536]
    dtype: "TensorDType.BFloat16"
  }
}

layer{
  type: "PlaceholderOp"
  top: "arg307_1"
  layer_param{
    shape: [3840, 1536]
    dtype: "TensorDType.BFloat16"
  }
}

layer{
  type: "PlaceholderOp"
  top: "arg308_1"
  layer_param{
    shape: [1536, 3840]
    dtype: "TensorDType.BFloat16"
  }
}

layer{
  type: "PlaceholderOp"
  top: "arg309_1"
  layer_param{
    shape: [1536, 1536]
    dtype: "TensorDType.BFloat16"
  }
}

layer{
  type: "PlaceholderOp"
  top: "arg310_1"
  layer_param{
    shape: [512, 1536]
    dtype: "TensorDType.BFloat16"
  }
}

layer{
  type: "PlaceholderOp"
  top: "arg311_1"
  layer_param{
    shape: [512, 1536]
    dtype: "TensorDType.BFloat16"
  }
}

layer{
  type: "PlaceholderOp"
  top: "arg312_1"
  layer_param{
    shape: [1536, 1536]
    dtype: "TensorDType.BFloat16"
  }
}

layer{
  type: "PlaceholderOp"
  top: "arg313_1"
  layer_param{
    shape: [3840, 1536]
    dtype: "TensorDType.BFloat16"
  }
}

layer{
  type: "PlaceholderOp"
  top: "arg314_1"
  layer_param{
    shape: [3840, 1536]
    dtype: "TensorDType.BFloat16"
  }
}

layer{
  type: "PlaceholderOp"
  top: "arg315_1"
  layer_param{
    shape: [1536, 3840]
    dtype: "TensorDType.BFloat16"
  }
}

layer{
  type: "PlaceholderOp"
  top: "arg316_1"
  layer_param{
    shape: [1536, 1536]
    dtype: "TensorDType.BFloat16"
  }
}

layer{
  type: "PlaceholderOp"
  top: "arg317_1"
  layer_param{
    shape: [512, 1536]
    dtype: "TensorDType.BFloat16"
  }
}

layer{
  type: "PlaceholderOp"
  top: "arg318_1"
  layer_param{
    shape: [512, 1536]
    dtype: "TensorDType.BFloat16"
  }
}

layer{
  type: "PlaceholderOp"
  top: "arg319_1"
  layer_param{
    shape: [1536, 1536]
    dtype: "TensorDType.BFloat16"
  }
}

layer{
  type: "PlaceholderOp"
  top: "arg320_1"
  layer_param{
    shape: [3840, 1536]
    dtype: "TensorDType.BFloat16"
  }
}

layer{
  type: "PlaceholderOp"
  top: "arg321_1"
  layer_param{
    shape: [3840, 1536]
    dtype: "TensorDType.BFloat16"
  }
}

layer{
  type: "PlaceholderOp"
  top: "arg322_1"
  layer_param{
    shape: [1536, 3840]
    dtype: "TensorDType.BFloat16"
  }
}

layer{
  type: "PlaceholderOp"
  top: "arg323_1"
  layer_param{
    shape: [1536, 1536]
    dtype: "TensorDType.BFloat16"
  }
}

layer{
  type: "PlaceholderOp"
  top: "arg324_1"
  layer_param{
    shape: [512, 1536]
    dtype: "TensorDType.BFloat16"
  }
}

layer{
  type: "PlaceholderOp"
  top: "arg325_1"
  layer_param{
    shape: [512, 1536]
    dtype: "TensorDType.BFloat16"
  }
}

layer{
  type: "PlaceholderOp"
  top: "arg326_1"
  layer_param{
    shape: [1536, 1536]
    dtype: "TensorDType.BFloat16"
  }
}

layer{
  type: "PlaceholderOp"
  top: "arg327_1"
  layer_param{
    shape: [3840, 1536]
    dtype: "TensorDType.BFloat16"
  }
}

layer{
  type: "PlaceholderOp"
  top: "arg328_1"
  layer_param{
    shape: [3840, 1536]
    dtype: "TensorDType.BFloat16"
  }
}

layer{
  type: "PlaceholderOp"
  top: "arg329_1"
  layer_param{
    shape: [1536, 3840]
    dtype: "TensorDType.BFloat16"
  }
}

layer{
  type: "PlaceholderOp"
  top: "arg330_1"
  layer_param{
    shape: [1536, 1536]
    dtype: "TensorDType.BFloat16"
  }
}

layer{
  type: "PlaceholderOp"
  top: "arg331_1"
  layer_param{
    shape: [512, 1536]
    dtype: "TensorDType.BFloat16"
  }
}

layer{
  type: "PlaceholderOp"
  top: "arg332_1"
  layer_param{
    shape: [512, 1536]
    dtype: "TensorDType.BFloat16"
  }
}

layer{
  type: "PlaceholderOp"
  top: "arg333_1"
  layer_param{
    shape: [1536, 1536]
    dtype: "TensorDType.BFloat16"
  }
}

layer{
  type: "PlaceholderOp"
  top: "arg334_1"
  layer_param{
    shape: [3840, 1536]
    dtype: "TensorDType.BFloat16"
  }
}

layer{
  type: "PlaceholderOp"
  top: "arg335_1"
  layer_param{
    shape: [3840, 1536]
    dtype: "TensorDType.BFloat16"
  }
}

layer{
  type: "PlaceholderOp"
  top: "arg336_1"
  layer_param{
    shape: [1536, 3840]
    dtype: "TensorDType.BFloat16"
  }
}

layer{
  type: "PlaceholderOp"
  top: "arg337_1"
  layer_param{
    shape: [1536, 1536]
    dtype: "TensorDType.BFloat16"
  }
}

layer{
  type: "PlaceholderOp"
  top: "arg338_1"
  layer_param{
    shape: [512, 1536]
    dtype: "TensorDType.BFloat16"
  }
}

layer{
  type: "PlaceholderOp"
  top: "arg339_1"
  layer_param{
    shape: [512, 1536]
    dtype: "TensorDType.BFloat16"
  }
}

layer{
  type: "PlaceholderOp"
  top: "arg340_1"
  layer_param{
    shape: [1536, 1536]
    dtype: "TensorDType.BFloat16"
  }
}

layer{
  type: "PlaceholderOp"
  top: "arg341_1"
  layer_param{
    shape: [3840, 1536]
    dtype: "TensorDType.BFloat16"
  }
}

layer{
  type: "PlaceholderOp"
  top: "arg342_1"
  layer_param{
    shape: [3840, 1536]
    dtype: "TensorDType.BFloat16"
  }
}

layer{
  type: "PlaceholderOp"
  top: "arg343_1"
  layer_param{
    shape: [1536, 3840]
    dtype: "TensorDType.BFloat16"
  }
}

layer{
  type: "PlaceholderOp"
  top: "arg344_1"
  layer_param{
    shape: [1536, 1536]
    dtype: "TensorDType.BFloat16"
  }
}

layer{
  type: "PlaceholderOp"
  top: "arg345_1"
  layer_param{
    shape: [512, 1536]
    dtype: "TensorDType.BFloat16"
  }
}

layer{
  type: "PlaceholderOp"
  top: "arg346_1"
  layer_param{
    shape: [512, 1536]
    dtype: "TensorDType.BFloat16"
  }
}

layer{
  type: "PlaceholderOp"
  top: "arg347_1"
  layer_param{
    shape: [1536, 1536]
    dtype: "TensorDType.BFloat16"
  }
}

layer{
  type: "PlaceholderOp"
  top: "arg348_1"
  layer_param{
    shape: [3840, 1536]
    dtype: "TensorDType.BFloat16"
  }
}

layer{
  type: "PlaceholderOp"
  top: "arg349_1"
  layer_param{
    shape: [3840, 1536]
    dtype: "TensorDType.BFloat16"
  }
}

layer{
  type: "PlaceholderOp"
  top: "arg350_1"
  layer_param{
    shape: [1536, 3840]
    dtype: "TensorDType.BFloat16"
  }
}

layer{
  type: "PlaceholderOp"
  top: "arg351_1"
  layer_param{
    shape: [1536, 1536]
    dtype: "TensorDType.BFloat16"
  }
}

layer{
  type: "PlaceholderOp"
  top: "arg352_1"
  layer_param{
    shape: [512, 1536]
    dtype: "TensorDType.BFloat16"
  }
}

layer{
  type: "PlaceholderOp"
  top: "arg353_1"
  layer_param{
    shape: [512, 1536]
    dtype: "TensorDType.BFloat16"
  }
}

layer{
  type: "PlaceholderOp"
  top: "arg354_1"
  layer_param{
    shape: [1536, 1536]
    dtype: "TensorDType.BFloat16"
  }
}

layer{
  type: "PlaceholderOp"
  top: "arg355_1"
  layer_param{
    shape: [3840, 1536]
    dtype: "TensorDType.BFloat16"
  }
}

layer{
  type: "PlaceholderOp"
  top: "arg356_1"
  layer_param{
    shape: [3840, 1536]
    dtype: "TensorDType.BFloat16"
  }
}

layer{
  type: "PlaceholderOp"
  top: "arg357_1"
  layer_param{
    shape: [1536, 3840]
    dtype: "TensorDType.BFloat16"
  }
}

layer{
  type: "PlaceholderOp"
  top: "arg358_1"
  layer_param{
    shape: [1536, 1536]
    dtype: "TensorDType.BFloat16"
  }
}

layer{
  type: "PlaceholderOp"
  top: "arg359_1"
  layer_param{
    shape: [512, 1536]
    dtype: "TensorDType.BFloat16"
  }
}

layer{
  type: "PlaceholderOp"
  top: "arg360_1"
  layer_param{
    shape: [512, 1536]
    dtype: "TensorDType.BFloat16"
  }
}

layer{
  type: "PlaceholderOp"
  top: "arg361_1"
  layer_param{
    shape: [1536, 1536]
    dtype: "TensorDType.BFloat16"
  }
}

layer{
  type: "PlaceholderOp"
  top: "arg362_1"
  layer_param{
    shape: [3840, 1536]
    dtype: "TensorDType.BFloat16"
  }
}

layer{
  type: "PlaceholderOp"
  top: "arg363_1"
  layer_param{
    shape: [3840, 1536]
    dtype: "TensorDType.BFloat16"
  }
}

layer{
  type: "PlaceholderOp"
  top: "arg364_1"
  layer_param{
    shape: [1536, 3840]
    dtype: "TensorDType.BFloat16"
  }
}

layer{
  type: "PlaceholderOp"
  top: "arg365_1"
  layer_param{
    shape: [1536, 1536]
    dtype: "TensorDType.BFloat16"
  }
}

layer{
  type: "PlaceholderOp"
  top: "arg366_1"
  layer_param{
    shape: [512, 1536]
    dtype: "TensorDType.BFloat16"
  }
}

layer{
  type: "PlaceholderOp"
  top: "arg367_1"
  layer_param{
    shape: [512, 1536]
    dtype: "TensorDType.BFloat16"
  }
}

layer{
  type: "PlaceholderOp"
  top: "arg368_1"
  layer_param{
    shape: [1536, 1536]
    dtype: "TensorDType.BFloat16"
  }
}

layer{
  type: "PlaceholderOp"
  top: "arg369_1"
  layer_param{
    shape: [3840, 1536]
    dtype: "TensorDType.BFloat16"
  }
}

layer{
  type: "PlaceholderOp"
  top: "arg370_1"
  layer_param{
    shape: [3840, 1536]
    dtype: "TensorDType.BFloat16"
  }
}

layer{
  type: "PlaceholderOp"
  top: "arg371_1"
  layer_param{
    shape: [1536, 3840]
    dtype: "TensorDType.BFloat16"
  }
}

layer{
  type: "PlaceholderOp"
  top: "arg372_1"
  layer_param{
    shape: [1536, 1536]
    dtype: "TensorDType.BFloat16"
  }
}

layer{
  type: "PlaceholderOp"
  top: "arg373_1"
  layer_param{
    shape: [512, 1536]
    dtype: "TensorDType.BFloat16"
  }
}

layer{
  type: "PlaceholderOp"
  top: "arg374_1"
  layer_param{
    shape: [512, 1536]
    dtype: "TensorDType.BFloat16"
  }
}

layer{
  type: "PlaceholderOp"
  top: "arg375_1"
  layer_param{
    shape: [1536, 1536]
    dtype: "TensorDType.BFloat16"
  }
}

layer{
  type: "PlaceholderOp"
  top: "arg376_1"
  layer_param{
    shape: [3840, 1536]
    dtype: "TensorDType.BFloat16"
  }
}

layer{
  type: "PlaceholderOp"
  top: "arg377_1"
  layer_param{
    shape: [3840, 1536]
    dtype: "TensorDType.BFloat16"
  }
}

layer{
  type: "PlaceholderOp"
  top: "arg378_1"
  layer_param{
    shape: [1536, 3840]
    dtype: "TensorDType.BFloat16"
  }
}

layer{
  type: "PlaceholderOp"
  top: "arg379_1"
  layer_param{
    shape: [1536, 1536]
    dtype: "TensorDType.BFloat16"
  }
}

layer{
  type: "PlaceholderOp"
  top: "arg380_1"
  layer_param{
    shape: [512, 1536]
    dtype: "TensorDType.BFloat16"
  }
}

layer{
  type: "PlaceholderOp"
  top: "arg381_1"
  layer_param{
    shape: [512, 1536]
    dtype: "TensorDType.BFloat16"
  }
}

layer{
  type: "PlaceholderOp"
  top: "arg382_1"
  layer_param{
    shape: [1536, 1536]
    dtype: "TensorDType.BFloat16"
  }
}

layer{
  type: "PlaceholderOp"
  top: "arg383_1"
  layer_param{
    shape: [3840, 1536]
    dtype: "TensorDType.BFloat16"
  }
}

layer{
  type: "PlaceholderOp"
  top: "arg384_1"
  layer_param{
    shape: [3840, 1536]
    dtype: "TensorDType.BFloat16"
  }
}

layer{
  type: "PlaceholderOp"
  top: "arg385_1"
  layer_param{
    shape: [1536, 3840]
    dtype: "TensorDType.BFloat16"
  }
}

layer{
  type: "PlaceholderOp"
  top: "arg386_1"
  layer_param{
    shape: [1536, 1536]
    dtype: "TensorDType.BFloat16"
  }
}

layer{
  type: "PlaceholderOp"
  top: "arg387_1"
  layer_param{
    shape: [512, 1536]
    dtype: "TensorDType.BFloat16"
  }
}

layer{
  type: "PlaceholderOp"
  top: "arg388_1"
  layer_param{
    shape: [512, 1536]
    dtype: "TensorDType.BFloat16"
  }
}

layer{
  type: "PlaceholderOp"
  top: "arg389_1"
  layer_param{
    shape: [1536, 1536]
    dtype: "TensorDType.BFloat16"
  }
}

layer{
  type: "PlaceholderOp"
  top: "arg390_1"
  layer_param{
    shape: [3840, 1536]
    dtype: "TensorDType.BFloat16"
  }
}

layer{
  type: "PlaceholderOp"
  top: "arg391_1"
  layer_param{
    shape: [3840, 1536]
    dtype: "TensorDType.BFloat16"
  }
}

layer{
  type: "PlaceholderOp"
  top: "arg392_1"
  layer_param{
    shape: [1536, 3840]
    dtype: "TensorDType.BFloat16"
  }
}

layer{
  type: "PlaceholderOp"
  top: "arg393_1"
  layer_param{
    shape: [1536, 1536]
    dtype: "TensorDType.BFloat16"
  }
}

layer{
  type: "PlaceholderOp"
  top: "arg394_1"
  layer_param{
    shape: [512, 1536]
    dtype: "TensorDType.BFloat16"
  }
}

layer{
  type: "PlaceholderOp"
  top: "arg395_1"
  layer_param{
    shape: [512, 1536]
    dtype: "TensorDType.BFloat16"
  }
}

layer{
  type: "PlaceholderOp"
  top: "arg396_1"
  layer_param{
    shape: [1536, 1536]
    dtype: "TensorDType.BFloat16"
  }
}

layer{
  type: "PlaceholderOp"
  top: "arg397_1"
  layer_param{
    shape: [3840, 1536]
    dtype: "TensorDType.BFloat16"
  }
}

layer{
  type: "PlaceholderOp"
  top: "arg398_1"
  layer_param{
    shape: [3840, 1536]
    dtype: "TensorDType.BFloat16"
  }
}

layer{
  type: "PlaceholderOp"
  top: "arg399_1"
  layer_param{
    shape: [1536, 3840]
    dtype: "TensorDType.BFloat16"
  }
}

layer{
  type: "PlaceholderOp"
  top: "arg400_1"
  layer_param{
    shape: [1536, 1536]
    dtype: "TensorDType.BFloat16"
  }
}

layer{
  type: "PlaceholderOp"
  top: "arg401_1"
  layer_param{
    shape: [512, 1536]
    dtype: "TensorDType.BFloat16"
  }
}

layer{
  type: "PlaceholderOp"
  top: "arg402_1"
  layer_param{
    shape: [512, 1536]
    dtype: "TensorDType.BFloat16"
  }
}

layer{
  type: "PlaceholderOp"
  top: "arg403_1"
  layer_param{
    shape: [1536, 1536]
    dtype: "TensorDType.BFloat16"
  }
}

layer{
  type: "PlaceholderOp"
  top: "arg404_1"
  layer_param{
    shape: [3840, 1536]
    dtype: "TensorDType.BFloat16"
  }
}

layer{
  type: "PlaceholderOp"
  top: "arg405_1"
  layer_param{
    shape: [3840, 1536]
    dtype: "TensorDType.BFloat16"
  }
}

layer{
  type: "PlaceholderOp"
  top: "arg406_1"
  layer_param{
    shape: [1536, 3840]
    dtype: "TensorDType.BFloat16"
  }
}

layer{
  type: "PlaceholderOp"
  top: "arg407_1"
  layer_param{
    shape: [1536, 1536]
    dtype: "TensorDType.BFloat16"
  }
}

layer{
  type: "PlaceholderOp"
  top: "arg408_1"
  layer_param{
    shape: [512, 1536]
    dtype: "TensorDType.BFloat16"
  }
}

layer{
  type: "PlaceholderOp"
  top: "arg409_1"
  layer_param{
    shape: [512, 1536]
    dtype: "TensorDType.BFloat16"
  }
}

layer{
  type: "PlaceholderOp"
  top: "arg410_1"
  layer_param{
    shape: [1536, 1536]
    dtype: "TensorDType.BFloat16"
  }
}

layer{
  type: "PlaceholderOp"
  top: "arg411_1"
  layer_param{
    shape: [3840, 1536]
    dtype: "TensorDType.BFloat16"
  }
}

layer{
  type: "PlaceholderOp"
  top: "arg412_1"
  layer_param{
    shape: [3840, 1536]
    dtype: "TensorDType.BFloat16"
  }
}

layer{
  type: "PlaceholderOp"
  top: "arg413_1"
  layer_param{
    shape: [1536, 3840]
    dtype: "TensorDType.BFloat16"
  }
}

layer{
  type: "PlaceholderOp"
  top: "arg414_1"
  layer_param{
    shape: [1536, 1536]
    dtype: "TensorDType.BFloat16"
  }
}

layer{
  type: "PlaceholderOp"
  top: "arg415_1"
  layer_param{
    shape: [512, 1536]
    dtype: "TensorDType.BFloat16"
  }
}

layer{
  type: "PlaceholderOp"
  top: "arg416_1"
  layer_param{
    shape: [512, 1536]
    dtype: "TensorDType.BFloat16"
  }
}

layer{
  type: "PlaceholderOp"
  top: "arg417_1"
  layer_param{
    shape: [1536, 1536]
    dtype: "TensorDType.BFloat16"
  }
}

layer{
  type: "PlaceholderOp"
  top: "arg418_1"
  layer_param{
    shape: [3840, 1536]
    dtype: "TensorDType.BFloat16"
  }
}

layer{
  type: "PlaceholderOp"
  top: "arg419_1"
  layer_param{
    shape: [3840, 1536]
    dtype: "TensorDType.BFloat16"
  }
}

layer{
  type: "PlaceholderOp"
  top: "arg420_1"
  layer_param{
    shape: [1536, 3840]
    dtype: "TensorDType.BFloat16"
  }
}

layer{
  type: "PlaceholderOp"
  top: "arg421_1"
  layer_param{
    shape: [1536, 1536]
    dtype: "TensorDType.BFloat16"
  }
}

layer{
  type: "PlaceholderOp"
  top: "arg422_1"
  layer_param{
    shape: [512, 1536]
    dtype: "TensorDType.BFloat16"
  }
}

layer{
  type: "PlaceholderOp"
  top: "arg423_1"
  layer_param{
    shape: [512, 1536]
    dtype: "TensorDType.BFloat16"
  }
}

layer{
  type: "PlaceholderOp"
  top: "arg424_1"
  layer_param{
    shape: [1536, 1536]
    dtype: "TensorDType.BFloat16"
  }
}

layer{
  type: "PlaceholderOp"
  top: "arg425_1"
  layer_param{
    shape: [3840, 1536]
    dtype: "TensorDType.BFloat16"
  }
}

layer{
  type: "PlaceholderOp"
  top: "arg426_1"
  layer_param{
    shape: [3840, 1536]
    dtype: "TensorDType.BFloat16"
  }
}

layer{
  type: "PlaceholderOp"
  top: "arg427_1"
  layer_param{
    shape: [1536, 3840]
    dtype: "TensorDType.BFloat16"
  }
}

layer{
  type: "PlaceholderOp"
  top: "arg428_1"
  layer_param{
    shape: [1536, 1536]
    dtype: "TensorDType.BFloat16"
  }
}

layer{
  type: "PlaceholderOp"
  top: "arg429_1"
  layer_param{
    shape: [512, 1536]
    dtype: "TensorDType.BFloat16"
  }
}

layer{
  type: "PlaceholderOp"
  top: "arg430_1"
  layer_param{
    shape: [512, 1536]
    dtype: "TensorDType.BFloat16"
  }
}

layer{
  type: "PlaceholderOp"
  top: "arg431_1"
  layer_param{
    shape: [1536, 1536]
    dtype: "TensorDType.BFloat16"
  }
}

layer{
  type: "PlaceholderOp"
  top: "arg432_1"
  layer_param{
    shape: [3840, 1536]
    dtype: "TensorDType.BFloat16"
  }
}

layer{
  type: "PlaceholderOp"
  top: "arg433_1"
  layer_param{
    shape: [3840, 1536]
    dtype: "TensorDType.BFloat16"
  }
}

layer{
  type: "PlaceholderOp"
  top: "arg434_1"
  layer_param{
    shape: [1536, 3840]
    dtype: "TensorDType.BFloat16"
  }
}

layer{
  type: "PlaceholderOp"
  top: "arg435_1"
  layer_param{
    shape: [1536, 1536]
    dtype: "TensorDType.BFloat16"
  }
}

layer{
  type: "PlaceholderOp"
  top: "arg436_1"
  layer_param{
    shape: [512, 1536]
    dtype: "TensorDType.BFloat16"
  }
}

layer{
  type: "PlaceholderOp"
  top: "arg437_1"
  layer_param{
    shape: [512, 1536]
    dtype: "TensorDType.BFloat16"
  }
}

layer{
  type: "PlaceholderOp"
  top: "arg438_1"
  layer_param{
    shape: [1536, 1536]
    dtype: "TensorDType.BFloat16"
  }
}

layer{
  type: "PlaceholderOp"
  top: "arg439_1"
  layer_param{
    shape: [3840, 1536]
    dtype: "TensorDType.BFloat16"
  }
}

layer{
  type: "PlaceholderOp"
  top: "arg440_1"
  layer_param{
    shape: [3840, 1536]
    dtype: "TensorDType.BFloat16"
  }
}

layer{
  type: "PlaceholderOp"
  top: "arg441_1"
  layer_param{
    shape: [1536, 3840]
    dtype: "TensorDType.BFloat16"
  }
}

layer{
  type: "PlaceholderOp"
  top: "arg442_1"
  layer_param{
    shape: [1536, 1536]
    dtype: "TensorDType.BFloat16"
  }
}

layer{
  type: "PlaceholderOp"
  top: "arg443_1"
  layer_param{
    shape: [512, 1536]
    dtype: "TensorDType.BFloat16"
  }
}

layer{
  type: "PlaceholderOp"
  top: "arg444_1"
  layer_param{
    shape: [512, 1536]
    dtype: "TensorDType.BFloat16"
  }
}

layer{
  type: "PlaceholderOp"
  top: "arg445_1"
  layer_param{
    shape: [1536, 1536]
    dtype: "TensorDType.BFloat16"
  }
}

layer{
  type: "PlaceholderOp"
  top: "arg446_1"
  layer_param{
    shape: [3840, 1536]
    dtype: "TensorDType.BFloat16"
  }
}

layer{
  type: "PlaceholderOp"
  top: "arg447_1"
  layer_param{
    shape: [3840, 1536]
    dtype: "TensorDType.BFloat16"
  }
}

layer{
  type: "PlaceholderOp"
  top: "arg448_1"
  layer_param{
    shape: [1536, 3840]
    dtype: "TensorDType.BFloat16"
  }
}

layer{
  type: "PlaceholderOp"
  top: "arg449_1"
  layer_param{
    shape: [1536, 1536]
    dtype: "TensorDType.BFloat16"
  }
}

layer{
  type: "PlaceholderOp"
  top: "arg450_1"
  layer_param{
    shape: [512, 1536]
    dtype: "TensorDType.BFloat16"
  }
}

layer{
  type: "PlaceholderOp"
  top: "arg451_1"
  layer_param{
    shape: [512, 1536]
    dtype: "TensorDType.BFloat16"
  }
}

layer{
  type: "PlaceholderOp"
  top: "arg452_1"
  layer_param{
    shape: [1536, 1536]
    dtype: "TensorDType.BFloat16"
  }
}

layer{
  type: "PlaceholderOp"
  top: "arg453_1"
  layer_param{
    shape: [3840, 1536]
    dtype: "TensorDType.BFloat16"
  }
}

layer{
  type: "PlaceholderOp"
  top: "arg454_1"
  layer_param{
    shape: [3840, 1536]
    dtype: "TensorDType.BFloat16"
  }
}

layer{
  type: "PlaceholderOp"
  top: "arg455_1"
  layer_param{
    shape: [1536, 3840]
    dtype: "TensorDType.BFloat16"
  }
}

layer{
  type: "PlaceholderOp"
  top: "arg456_1"
  layer_param{
    shape: [1536, 1536]
    dtype: "TensorDType.BFloat16"
  }
}

layer{
  type: "PlaceholderOp"
  top: "arg457_1"
  layer_param{
    shape: [512, 1536]
    dtype: "TensorDType.BFloat16"
  }
}

layer{
  type: "PlaceholderOp"
  top: "arg458_1"
  layer_param{
    shape: [512, 1536]
    dtype: "TensorDType.BFloat16"
  }
}

layer{
  type: "PlaceholderOp"
  top: "arg459_1"
  layer_param{
    shape: [1536, 1536]
    dtype: "TensorDType.BFloat16"
  }
}

layer{
  type: "PlaceholderOp"
  top: "arg460_1"
  layer_param{
    shape: [3840, 1536]
    dtype: "TensorDType.BFloat16"
  }
}

layer{
  type: "PlaceholderOp"
  top: "arg461_1"
  layer_param{
    shape: [3840, 1536]
    dtype: "TensorDType.BFloat16"
  }
}

layer{
  type: "PlaceholderOp"
  top: "arg462_1"
  layer_param{
    shape: [1536, 3840]
    dtype: "TensorDType.BFloat16"
  }
}

layer{
  type: "PlaceholderOp"
  top: "arg463_1"
  layer_param{
    shape: [1536, 1536]
    dtype: "TensorDType.BFloat16"
  }
}

layer{
  type: "PlaceholderOp"
  top: "arg464_1"
  layer_param{
    shape: [512, 1536]
    dtype: "TensorDType.BFloat16"
  }
}

layer{
  type: "PlaceholderOp"
  top: "arg465_1"
  layer_param{
    shape: [512, 1536]
    dtype: "TensorDType.BFloat16"
  }
}

layer{
  type: "PlaceholderOp"
  top: "arg466_1"
  layer_param{
    shape: [1536, 1536]
    dtype: "TensorDType.BFloat16"
  }
}

layer{
  type: "PlaceholderOp"
  top: "arg467_1"
  layer_param{
    shape: [3840, 1536]
    dtype: "TensorDType.BFloat16"
  }
}

layer{
  type: "PlaceholderOp"
  top: "arg468_1"
  layer_param{
    shape: [3840, 1536]
    dtype: "TensorDType.BFloat16"
  }
}

layer{
  type: "PlaceholderOp"
  top: "arg469_1"
  layer_param{
    shape: [1536, 3840]
    dtype: "TensorDType.BFloat16"
  }
}

layer{
  type: "PlaceholderOp"
  top: "arg470_1"
  layer_param{
    shape: [73440, 1536]
    dtype: "TensorDType.BFloat16"
  }
}

layer{
  type: "PlaceholderOp"
  top: "arg471_1"
  layer_param{
    shape: [4096, 64]
    dtype: "TensorDType.Float32"
  }
}

layer{
  type: "PlaceholderOp"
  top: "arg472_1"
  layer_param{
    shape: [4096, 64]
    dtype: "TensorDType.Float32"
  }
}

layer{
  type: "PlaceholderOp"
  top: "arg473_1"
  layer_param{
    shape: [4096, 64]
    dtype: "TensorDType.Float32"
  }
}

layer{
  type: "PlaceholderOp"
  top: "arg474_1"
  layer_param{
    shape: [4096, 64]
    dtype: "TensorDType.Float32"
  }
}

layer{
  type: "PlaceholderOp"
  top: "arg475_1"
  layer_param{
    shape: [4096, 64]
    dtype: "TensorDType.Float32"
  }
}

layer{
  type: "PlaceholderOp"
  top: "arg476_1"
  layer_param{
    shape: [4096, 64]
    dtype: "TensorDType.Float32"
  }
}

layer{
  type: "PlaceholderOp"
  top: "arg477_1"
  layer_param{
    shape: [4096, 64]
    dtype: "TensorDType.Float32"
  }
}

layer{
  type: "PlaceholderOp"
  top: "arg478_1"
  layer_param{
    shape: [4096, 64]
    dtype: "TensorDType.Float32"
  }
}

layer{
  type: "PlaceholderOp"
  top: "arg479_1"
  layer_param{
    shape: [4096, 64]
    dtype: "TensorDType.Float32"
  }
}

layer{
  type: "PlaceholderOp"
  top: "arg480_1"
  layer_param{
    shape: [4096, 64]
    dtype: "TensorDType.Float32"
  }
}

layer{
  type: "PlaceholderOp"
  top: "arg481_1"
  layer_param{
    shape: [4096, 64]
    dtype: "TensorDType.Float32"
  }
}

layer{
  type: "PlaceholderOp"
  top: "arg482_1"
  layer_param{
    shape: [4096, 64]
    dtype: "TensorDType.Float32"
  }
}

layer{
  type: "PlaceholderOp"
  top: "arg483_1"
  layer_param{
    shape: [4096, 64]
    dtype: "TensorDType.Float32"
  }
}

layer{
  type: "PlaceholderOp"
  top: "arg484_1"
  layer_param{
    shape: [4096, 64]
    dtype: "TensorDType.Float32"
  }
}

layer{
  type: "PlaceholderOp"
  top: "arg485_1"
  layer_param{
    shape: [4096, 64]
    dtype: "TensorDType.Float32"
  }
}

layer{
  type: "PlaceholderOp"
  top: "arg486_1"
  layer_param{
    shape: [4096, 64]
    dtype: "TensorDType.Float32"
  }
}

layer{
  type: "PlaceholderOp"
  top: "arg487_1"
  layer_param{
    shape: [4096, 64]
    dtype: "TensorDType.Float32"
  }
}

layer{
  type: "PlaceholderOp"
  top: "arg488_1"
  layer_param{
    shape: [4096, 64]
    dtype: "TensorDType.Float32"
  }
}

layer{
  type: "PlaceholderOp"
  top: "arg489_1"
  layer_param{
    shape: [4096, 64]
    dtype: "TensorDType.Float32"
  }
}

layer{
  type: "PlaceholderOp"
  top: "arg490_1"
  layer_param{
    shape: [4096, 64]
    dtype: "TensorDType.Float32"
  }
}

layer{
  type: "PlaceholderOp"
  top: "arg491_1"
  layer_param{
    shape: [4096, 64]
    dtype: "TensorDType.Float32"
  }
}

layer{
  type: "PlaceholderOp"
  top: "arg492_1"
  layer_param{
    shape: [4096, 64]
    dtype: "TensorDType.Float32"
  }
}

layer{
  type: "PlaceholderOp"
  top: "arg493_1"
  layer_param{
    shape: [4096, 64]
    dtype: "TensorDType.Float32"
  }
}

layer{
  type: "PlaceholderOp"
  top: "arg494_1"
  layer_param{
    shape: [4096, 64]
    dtype: "TensorDType.Float32"
  }
}

layer{
  type: "PlaceholderOp"
  top: "arg495_1"
  layer_param{
    shape: [4096, 64]
    dtype: "TensorDType.Float32"
  }
}

layer{
  type: "PlaceholderOp"
  top: "arg496_1"
  layer_param{
    shape: [4096, 64]
    dtype: "TensorDType.Float32"
  }
}

layer{
  type: "PlaceholderOp"
  top: "arg497_1"
  layer_param{
    shape: [4096, 64]
    dtype: "TensorDType.Float32"
  }
}

layer{
  type: "PlaceholderOp"
  top: "arg498_1"
  layer_param{
    shape: [4096, 64]
    dtype: "TensorDType.Float32"
  }
}

layer{
  type: "PlaceholderOp"
  top: "arg499_1"
  layer_param{
    shape: [4096, 64]
    dtype: "TensorDType.Float32"
  }
}

layer{
  type: "PlaceholderOp"
  top: "arg500_1"
  layer_param{
    shape: [4096, 64]
    dtype: "TensorDType.Float32"
  }
}

layer{
  type: "PlaceholderOp"
  top: "arg501_1"
  layer_param{
    shape: [4096, 64]
    dtype: "TensorDType.Float32"
  }
}

layer{
  type: "PlaceholderOp"
  top: "arg502_1"
  layer_param{
    shape: [4096, 64]
    dtype: "TensorDType.Float32"
  }
}

layer{
  type: "PlaceholderOp"
  top: "arg503_1"
  layer_param{
    shape: [4096, 64]
    dtype: "TensorDType.Float32"
  }
}

layer{
  type: "PlaceholderOp"
  top: "arg504_1"
  layer_param{
    shape: [4096, 64]
    dtype: "TensorDType.Float32"
  }
}

layer{
  type: "PlaceholderOp"
  top: "arg505_1"
  layer_param{
    shape: [4096, 64]
    dtype: "TensorDType.Float32"
  }
}

layer{
  type: "PlaceholderOp"
  top: "arg506_1"
  layer_param{
    shape: [4096, 64]
    dtype: "TensorDType.Float32"
  }
}

layer{
  type: "PlaceholderOp"
  top: "arg507_1"
  layer_param{
    shape: [4096, 64]
    dtype: "TensorDType.Float32"
  }
}

layer{
  type: "PlaceholderOp"
  top: "arg508_1"
  layer_param{
    shape: [4096, 64]
    dtype: "TensorDType.Float32"
  }
}

layer{
  type: "PlaceholderOp"
  top: "arg509_1"
  layer_param{
    shape: [4096, 64]
    dtype: "TensorDType.Float32"
  }
}

layer{
  type: "PlaceholderOp"
  top: "arg510_1"
  layer_param{
    shape: [4096, 64]
    dtype: "TensorDType.Float32"
  }
}

layer{
  type: "PlaceholderOp"
  top: "arg511_1"
  layer_param{
    shape: [4096, 64]
    dtype: "TensorDType.Float32"
  }
}

layer{
  type: "PlaceholderOp"
  top: "arg512_1"
  layer_param{
    shape: [4096, 64]
    dtype: "TensorDType.Float32"
  }
}

layer{
  type: "PlaceholderOp"
  top: "arg513_1"
  layer_param{
    shape: [4096, 64]
    dtype: "TensorDType.Float32"
  }
}

layer{
  type: "PlaceholderOp"
  top: "arg514_1"
  layer_param{
    shape: [4096, 64]
    dtype: "TensorDType.Float32"
  }
}

layer{
  type: "PlaceholderOp"
  top: "arg515_1"
  layer_param{
    shape: [4096, 64]
    dtype: "TensorDType.Float32"
  }
}

layer{
  type: "PlaceholderOp"
  top: "arg516_1"
  layer_param{
    shape: [4096, 64]
    dtype: "TensorDType.Float32"
  }
}

layer{
  type: "PlaceholderOp"
  top: "arg517_1"
  layer_param{
    shape: [4096, 64]
    dtype: "TensorDType.Float32"
  }
}

layer{
  type: "PlaceholderOp"
  top: "arg518_1"
  layer_param{
    shape: [4096, 64]
    dtype: "TensorDType.Float32"
  }
}

layer{
  type: "PlaceholderOp"
  top: "arg519_1"
  layer_param{
    shape: [4096, 64]
    dtype: "TensorDType.Float32"
  }
}

layer{
  type: "PlaceholderOp"
  top: "arg520_1"
  layer_param{
    shape: [4096, 64]
    dtype: "TensorDType.Float32"
  }
}

layer{
  type: "PlaceholderOp"
  top: "arg521_1"
  layer_param{
    shape: [4096, 64]
    dtype: "TensorDType.Float32"
  }
}

layer{
  type: "PlaceholderOp"
  top: "arg522_1"
  layer_param{
    shape: [4096, 64]
    dtype: "TensorDType.Float32"
  }
}

layer{
  type: "PlaceholderOp"
  top: "arg523_1"
  layer_param{
    shape: [4096, 64]
    dtype: "TensorDType.Float32"
  }
}

layer{
  type: "PlaceholderOp"
  top: "arg524_1"
  layer_param{
    shape: [4096, 64]
    dtype: "TensorDType.Float32"
  }
}

layer{
  type: "PlaceholderOp"
  top: "arg525_1"
  layer_param{
    shape: [4096, 64]
    dtype: "TensorDType.Float32"
  }
}

layer{
  type: "PlaceholderOp"
  top: "arg526_1"
  layer_param{
    shape: [4096, 64]
    dtype: "TensorDType.Float32"
  }
}

layer{
  type: "PlaceholderOp"
  top: "arg527_1"
  layer_param{
    shape: [4096, 64]
    dtype: "TensorDType.Float32"
  }
}

layer{
  type: "PlaceholderOp"
  top: "arg528_1"
  layer_param{
    shape: [4096, 64]
    dtype: "TensorDType.Float32"
  }
}

layer{
  type: "PlaceholderOp"
  top: "arg529_1"
  layer_param{
    shape: [4096, 64]
    dtype: "TensorDType.Float32"
  }
}

layer{
  type: "PlaceholderOp"
  top: "arg530_1"
  layer_param{
    shape: [4096, 64]
    dtype: "TensorDType.Float32"
  }
}

layer{
  type: "PlaceholderOp"
  top: "arg531_1"
  layer_param{
    shape: [4096, 64]
    dtype: "TensorDType.Float32"
  }
}

layer{
  type: "PlaceholderOp"
  top: "arg532_1"
  layer_param{
    shape: [4096, 64]
    dtype: "TensorDType.Float32"
  }
}

layer{
  type: "PlaceholderOp"
  top: "arg533_1"
  layer_param{
    shape: [4096, 64]
    dtype: "TensorDType.Float32"
  }
}

layer{
  type: "PlaceholderOp"
  top: "arg534_1"
  layer_param{
    shape: [4096, 64]
    dtype: "TensorDType.Float32"
  }
}

layer{
  type: "PlaceholderOp"
  top: "arg535_1"
  layer_param{
    shape: [4096, 64]
    dtype: "TensorDType.Float32"
  }
}

layer{
  type: "PlaceholderOp"
  top: "arg536_1"
  layer_param{
    shape: [4096, 64]
    dtype: "TensorDType.Float32"
  }
}

layer{
  type: "PlaceholderOp"
  top: "arg537_1"
  layer_param{
    shape: [4096, 64]
    dtype: "TensorDType.Float32"
  }
}

layer{
  type: "PlaceholderOp"
  top: "arg538_1"
  layer_param{
    shape: [4096, 64]
    dtype: "TensorDType.Float32"
  }
}

layer{
  type: "PlaceholderOp"
  top: "arg539_1"
  layer_param{
    shape: [4096, 64]
    dtype: "TensorDType.Float32"
  }
}

layer{
  type: "PlaceholderOp"
  top: "arg540_1"
  layer_param{
    shape: [4096, 64]
    dtype: "TensorDType.Float32"
  }
}

layer{
  type: "PlaceholderOp"
  top: "arg541_1"
  layer_param{
    shape: [4096, 64]
    dtype: "TensorDType.Float32"
  }
}

layer{
  type: "PlaceholderOp"
  top: "arg542_1"
  layer_param{
    shape: [4096, 64]
    dtype: "TensorDType.Float32"
  }
}

layer{
  type: "PlaceholderOp"
  top: "arg543_1"
  layer_param{
    shape: [4096, 64]
    dtype: "TensorDType.Float32"
  }
}

layer{
  type: "PlaceholderOp"
  top: "arg544_1"
  layer_param{
    shape: [4096, 64]
    dtype: "TensorDType.Float32"
  }
}

layer{
  type: "PlaceholderOp"
  top: "arg545_1"
  layer_param{
    shape: [4096, 64]
    dtype: "TensorDType.Float32"
  }
}

layer{
  type: "PlaceholderOp"
  top: "arg546_1"
  layer_param{
    shape: [4096, 64]
    dtype: "TensorDType.Float32"
  }
}

layer{
  type: "PlaceholderOp"
  top: "arg547_1"
  layer_param{
    shape: [4096, 64]
    dtype: "TensorDType.Float32"
  }
}

layer{
  type: "PlaceholderOp"
  top: "arg548_1"
  layer_param{
    shape: [4096, 64]
    dtype: "TensorDType.Float32"
  }
}

layer{
  type: "PlaceholderOp"
  top: "arg549_1"
  layer_param{
    shape: [4096, 64]
    dtype: "TensorDType.Float32"
  }
}

layer{
  type: "PlaceholderOp"
  top: "arg550_1"
  layer_param{
    shape: [4096, 64]
    dtype: "TensorDType.Float32"
  }
}

layer{
  type: "PlaceholderOp"
  top: "arg551_1"
  layer_param{
    shape: [4096, 64]
    dtype: "TensorDType.Float32"
  }
}

layer{
  type: "PlaceholderOp"
  top: "arg552_1"
  layer_param{
    shape: [4096, 64]
    dtype: "TensorDType.Float32"
  }
}

layer{
  type: "PlaceholderOp"
  top: "arg553_1"
  layer_param{
    shape: [4096, 64]
    dtype: "TensorDType.Float32"
  }
}

layer{
  type: "PlaceholderOp"
  top: "arg554_1"
  layer_param{
    shape: [4096, 64]
    dtype: "TensorDType.Float32"
  }
}

layer{
  type: "PlaceholderOp"
  top: "arg555_1"
  layer_param{
    shape: [4096, 64]
    dtype: "TensorDType.Float32"
  }
}

layer{
  type: "PlaceholderOp"
  top: "arg556_1"
  layer_param{
    shape: [4096, 64]
    dtype: "TensorDType.Float32"
  }
}

layer{
  type: "PlaceholderOp"
  top: "arg557_1"
  layer_param{
    shape: [4096, 64]
    dtype: "TensorDType.Float32"
  }
}

layer{
  type: "PlaceholderOp"
  top: "arg558_1"
  layer_param{
    shape: [4096, 64]
    dtype: "TensorDType.Float32"
  }
}

layer{
  type: "PlaceholderOp"
  top: "arg559_1"
  layer_param{
    shape: [4096, 64]
    dtype: "TensorDType.Float32"
  }
}

layer{
  type: "PlaceholderOp"
  top: "arg560_1"
  layer_param{
    shape: [4096, 64]
    dtype: "TensorDType.Float32"
  }
}

layer{
  type: "PlaceholderOp"
  top: "arg561_1"
  layer_param{
    shape: [4096, 64]
    dtype: "TensorDType.Float32"
  }
}

layer{
  type: "PlaceholderOp"
  top: "arg562_1"
  layer_param{
    shape: [4096, 64]
    dtype: "TensorDType.Float32"
  }
}

layer{
  type: "PlaceholderOp"
  top: "arg563_1"
  layer_param{
    shape: [4096, 64]
    dtype: "TensorDType.Float32"
  }
}

layer{
  type: "PlaceholderOp"
  top: "arg564_1"
  layer_param{
    shape: [4096, 64]
    dtype: "TensorDType.Float32"
  }
}

layer{
  type: "PlaceholderOp"
  top: "arg565_1"
  layer_param{
    shape: [4096, 64]
    dtype: "TensorDType.Float32"
  }
}

layer{
  type: "PlaceholderOp"
  top: "arg566_1"
  layer_param{
    shape: [4096, 64]
    dtype: "TensorDType.Float32"
  }
}

layer{
  type: "PlaceholderOp"
  top: "arg567_1"
  layer_param{
    shape: [4096, 64]
    dtype: "TensorDType.Float32"
  }
}

layer{
  type: "PlaceholderOp"
  top: "arg568_1"
  layer_param{
    shape: [4096, 64]
    dtype: "TensorDType.Float32"
  }
}

layer{
  type: "PlaceholderOp"
  top: "arg569_1"
  layer_param{
    shape: [4096, 64]
    dtype: "TensorDType.Float32"
  }
}

layer{
  type: "PlaceholderOp"
  top: "arg570_1"
  layer_param{
    shape: [4096, 64]
    dtype: "TensorDType.Float32"
  }
}

layer{
  type: "PlaceholderOp"
  top: "arg571_1"
  layer_param{
    shape: [4096, 64]
    dtype: "TensorDType.Float32"
  }
}

layer{
  type: "PlaceholderOp"
  top: "arg572_1"
  layer_param{
    shape: [4096, 64]
    dtype: "TensorDType.Float32"
  }
}

layer{
  type: "PlaceholderOp"
  top: "arg573_1"
  layer_param{
    shape: [4096, 64]
    dtype: "TensorDType.Float32"
  }
}

layer{
  type: "PlaceholderOp"
  top: "arg574_1"
  layer_param{
    shape: [4096, 64]
    dtype: "TensorDType.Float32"
  }
}

layer{
  type: "PlaceholderOp"
  top: "arg575_1"
  layer_param{
    shape: [1, 1024]
    dtype: "TensorDType.Int64"
  }
}

layer{
  type: "ArangeOp"
  top: "arange"
  layer_param{
    attr_0: 0
    attr_1: 1024
    shape: [1024]
    dtype: "TensorDType.Int64"
  }
}

layer{
  type: "UnsqueezeOp"
  top: "unsqueeze"
  bottom: "arange"
  layer_param{
    attr_0: 0
    shape: [1, 1024]
    dtype: "TensorDType.Int64"
  }
}

layer{
  type: "EmbeddingOp"
  top: "embedding"
  bottom: "arg105_1"
  bottom: "arg575_1"
  layer_param{
    shape: [1, 1024, 1536]
    dtype: "TensorDType.BFloat16"
  }
}

layer{
  type: "MulOp"
  top: "mul"
  bottom: "embedding"
  layer_param{
    attr_0: 12
    shape: [1, 1024, 1536]
    dtype: "TensorDType.BFloat16"
  }
}

layer{
  type: "FullOp"
  top: "full"
  layer_param{
    attr_0: [1024, 1024]
    attr_1: -3.3895313892515355e+38
    shape: [1024, 1024]
    dtype: "TensorDType.Float32"
  }
}

layer{
  type: "ArangeOp"
  top: "arange_1"
  layer_param{
    attr_0: 1024
    shape: [1024]
    dtype: "TensorDType.Int64"
  }
}

layer{
  type: "AddOp"
  top: "add"
  bottom: "arange_1"
  layer_param{
    attr_0: 1
    shape: [1024]
    dtype: "TensorDType.Int64"
  }
}

layer{
  type: "ViewOp"
  top: "view"
  bottom: "add"
  layer_param{
    attr_0: [1024, 1]
    shape: [1024, 1]
    dtype: "TensorDType.Int64"
  }
}

layer{
  type: "LessThanOp"
  top: "lt"
  bottom: "arange_1"
  bottom: "view"
  layer_param{
    shape: [1024, 1024]
    dtype: "TensorDType.Bool"
  }
}

layer{
  type: "MaskedFillOp"
  top: "masked_fill"
  bottom: "full"
  bottom: "lt"
  layer_param{
    attr_0: 0
    shape: [1024, 1024]
    dtype: "TensorDType.Float32"
  }
}

layer{
  type: "UnsqueezeOp"
  top: "unsqueeze_1"
  bottom: "masked_fill"
  layer_param{
    attr_0: 0
    shape: [1, 1024, 1024]
    dtype: "TensorDType.BFloat16"
  }
}

layer{
  type: "UnsqueezeOp"
  top: "unsqueeze_2"
  bottom: "unsqueeze_1"
  layer_param{
    attr_0: 1
    shape: [1, 1, 1024, 1024]
    dtype: "TensorDType.BFloat16"
  }
}

layer{
  type: "SliceOp"
  top: "slice_1"
  bottom: "unsqueeze_2"
  layer_param{
    attr_0: 2
    attr_1: 0
    attr_2: 9223372036854775807
    shape: [1, 1, 1024, 1024]
    dtype: "TensorDType.BFloat16"
  }
}

layer{
  type: "SliceOp"
  top: "slice_2"
  bottom: "slice_1"
  layer_param{
    attr_0: 3
    attr_1: 0
    attr_2: 9223372036854775807
    shape: [1, 1, 1024, 1024]
    dtype: "TensorDType.BFloat16"
  }
}

layer{
  type: "ExpandOp"
  top: "expand"
  bottom: "slice_2"
  layer_param{
    attr_0: [1, 1, 1024, 1024]
    shape: [1, 1, 1024, 1024]
    dtype: "TensorDType.BFloat16"
  }
}

layer{
  type: "TransposeOp"
  top: "t"
  bottom: "arg106_1"
  layer_param{
    shape: [1536, 1536]
    dtype: "TensorDType.BFloat16"
  }
}

layer{
  type: "ViewOp"
  top: "view_1"
  bottom: "fuse_ln_mul_2"
  layer_param{
    attr_0: [1024, 1536]
    shape: [1024, 1536]
    dtype: "TensorDType.BFloat16"
  }
}

layer{
  type: "MatmulOp"
  top: "mm"
  bottom: "view_1"
  bottom: "t"
  layer_param{
    shape: [1024, 1536]
    dtype: "TensorDType.BFloat16"
  }
}

layer{
  type: "ViewOp"
  top: "view_2"
  bottom: "mm"
  layer_param{
    attr_0: [1, 1024, 1536]
    shape: [1, 1024, 1536]
    dtype: "TensorDType.BFloat16"
  }
}

layer{
  type: "TransposeOp"
  top: "t_1"
  bottom: "arg107_1"
  layer_param{
    shape: [1536, 512]
    dtype: "TensorDType.BFloat16"
  }
}

layer{
  type: "ViewOp"
  top: "view_3"
  bottom: "fuse_ln_mul_2"
  layer_param{
    attr_0: [1024, 1536]
    shape: [1024, 1536]
    dtype: "TensorDType.BFloat16"
  }
}

layer{
  type: "MatmulOp"
  top: "mm_1"
  bottom: "view_3"
  bottom: "t_1"
  layer_param{
    shape: [1024, 512]
    dtype: "TensorDType.BFloat16"
  }
}

layer{
  type: "ViewOp"
  top: "view_4"
  bottom: "mm_1"
  layer_param{
    attr_0: [1, 1024, 512]
    shape: [1, 1024, 512]
    dtype: "TensorDType.BFloat16"
  }
}

layer{
  type: "TransposeOp"
  top: "t_2"
  bottom: "arg108_1"
  layer_param{
    shape: [1536, 512]
    dtype: "TensorDType.BFloat16"
  }
}

layer{
  type: "ViewOp"
  top: "view_5"
  bottom: "fuse_ln_mul_2"
  layer_param{
    attr_0: [1024, 1536]
    shape: [1024, 1536]
    dtype: "TensorDType.BFloat16"
  }
}

layer{
  type: "MatmulOp"
  top: "mm_2"
  bottom: "view_5"
  bottom: "t_2"
  layer_param{
    shape: [1024, 512]
    dtype: "TensorDType.BFloat16"
  }
}

layer{
  type: "ViewOp"
  top: "view_6"
  bottom: "mm_2"
  layer_param{
    attr_0: [1, 1024, 512]
    shape: [1, 1024, 512]
    dtype: "TensorDType.BFloat16"
  }
}

layer{
  type: "ViewOp"
  top: "view_7"
  bottom: "view_2"
  layer_param{
    attr_0: [1, 1024, 24, 64]
    shape: [1, 1024, 24, 64]
    dtype: "TensorDType.BFloat16"
  }
}

layer{
  type: "TransposeOp"
  top: "transpose"
  bottom: "view_7"
  layer_param{
    attr_0: 1
    attr_1: 2
    shape: [1, 24, 1024, 64]
    dtype: "TensorDType.BFloat16"
  }
}

layer{
  type: "ViewOp"
  top: "view_8"
  bottom: "view_4"
  layer_param{
    attr_0: [1, 1024, 8, 64]
    shape: [1, 1024, 8, 64]
    dtype: "TensorDType.BFloat16"
  }
}

layer{
  type: "TransposeOp"
  top: "transpose_1"
  bottom: "view_8"
  layer_param{
    attr_0: 1
    attr_1: 2
    shape: [1, 8, 1024, 64]
    dtype: "TensorDType.BFloat16"
  }
}

layer{
  type: "ViewOp"
  top: "view_9"
  bottom: "view_6"
  layer_param{
    attr_0: [1, 1024, 8, 64]
    shape: [1, 1024, 8, 64]
    dtype: "TensorDType.BFloat16"
  }
}

layer{
  type: "TransposeOp"
  top: "transpose_2"
  bottom: "view_9"
  layer_param{
    attr_0: 1
    attr_1: 2
    shape: [1, 8, 1024, 64]
    dtype: "TensorDType.BFloat16"
  }
}

layer{
  type: "SliceOp"
  top: "slice_3"
  bottom: "arg471_1"
  layer_param{
    attr_0: 0
    attr_1: 0
    attr_2: 1024
    shape: [1024, 64]
    dtype: "TensorDType.Float32"
  }
}

layer{
  type: "SliceOp"
  top: "slice_4"
  bottom: "arg472_1"
  layer_param{
    attr_0: 0
    attr_1: 0
    attr_2: 1024
    shape: [1024, 64]
    dtype: "TensorDType.Float32"
  }
}

layer{
  type: "IndexOp"
  top: "index"
  bottom: "slice_3"
  layer_param{
    attr_0: [unsqueeze]
    shape: [1, 1024, 64]
    dtype: "TensorDType.BFloat16"
  }
}

layer{
  type: "UnsqueezeOp"
  top: "unsqueeze_3"
  bottom: "index"
  layer_param{
    attr_0: 1
    shape: [1, 1, 1024, 64]
    dtype: "TensorDType.BFloat16"
  }
}

layer{
  type: "IndexOp"
  top: "index_1"
  bottom: "slice_4"
  layer_param{
    attr_0: [unsqueeze]
    shape: [1, 1024, 64]
    dtype: "TensorDType.BFloat16"
  }
}

layer{
  type: "UnsqueezeOp"
  top: "unsqueeze_4"
  bottom: "index_1"
  layer_param{
    attr_0: 1
    shape: [1, 1, 1024, 64]
    dtype: "TensorDType.BFloat16"
  }
}

layer{
  type: "MulOp"
  top: "mul_3"
  bottom: "transpose"
  bottom: "unsqueeze_3"
  layer_param{
    shape: [1, 24, 1024, 64]
    dtype: "TensorDType.Float32"
  }
}

layer{
  type: "SliceOp"
  top: "slice_5"
  bottom: "transpose"
  layer_param{
    attr_0: 3
    attr_1: 0
    attr_2: 32
    shape: [1, 24, 1024, 32]
    dtype: "TensorDType.Float32"
  }
}

layer{
  type: "SliceOp"
  top: "slice_6"
  bottom: "transpose"
  layer_param{
    attr_0: 3
    attr_1: 32
    attr_2: 9223372036854775807
    shape: [1, 24, 1024, 32]
    dtype: "TensorDType.Float32"
  }
}

layer{
  type: "NegOp"
  top: "neg"
  bottom: "slice_6"
  layer_param{
    shape: [1, 24, 1024, 32]
    dtype: "TensorDType.Float32"
  }
}

layer{
  type: "CatOp"
  top: "cat"
  bottom: "neg"
  bottom: "slice_5"
  layer_param{
    attr_0: -1
    shape: [1, 24, 1024, 64]
    dtype: "TensorDType.Float32"
  }
}

layer{
  type: "MulOp"
  top: "mul_4"
  bottom: "cat"
  bottom: "unsqueeze_4"
  layer_param{
    shape: [1, 24, 1024, 64]
    dtype: "TensorDType.Float32"
  }
}

layer{
  type: "AddOp"
  top: "add_2"
  bottom: "mul_3"
  bottom: "mul_4"
  layer_param{
    shape: [1, 24, 1024, 64]
    dtype: "TensorDType.Float32"
  }
}

layer{
  type: "MulOp"
  top: "mul_5"
  bottom: "transpose_1"
  bottom: "unsqueeze_3"
  layer_param{
    shape: [1, 8, 1024, 64]
    dtype: "TensorDType.Float32"
  }
}

layer{
  type: "SliceOp"
  top: "slice_7"
  bottom: "transpose_1"
  layer_param{
    attr_0: 3
    attr_1: 0
    attr_2: 32
    shape: [1, 8, 1024, 32]
    dtype: "TensorDType.Float32"
  }
}

layer{
  type: "SliceOp"
  top: "slice_8"
  bottom: "transpose_1"
  layer_param{
    attr_0: 3
    attr_1: 32
    attr_2: 9223372036854775807
    shape: [1, 8, 1024, 32]
    dtype: "TensorDType.Float32"
  }
}

layer{
  type: "NegOp"
  top: "neg_1"
  bottom: "slice_8"
  layer_param{
    shape: [1, 8, 1024, 32]
    dtype: "TensorDType.Float32"
  }
}

layer{
  type: "CatOp"
  top: "cat_1"
  bottom: "neg_1"
  bottom: "slice_7"
  layer_param{
    attr_0: -1
    shape: [1, 8, 1024, 64]
    dtype: "TensorDType.Float32"
  }
}

layer{
  type: "MulOp"
  top: "mul_6"
  bottom: "cat_1"
  bottom: "unsqueeze_4"
  layer_param{
    shape: [1, 8, 1024, 64]
    dtype: "TensorDType.Float32"
  }
}

layer{
  type: "AddOp"
  top: "add_3"
  bottom: "mul_5"
  bottom: "mul_6"
  layer_param{
    shape: [1, 8, 1024, 64]
    dtype: "TensorDType.Float32"
  }
}

layer{
  type: "SliceOp"
  top: "slice_9"
  bottom: "add_3"
  layer_param{
    attr_0: 0
    attr_1: 0
    attr_2: 9223372036854775807
    shape: [1, 8, 1024, 64]
    dtype: "TensorDType.BFloat16"
  }
}

layer{
  type: "SliceOp"
  top: "slice_10"
  bottom: "slice_9"
  layer_param{
    attr_0: 1
    attr_1: 0
    attr_2: 9223372036854775807
    shape: [1, 8, 1024, 64]
    dtype: "TensorDType.BFloat16"
  }
}

layer{
  type: "UnsqueezeOp"
  top: "unsqueeze_5"
  bottom: "slice_10"
  layer_param{
    attr_0: 2
    shape: [1, 8, 1, 1024, 64]
    dtype: "TensorDType.BFloat16"
  }
}

layer{
  type: "SliceOp"
  top: "slice_11"
  bottom: "unsqueeze_5"
  layer_param{
    attr_0: 3
    attr_1: 0
    attr_2: 9223372036854775807
    shape: [1, 8, 1, 1024, 64]
    dtype: "TensorDType.BFloat16"
  }
}

layer{
  type: "SliceOp"
  top: "slice_12"
  bottom: "slice_11"
  layer_param{
    attr_0: 4
    attr_1: 0
    attr_2: 9223372036854775807
    shape: [1, 8, 1, 1024, 64]
    dtype: "TensorDType.BFloat16"
  }
}

layer{
  type: "ExpandOp"
  top: "expand_1"
  bottom: "slice_12"
  layer_param{
    attr_0: [1, 8, 3, 1024, 64]
    shape: [1, 8, 3, 1024, 64]
    dtype: "TensorDType.BFloat16"
  }
}

layer{
  type: "ViewOp"
  top: "_unsafe_view"
  bottom: "expand_1"
  layer_param{
    attr_0: [1, 24, 1024, 64]
    shape: [1, 24, 1024, 64]
    dtype: "TensorDType.BFloat16"
  }
}

layer{
  type: "SliceOp"
  top: "slice_13"
  bottom: "transpose_2"
  layer_param{
    attr_0: 0
    attr_1: 0
    attr_2: 9223372036854775807
    shape: [1, 8, 1024, 64]
    dtype: "TensorDType.BFloat16"
  }
}

layer{
  type: "SliceOp"
  top: "slice_14"
  bottom: "slice_13"
  layer_param{
    attr_0: 1
    attr_1: 0
    attr_2: 9223372036854775807
    shape: [1, 8, 1024, 64]
    dtype: "TensorDType.BFloat16"
  }
}

layer{
  type: "UnsqueezeOp"
  top: "unsqueeze_6"
  bottom: "slice_14"
  layer_param{
    attr_0: 2
    shape: [1, 8, 1, 1024, 64]
    dtype: "TensorDType.BFloat16"
  }
}

layer{
  type: "SliceOp"
  top: "slice_15"
  bottom: "unsqueeze_6"
  layer_param{
    attr_0: 3
    attr_1: 0
    attr_2: 9223372036854775807
    shape: [1, 8, 1, 1024, 64]
    dtype: "TensorDType.BFloat16"
  }
}

layer{
  type: "SliceOp"
  top: "slice_16"
  bottom: "slice_15"
  layer_param{
    attr_0: 4
    attr_1: 0
    attr_2: 9223372036854775807
    shape: [1, 8, 1, 1024, 64]
    dtype: "TensorDType.BFloat16"
  }
}

layer{
  type: "ExpandOp"
  top: "expand_2"
  bottom: "slice_16"
  layer_param{
    attr_0: [1, 8, 3, 1024, 64]
    shape: [1, 8, 3, 1024, 64]
    dtype: "TensorDType.BFloat16"
  }
}

layer{
  type: "ViewOp"
  top: "_unsafe_view_1"
  bottom: "expand_2"
  layer_param{
    attr_0: [1, 24, 1024, 64]
    shape: [1, 24, 1024, 64]
    dtype: "TensorDType.BFloat16"
  }
}

layer{
  type: "ExpandOp"
  top: "expand_3"
  bottom: "expand"
  layer_param{
    attr_0: [1, 24, 1024, 1024]
    shape: [1, 24, 1024, 1024]
    dtype: "TensorDType.BFloat16"
  }
}

layer{
  type: "ScaledDotProductFlashAttentionForCpuOp"
  top: "_scaled_dot_product_efficient_attention"
  bottom: "add_2"
  bottom: "_unsafe_view"
  bottom: "_unsafe_view_1"
  bottom: "expand_3"
  layer_param{
    attr_0: False
    shape{
      output_0: [1, 24, 1024, 64]
      output_1: [1, 24, 0]
      output_2: []
      output_3: []
    }
  }
}

layer{
  type: "GetItemOp"
  top: "getitem"
  bottom: "_scaled_dot_product_efficient_attention"
  layer_param{
    attr_0: 0
    shape: [1, 24, 1024, 64]
    dtype: "TensorDType.BFloat16"
  }
}

layer{
  type: "TransposeOp"
  top: "transpose_3"
  bottom: "getitem"
  layer_param{
    attr_0: 1
    attr_1: 2
    shape: [1, 1024, 24, 64]
    dtype: "TensorDType.BFloat16"
  }
}

layer{
  type: "ViewOp"
  top: "view_10"
  bottom: "transpose_3"
  layer_param{
    attr_0: [1, 1024, 1536]
    shape: [1, 1024, 1536]
    dtype: "TensorDType.BFloat16"
  }
}

layer{
  type: "TransposeOp"
  top: "t_3"
  bottom: "arg109_1"
  layer_param{
    shape: [1536, 1536]
    dtype: "TensorDType.BFloat16"
  }
}

layer{
  type: "ViewOp"
  top: "view_11"
  bottom: "view_10"
  layer_param{
    attr_0: [1024, 1536]
    shape: [1024, 1536]
    dtype: "TensorDType.BFloat16"
  }
}

layer{
  type: "MatmulOp"
  top: "mm_3"
  bottom: "view_11"
  bottom: "t_3"
  layer_param{
    shape: [1024, 1536]
    dtype: "TensorDType.BFloat16"
  }
}

layer{
  type: "ViewOp"
  top: "view_12"
  bottom: "mm_3"
  layer_param{
    attr_0: [1, 1024, 1536]
    shape: [1, 1024, 1536]
    dtype: "TensorDType.BFloat16"
  }
}

layer{
  type: "MulOp"
  top: "mul_7"
  bottom: "view_12"
  layer_param{
    attr_0: 0.1941450686788302
    shape: [1, 1024, 1536]
    dtype: "TensorDType.BFloat16"
  }
}

layer{
  type: "AddOp"
  top: "add_4"
  bottom: "mul"
  bottom: "mul_7"
  layer_param{
    shape: [1, 1024, 1536]
    dtype: "TensorDType.BFloat16"
  }
}

layer{
  type: "TransposeOp"
  top: "t_4"
  bottom: "arg110_1"
  layer_param{
    shape: [1536, 3840]
    dtype: "TensorDType.BFloat16"
  }
}

layer{
  type: "ViewOp"
  top: "view_13"
  bottom: "fuse_ln_mul_9"
  layer_param{
    attr_0: [1024, 1536]
    shape: [1024, 1536]
    dtype: "TensorDType.BFloat16"
  }
}

layer{
  type: "MatmulOp"
  top: "mm_4"
  bottom: "view_13"
  bottom: "t_4"
  layer_param{
    shape: [1024, 3840]
    dtype: "TensorDType.BFloat16"
  }
}

layer{
  type: "ViewOp"
  top: "view_14"
  bottom: "mm_4"
  layer_param{
    attr_0: [1, 1024, 3840]
    shape: [1, 1024, 3840]
    dtype: "TensorDType.BFloat16"
  }
}

layer{
  type: "SiluOp"
  top: "silu"
  bottom: "view_14"
  layer_param{
    shape: [1, 1024, 3840]
    dtype: "TensorDType.BFloat16"
  }
}

layer{
  type: "TransposeOp"
  top: "t_5"
  bottom: "arg111_1"
  layer_param{
    shape: [1536, 3840]
    dtype: "TensorDType.BFloat16"
  }
}

layer{
  type: "ViewOp"
  top: "view_15"
  bottom: "fuse_ln_mul_9"
  layer_param{
    attr_0: [1024, 1536]
    shape: [1024, 1536]
    dtype: "TensorDType.BFloat16"
  }
}

layer{
  type: "MatmulOp"
  top: "mm_5"
  bottom: "view_15"
  bottom: "t_5"
  layer_param{
    shape: [1024, 3840]
    dtype: "TensorDType.BFloat16"
  }
}

layer{
  type: "ViewOp"
  top: "view_16"
  bottom: "mm_5"
  layer_param{
    attr_0: [1, 1024, 3840]
    shape: [1, 1024, 3840]
    dtype: "TensorDType.BFloat16"
  }
}

layer{
  type: "MulOp"
  top: "mul_10"
  bottom: "silu"
  bottom: "view_16"
  layer_param{
    shape: [1, 1024, 3840]
    dtype: "TensorDType.BFloat16"
  }
}

layer{
  type: "TransposeOp"
  top: "t_6"
  bottom: "arg112_1"
  layer_param{
    shape: [3840, 1536]
    dtype: "TensorDType.BFloat16"
  }
}

layer{
  type: "ViewOp"
  top: "view_17"
  bottom: "mul_10"
  layer_param{
    attr_0: [1024, 3840]
    shape: [1024, 3840]
    dtype: "TensorDType.BFloat16"
  }
}

layer{
  type: "MatmulOp"
  top: "mm_6"
  bottom: "view_17"
  bottom: "t_6"
  layer_param{
    shape: [1024, 1536]
    dtype: "TensorDType.BFloat16"
  }
}

layer{
  type: "ViewOp"
  top: "view_18"
  bottom: "mm_6"
  layer_param{
    attr_0: [1, 1024, 1536]
    shape: [1, 1024, 1536]
    dtype: "TensorDType.BFloat16"
  }
}

layer{
  type: "MulOp"
  top: "mul_11"
  bottom: "view_18"
  layer_param{
    attr_0: 0.1941450686788302
    shape: [1, 1024, 1536]
    dtype: "TensorDType.BFloat16"
  }
}

layer{
  type: "AddOp"
  top: "add_6"
  bottom: "add_4"
  bottom: "mul_11"
  layer_param{
    shape: [1, 1024, 1536]
    dtype: "TensorDType.BFloat16"
  }
}

layer{
  type: "TransposeOp"
  top: "t_7"
  bottom: "arg113_1"
  layer_param{
    shape: [1536, 1536]
    dtype: "TensorDType.BFloat16"
  }
}

layer{
  type: "ViewOp"
  top: "view_19"
  bottom: "fuse_ln_mul_13"
  layer_param{
    attr_0: [1024, 1536]
    shape: [1024, 1536]
    dtype: "TensorDType.BFloat16"
  }
}

layer{
  type: "MatmulOp"
  top: "mm_7"
  bottom: "view_19"
  bottom: "t_7"
  layer_param{
    shape: [1024, 1536]
    dtype: "TensorDType.BFloat16"
  }
}

layer{
  type: "ViewOp"
  top: "view_20"
  bottom: "mm_7"
  layer_param{
    attr_0: [1, 1024, 1536]
    shape: [1, 1024, 1536]
    dtype: "TensorDType.BFloat16"
  }
}

layer{
  type: "TransposeOp"
  top: "t_8"
  bottom: "arg114_1"
  layer_param{
    shape: [1536, 512]
    dtype: "TensorDType.BFloat16"
  }
}

layer{
  type: "ViewOp"
  top: "view_21"
  bottom: "fuse_ln_mul_13"
  layer_param{
    attr_0: [1024, 1536]
    shape: [1024, 1536]
    dtype: "TensorDType.BFloat16"
  }
}

layer{
  type: "MatmulOp"
  top: "mm_8"
  bottom: "view_21"
  bottom: "t_8"
  layer_param{
    shape: [1024, 512]
    dtype: "TensorDType.BFloat16"
  }
}

layer{
  type: "ViewOp"
  top: "view_22"
  bottom: "mm_8"
  layer_param{
    attr_0: [1, 1024, 512]
    shape: [1, 1024, 512]
    dtype: "TensorDType.BFloat16"
  }
}

layer{
  type: "TransposeOp"
  top: "t_9"
  bottom: "arg115_1"
  layer_param{
    shape: [1536, 512]
    dtype: "TensorDType.BFloat16"
  }
}

layer{
  type: "ViewOp"
  top: "view_23"
  bottom: "fuse_ln_mul_13"
  layer_param{
    attr_0: [1024, 1536]
    shape: [1024, 1536]
    dtype: "TensorDType.BFloat16"
  }
}

layer{
  type: "MatmulOp"
  top: "mm_9"
  bottom: "view_23"
  bottom: "t_9"
  layer_param{
    shape: [1024, 512]
    dtype: "TensorDType.BFloat16"
  }
}

layer{
  type: "ViewOp"
  top: "view_24"
  bottom: "mm_9"
  layer_param{
    attr_0: [1, 1024, 512]
    shape: [1, 1024, 512]
    dtype: "TensorDType.BFloat16"
  }
}

layer{
  type: "ViewOp"
  top: "view_25"
  bottom: "view_20"
  layer_param{
    attr_0: [1, 1024, 24, 64]
    shape: [1, 1024, 24, 64]
    dtype: "TensorDType.BFloat16"
  }
}

layer{
  type: "TransposeOp"
  top: "transpose_4"
  bottom: "view_25"
  layer_param{
    attr_0: 1
    attr_1: 2
    shape: [1, 24, 1024, 64]
    dtype: "TensorDType.BFloat16"
  }
}

layer{
  type: "ViewOp"
  top: "view_26"
  bottom: "view_22"
  layer_param{
    attr_0: [1, 1024, 8, 64]
    shape: [1, 1024, 8, 64]
    dtype: "TensorDType.BFloat16"
  }
}

layer{
  type: "TransposeOp"
  top: "transpose_5"
  bottom: "view_26"
  layer_param{
    attr_0: 1
    attr_1: 2
    shape: [1, 8, 1024, 64]
    dtype: "TensorDType.BFloat16"
  }
}

layer{
  type: "ViewOp"
  top: "view_27"
  bottom: "view_24"
  layer_param{
    attr_0: [1, 1024, 8, 64]
    shape: [1, 1024, 8, 64]
    dtype: "TensorDType.BFloat16"
  }
}

layer{
  type: "TransposeOp"
  top: "transpose_6"
  bottom: "view_27"
  layer_param{
    attr_0: 1
    attr_1: 2
    shape: [1, 8, 1024, 64]
    dtype: "TensorDType.BFloat16"
  }
}

layer{
  type: "SliceOp"
  top: "slice_17"
  bottom: "arg473_1"
  layer_param{
    attr_0: 0
    attr_1: 0
    attr_2: 1024
    shape: [1024, 64]
    dtype: "TensorDType.Float32"
  }
}

layer{
  type: "SliceOp"
  top: "slice_18"
  bottom: "arg474_1"
  layer_param{
    attr_0: 0
    attr_1: 0
    attr_2: 1024
    shape: [1024, 64]
    dtype: "TensorDType.Float32"
  }
}

layer{
  type: "IndexOp"
  top: "index_2"
  bottom: "slice_17"
  layer_param{
    attr_0: [unsqueeze]
    shape: [1, 1024, 64]
    dtype: "TensorDType.BFloat16"
  }
}

layer{
  type: "UnsqueezeOp"
  top: "unsqueeze_7"
  bottom: "index_2"
  layer_param{
    attr_0: 1
    shape: [1, 1, 1024, 64]
    dtype: "TensorDType.BFloat16"
  }
}

layer{
  type: "IndexOp"
  top: "index_3"
  bottom: "slice_18"
  layer_param{
    attr_0: [unsqueeze]
    shape: [1, 1024, 64]
    dtype: "TensorDType.BFloat16"
  }
}

layer{
  type: "UnsqueezeOp"
  top: "unsqueeze_8"
  bottom: "index_3"
  layer_param{
    attr_0: 1
    shape: [1, 1, 1024, 64]
    dtype: "TensorDType.BFloat16"
  }
}

layer{
  type: "MulOp"
  top: "mul_14"
  bottom: "transpose_4"
  bottom: "unsqueeze_7"
  layer_param{
    shape: [1, 24, 1024, 64]
    dtype: "TensorDType.Float32"
  }
}

layer{
  type: "SliceOp"
  top: "slice_19"
  bottom: "transpose_4"
  layer_param{
    attr_0: 3
    attr_1: 0
    attr_2: 32
    shape: [1, 24, 1024, 32]
    dtype: "TensorDType.Float32"
  }
}

layer{
  type: "SliceOp"
  top: "slice_20"
  bottom: "transpose_4"
  layer_param{
    attr_0: 3
    attr_1: 32
    attr_2: 9223372036854775807
    shape: [1, 24, 1024, 32]
    dtype: "TensorDType.Float32"
  }
}

layer{
  type: "NegOp"
  top: "neg_2"
  bottom: "slice_20"
  layer_param{
    shape: [1, 24, 1024, 32]
    dtype: "TensorDType.Float32"
  }
}

layer{
  type: "CatOp"
  top: "cat_2"
  bottom: "neg_2"
  bottom: "slice_19"
  layer_param{
    attr_0: -1
    shape: [1, 24, 1024, 64]
    dtype: "TensorDType.Float32"
  }
}

layer{
  type: "MulOp"
  top: "mul_15"
  bottom: "cat_2"
  bottom: "unsqueeze_8"
  layer_param{
    shape: [1, 24, 1024, 64]
    dtype: "TensorDType.Float32"
  }
}

layer{
  type: "AddOp"
  top: "add_8"
  bottom: "mul_14"
  bottom: "mul_15"
  layer_param{
    shape: [1, 24, 1024, 64]
    dtype: "TensorDType.Float32"
  }
}

layer{
  type: "MulOp"
  top: "mul_16"
  bottom: "transpose_5"
  bottom: "unsqueeze_7"
  layer_param{
    shape: [1, 8, 1024, 64]
    dtype: "TensorDType.Float32"
  }
}

layer{
  type: "SliceOp"
  top: "slice_21"
  bottom: "transpose_5"
  layer_param{
    attr_0: 3
    attr_1: 0
    attr_2: 32
    shape: [1, 8, 1024, 32]
    dtype: "TensorDType.Float32"
  }
}

layer{
  type: "SliceOp"
  top: "slice_22"
  bottom: "transpose_5"
  layer_param{
    attr_0: 3
    attr_1: 32
    attr_2: 9223372036854775807
    shape: [1, 8, 1024, 32]
    dtype: "TensorDType.Float32"
  }
}

layer{
  type: "NegOp"
  top: "neg_3"
  bottom: "slice_22"
  layer_param{
    shape: [1, 8, 1024, 32]
    dtype: "TensorDType.Float32"
  }
}

layer{
  type: "CatOp"
  top: "cat_3"
  bottom: "neg_3"
  bottom: "slice_21"
  layer_param{
    attr_0: -1
    shape: [1, 8, 1024, 64]
    dtype: "TensorDType.Float32"
  }
}

layer{
  type: "MulOp"
  top: "mul_17"
  bottom: "cat_3"
  bottom: "unsqueeze_8"
  layer_param{
    shape: [1, 8, 1024, 64]
    dtype: "TensorDType.Float32"
  }
}

layer{
  type: "AddOp"
  top: "add_9"
  bottom: "mul_16"
  bottom: "mul_17"
  layer_param{
    shape: [1, 8, 1024, 64]
    dtype: "TensorDType.Float32"
  }
}

layer{
  type: "SliceOp"
  top: "slice_23"
  bottom: "add_9"
  layer_param{
    attr_0: 0
    attr_1: 0
    attr_2: 9223372036854775807
    shape: [1, 8, 1024, 64]
    dtype: "TensorDType.BFloat16"
  }
}

layer{
  type: "SliceOp"
  top: "slice_24"
  bottom: "slice_23"
  layer_param{
    attr_0: 1
    attr_1: 0
    attr_2: 9223372036854775807
    shape: [1, 8, 1024, 64]
    dtype: "TensorDType.BFloat16"
  }
}

layer{
  type: "UnsqueezeOp"
  top: "unsqueeze_9"
  bottom: "slice_24"
  layer_param{
    attr_0: 2
    shape: [1, 8, 1, 1024, 64]
    dtype: "TensorDType.BFloat16"
  }
}

layer{
  type: "SliceOp"
  top: "slice_25"
  bottom: "unsqueeze_9"
  layer_param{
    attr_0: 3
    attr_1: 0
    attr_2: 9223372036854775807
    shape: [1, 8, 1, 1024, 64]
    dtype: "TensorDType.BFloat16"
  }
}

layer{
  type: "SliceOp"
  top: "slice_26"
  bottom: "slice_25"
  layer_param{
    attr_0: 4
    attr_1: 0
    attr_2: 9223372036854775807
    shape: [1, 8, 1, 1024, 64]
    dtype: "TensorDType.BFloat16"
  }
}

layer{
  type: "ExpandOp"
  top: "expand_4"
  bottom: "slice_26"
  layer_param{
    attr_0: [1, 8, 3, 1024, 64]
    shape: [1, 8, 3, 1024, 64]
    dtype: "TensorDType.BFloat16"
  }
}

layer{
  type: "ViewOp"
  top: "_unsafe_view_2"
  bottom: "expand_4"
  layer_param{
    attr_0: [1, 24, 1024, 64]
    shape: [1, 24, 1024, 64]
    dtype: "TensorDType.BFloat16"
  }
}

layer{
  type: "SliceOp"
  top: "slice_27"
  bottom: "transpose_6"
  layer_param{
    attr_0: 0
    attr_1: 0
    attr_2: 9223372036854775807
    shape: [1, 8, 1024, 64]
    dtype: "TensorDType.BFloat16"
  }
}

layer{
  type: "SliceOp"
  top: "slice_28"
  bottom: "slice_27"
  layer_param{
    attr_0: 1
    attr_1: 0
    attr_2: 9223372036854775807
    shape: [1, 8, 1024, 64]
    dtype: "TensorDType.BFloat16"
  }
}

layer{
  type: "UnsqueezeOp"
  top: "unsqueeze_10"
  bottom: "slice_28"
  layer_param{
    attr_0: 2
    shape: [1, 8, 1, 1024, 64]
    dtype: "TensorDType.BFloat16"
  }
}

layer{
  type: "SliceOp"
  top: "slice_29"
  bottom: "unsqueeze_10"
  layer_param{
    attr_0: 3
    attr_1: 0
    attr_2: 9223372036854775807
    shape: [1, 8, 1, 1024, 64]
    dtype: "TensorDType.BFloat16"
  }
}

layer{
  type: "SliceOp"
  top: "slice_30"
  bottom: "slice_29"
  layer_param{
    attr_0: 4
    attr_1: 0
    attr_2: 9223372036854775807
    shape: [1, 8, 1, 1024, 64]
    dtype: "TensorDType.BFloat16"
  }
}

layer{
  type: "ExpandOp"
  top: "expand_5"
  bottom: "slice_30"
  layer_param{
    attr_0: [1, 8, 3, 1024, 64]
    shape: [1, 8, 3, 1024, 64]
    dtype: "TensorDType.BFloat16"
  }
}

layer{
  type: "ViewOp"
  top: "_unsafe_view_3"
  bottom: "expand_5"
  layer_param{
    attr_0: [1, 24, 1024, 64]
    shape: [1, 24, 1024, 64]
    dtype: "TensorDType.BFloat16"
  }
}

layer{
  type: "ExpandOp"
  top: "expand_6"
  bottom: "expand"
  layer_param{
    attr_0: [1, 24, 1024, 1024]
    shape: [1, 24, 1024, 1024]
    dtype: "TensorDType.BFloat16"
  }
}

layer{
  type: "ScaledDotProductFlashAttentionForCpuOp"
  top: "_scaled_dot_product_efficient_attention_1"
  bottom: "add_8"
  bottom: "_unsafe_view_2"
  bottom: "_unsafe_view_3"
  bottom: "expand_6"
  layer_param{
    attr_0: False
    shape{
      output_0: [1, 24, 1024, 64]
      output_1: [1, 24, 0]
      output_2: []
      output_3: []
    }
  }
}

layer{
  type: "GetItemOp"
  top: "getitem_4"
  bottom: "_scaled_dot_product_efficient_attention_1"
  layer_param{
    attr_0: 0
    shape: [1, 24, 1024, 64]
    dtype: "TensorDType.BFloat16"
  }
}

layer{
  type: "TransposeOp"
  top: "transpose_7"
  bottom: "getitem_4"
  layer_param{
    attr_0: 1
    attr_1: 2
    shape: [1, 1024, 24, 64]
    dtype: "TensorDType.BFloat16"
  }
}

layer{
  type: "ViewOp"
  top: "view_28"
  bottom: "transpose_7"
  layer_param{
    attr_0: [1, 1024, 1536]
    shape: [1, 1024, 1536]
    dtype: "TensorDType.BFloat16"
  }
}

layer{
  type: "TransposeOp"
  top: "t_10"
  bottom: "arg116_1"
  layer_param{
    shape: [1536, 1536]
    dtype: "TensorDType.BFloat16"
  }
}

layer{
  type: "ViewOp"
  top: "view_29"
  bottom: "view_28"
  layer_param{
    attr_0: [1024, 1536]
    shape: [1024, 1536]
    dtype: "TensorDType.BFloat16"
  }
}

layer{
  type: "MatmulOp"
  top: "mm_10"
  bottom: "view_29"
  bottom: "t_10"
  layer_param{
    shape: [1024, 1536]
    dtype: "TensorDType.BFloat16"
  }
}

layer{
  type: "ViewOp"
  top: "view_30"
  bottom: "mm_10"
  layer_param{
    attr_0: [1, 1024, 1536]
    shape: [1, 1024, 1536]
    dtype: "TensorDType.BFloat16"
  }
}

layer{
  type: "MulOp"
  top: "mul_18"
  bottom: "view_30"
  layer_param{
    attr_0: 0.1941450686788302
    shape: [1, 1024, 1536]
    dtype: "TensorDType.BFloat16"
  }
}

layer{
  type: "AddOp"
  top: "add_10"
  bottom: "add_6"
  bottom: "mul_18"
  layer_param{
    shape: [1, 1024, 1536]
    dtype: "TensorDType.BFloat16"
  }
}

layer{
  type: "TransposeOp"
  top: "t_11"
  bottom: "arg117_1"
  layer_param{
    shape: [1536, 3840]
    dtype: "TensorDType.BFloat16"
  }
}

layer{
  type: "ViewOp"
  top: "view_31"
  bottom: "fuse_ln_mul_20"
  layer_param{
    attr_0: [1024, 1536]
    shape: [1024, 1536]
    dtype: "TensorDType.BFloat16"
  }
}

layer{
  type: "MatmulOp"
  top: "mm_11"
  bottom: "view_31"
  bottom: "t_11"
  layer_param{
    shape: [1024, 3840]
    dtype: "TensorDType.BFloat16"
  }
}

layer{
  type: "ViewOp"
  top: "view_32"
  bottom: "mm_11"
  layer_param{
    attr_0: [1, 1024, 3840]
    shape: [1, 1024, 3840]
    dtype: "TensorDType.BFloat16"
  }
}

layer{
  type: "SiluOp"
  top: "silu_1"
  bottom: "view_32"
  layer_param{
    shape: [1, 1024, 3840]
    dtype: "TensorDType.BFloat16"
  }
}

layer{
  type: "TransposeOp"
  top: "t_12"
  bottom: "arg118_1"
  layer_param{
    shape: [1536, 3840]
    dtype: "TensorDType.BFloat16"
  }
}

layer{
  type: "ViewOp"
  top: "view_33"
  bottom: "fuse_ln_mul_20"
  layer_param{
    attr_0: [1024, 1536]
    shape: [1024, 1536]
    dtype: "TensorDType.BFloat16"
  }
}

layer{
  type: "MatmulOp"
  top: "mm_12"
  bottom: "view_33"
  bottom: "t_12"
  layer_param{
    shape: [1024, 3840]
    dtype: "TensorDType.BFloat16"
  }
}

layer{
  type: "ViewOp"
  top: "view_34"
  bottom: "mm_12"
  layer_param{
    attr_0: [1, 1024, 3840]
    shape: [1, 1024, 3840]
    dtype: "TensorDType.BFloat16"
  }
}

layer{
  type: "MulOp"
  top: "mul_21"
  bottom: "silu_1"
  bottom: "view_34"
  layer_param{
    shape: [1, 1024, 3840]
    dtype: "TensorDType.BFloat16"
  }
}

layer{
  type: "TransposeOp"
  top: "t_13"
  bottom: "arg119_1"
  layer_param{
    shape: [3840, 1536]
    dtype: "TensorDType.BFloat16"
  }
}

layer{
  type: "ViewOp"
  top: "view_35"
  bottom: "mul_21"
  layer_param{
    attr_0: [1024, 3840]
    shape: [1024, 3840]
    dtype: "TensorDType.BFloat16"
  }
}

layer{
  type: "MatmulOp"
  top: "mm_13"
  bottom: "view_35"
  bottom: "t_13"
  layer_param{
    shape: [1024, 1536]
    dtype: "TensorDType.BFloat16"
  }
}

layer{
  type: "ViewOp"
  top: "view_36"
  bottom: "mm_13"
  layer_param{
    attr_0: [1, 1024, 1536]
    shape: [1, 1024, 1536]
    dtype: "TensorDType.BFloat16"
  }
}

layer{
  type: "MulOp"
  top: "mul_22"
  bottom: "view_36"
  layer_param{
    attr_0: 0.1941450686788302
    shape: [1, 1024, 1536]
    dtype: "TensorDType.BFloat16"
  }
}

layer{
  type: "AddOp"
  top: "add_12"
  bottom: "add_10"
  bottom: "mul_22"
  layer_param{
    shape: [1, 1024, 1536]
    dtype: "TensorDType.BFloat16"
  }
}

layer{
  type: "TransposeOp"
  top: "t_14"
  bottom: "arg120_1"
  layer_param{
    shape: [1536, 1536]
    dtype: "TensorDType.BFloat16"
  }
}

layer{
  type: "ViewOp"
  top: "view_37"
  bottom: "fuse_ln_mul_24"
  layer_param{
    attr_0: [1024, 1536]
    shape: [1024, 1536]
    dtype: "TensorDType.BFloat16"
  }
}

layer{
  type: "MatmulOp"
  top: "mm_14"
  bottom: "view_37"
  bottom: "t_14"
  layer_param{
    shape: [1024, 1536]
    dtype: "TensorDType.BFloat16"
  }
}

layer{
  type: "ViewOp"
  top: "view_38"
  bottom: "mm_14"
  layer_param{
    attr_0: [1, 1024, 1536]
    shape: [1, 1024, 1536]
    dtype: "TensorDType.BFloat16"
  }
}

layer{
  type: "TransposeOp"
  top: "t_15"
  bottom: "arg121_1"
  layer_param{
    shape: [1536, 512]
    dtype: "TensorDType.BFloat16"
  }
}

layer{
  type: "ViewOp"
  top: "view_39"
  bottom: "fuse_ln_mul_24"
  layer_param{
    attr_0: [1024, 1536]
    shape: [1024, 1536]
    dtype: "TensorDType.BFloat16"
  }
}

layer{
  type: "MatmulOp"
  top: "mm_15"
  bottom: "view_39"
  bottom: "t_15"
  layer_param{
    shape: [1024, 512]
    dtype: "TensorDType.BFloat16"
  }
}

layer{
  type: "ViewOp"
  top: "view_40"
  bottom: "mm_15"
  layer_param{
    attr_0: [1, 1024, 512]
    shape: [1, 1024, 512]
    dtype: "TensorDType.BFloat16"
  }
}

layer{
  type: "TransposeOp"
  top: "t_16"
  bottom: "arg122_1"
  layer_param{
    shape: [1536, 512]
    dtype: "TensorDType.BFloat16"
  }
}

layer{
  type: "ViewOp"
  top: "view_41"
  bottom: "fuse_ln_mul_24"
  layer_param{
    attr_0: [1024, 1536]
    shape: [1024, 1536]
    dtype: "TensorDType.BFloat16"
  }
}

layer{
  type: "MatmulOp"
  top: "mm_16"
  bottom: "view_41"
  bottom: "t_16"
  layer_param{
    shape: [1024, 512]
    dtype: "TensorDType.BFloat16"
  }
}

layer{
  type: "ViewOp"
  top: "view_42"
  bottom: "mm_16"
  layer_param{
    attr_0: [1, 1024, 512]
    shape: [1, 1024, 512]
    dtype: "TensorDType.BFloat16"
  }
}

layer{
  type: "ViewOp"
  top: "view_43"
  bottom: "view_38"
  layer_param{
    attr_0: [1, 1024, 24, 64]
    shape: [1, 1024, 24, 64]
    dtype: "TensorDType.BFloat16"
  }
}

layer{
  type: "TransposeOp"
  top: "transpose_8"
  bottom: "view_43"
  layer_param{
    attr_0: 1
    attr_1: 2
    shape: [1, 24, 1024, 64]
    dtype: "TensorDType.BFloat16"
  }
}

layer{
  type: "ViewOp"
  top: "view_44"
  bottom: "view_40"
  layer_param{
    attr_0: [1, 1024, 8, 64]
    shape: [1, 1024, 8, 64]
    dtype: "TensorDType.BFloat16"
  }
}

layer{
  type: "TransposeOp"
  top: "transpose_9"
  bottom: "view_44"
  layer_param{
    attr_0: 1
    attr_1: 2
    shape: [1, 8, 1024, 64]
    dtype: "TensorDType.BFloat16"
  }
}

layer{
  type: "ViewOp"
  top: "view_45"
  bottom: "view_42"
  layer_param{
    attr_0: [1, 1024, 8, 64]
    shape: [1, 1024, 8, 64]
    dtype: "TensorDType.BFloat16"
  }
}

layer{
  type: "TransposeOp"
  top: "transpose_10"
  bottom: "view_45"
  layer_param{
    attr_0: 1
    attr_1: 2
    shape: [1, 8, 1024, 64]
    dtype: "TensorDType.BFloat16"
  }
}

layer{
  type: "SliceOp"
  top: "slice_31"
  bottom: "arg475_1"
  layer_param{
    attr_0: 0
    attr_1: 0
    attr_2: 1024
    shape: [1024, 64]
    dtype: "TensorDType.Float32"
  }
}

layer{
  type: "SliceOp"
  top: "slice_32"
  bottom: "arg476_1"
  layer_param{
    attr_0: 0
    attr_1: 0
    attr_2: 1024
    shape: [1024, 64]
    dtype: "TensorDType.Float32"
  }
}

layer{
  type: "IndexOp"
  top: "index_4"
  bottom: "slice_31"
  layer_param{
    attr_0: [unsqueeze]
    shape: [1, 1024, 64]
    dtype: "TensorDType.BFloat16"
  }
}

layer{
  type: "UnsqueezeOp"
  top: "unsqueeze_11"
  bottom: "index_4"
  layer_param{
    attr_0: 1
    shape: [1, 1, 1024, 64]
    dtype: "TensorDType.BFloat16"
  }
}

layer{
  type: "IndexOp"
  top: "index_5"
  bottom: "slice_32"
  layer_param{
    attr_0: [unsqueeze]
    shape: [1, 1024, 64]
    dtype: "TensorDType.BFloat16"
  }
}

layer{
  type: "UnsqueezeOp"
  top: "unsqueeze_12"
  bottom: "index_5"
  layer_param{
    attr_0: 1
    shape: [1, 1, 1024, 64]
    dtype: "TensorDType.BFloat16"
  }
}

layer{
  type: "MulOp"
  top: "mul_25"
  bottom: "transpose_8"
  bottom: "unsqueeze_11"
  layer_param{
    shape: [1, 24, 1024, 64]
    dtype: "TensorDType.Float32"
  }
}

layer{
  type: "SliceOp"
  top: "slice_33"
  bottom: "transpose_8"
  layer_param{
    attr_0: 3
    attr_1: 0
    attr_2: 32
    shape: [1, 24, 1024, 32]
    dtype: "TensorDType.Float32"
  }
}

layer{
  type: "SliceOp"
  top: "slice_34"
  bottom: "transpose_8"
  layer_param{
    attr_0: 3
    attr_1: 32
    attr_2: 9223372036854775807
    shape: [1, 24, 1024, 32]
    dtype: "TensorDType.Float32"
  }
}

layer{
  type: "NegOp"
  top: "neg_4"
  bottom: "slice_34"
  layer_param{
    shape: [1, 24, 1024, 32]
    dtype: "TensorDType.Float32"
  }
}

layer{
  type: "CatOp"
  top: "cat_4"
  bottom: "neg_4"
  bottom: "slice_33"
  layer_param{
    attr_0: -1
    shape: [1, 24, 1024, 64]
    dtype: "TensorDType.Float32"
  }
}

layer{
  type: "MulOp"
  top: "mul_26"
  bottom: "cat_4"
  bottom: "unsqueeze_12"
  layer_param{
    shape: [1, 24, 1024, 64]
    dtype: "TensorDType.Float32"
  }
}

layer{
  type: "AddOp"
  top: "add_14"
  bottom: "mul_25"
  bottom: "mul_26"
  layer_param{
    shape: [1, 24, 1024, 64]
    dtype: "TensorDType.Float32"
  }
}

layer{
  type: "MulOp"
  top: "mul_27"
  bottom: "transpose_9"
  bottom: "unsqueeze_11"
  layer_param{
    shape: [1, 8, 1024, 64]
    dtype: "TensorDType.Float32"
  }
}

layer{
  type: "SliceOp"
  top: "slice_35"
  bottom: "transpose_9"
  layer_param{
    attr_0: 3
    attr_1: 0
    attr_2: 32
    shape: [1, 8, 1024, 32]
    dtype: "TensorDType.Float32"
  }
}

layer{
  type: "SliceOp"
  top: "slice_36"
  bottom: "transpose_9"
  layer_param{
    attr_0: 3
    attr_1: 32
    attr_2: 9223372036854775807
    shape: [1, 8, 1024, 32]
    dtype: "TensorDType.Float32"
  }
}

layer{
  type: "NegOp"
  top: "neg_5"
  bottom: "slice_36"
  layer_param{
    shape: [1, 8, 1024, 32]
    dtype: "TensorDType.Float32"
  }
}

layer{
  type: "CatOp"
  top: "cat_5"
  bottom: "neg_5"
  bottom: "slice_35"
  layer_param{
    attr_0: -1
    shape: [1, 8, 1024, 64]
    dtype: "TensorDType.Float32"
  }
}

layer{
  type: "MulOp"
  top: "mul_28"
  bottom: "cat_5"
  bottom: "unsqueeze_12"
  layer_param{
    shape: [1, 8, 1024, 64]
    dtype: "TensorDType.Float32"
  }
}

layer{
  type: "AddOp"
  top: "add_15"
  bottom: "mul_27"
  bottom: "mul_28"
  layer_param{
    shape: [1, 8, 1024, 64]
    dtype: "TensorDType.Float32"
  }
}

layer{
  type: "SliceOp"
  top: "slice_37"
  bottom: "add_15"
  layer_param{
    attr_0: 0
    attr_1: 0
    attr_2: 9223372036854775807
    shape: [1, 8, 1024, 64]
    dtype: "TensorDType.BFloat16"
  }
}

layer{
  type: "SliceOp"
  top: "slice_38"
  bottom: "slice_37"
  layer_param{
    attr_0: 1
    attr_1: 0
    attr_2: 9223372036854775807
    shape: [1, 8, 1024, 64]
    dtype: "TensorDType.BFloat16"
  }
}

layer{
  type: "UnsqueezeOp"
  top: "unsqueeze_13"
  bottom: "slice_38"
  layer_param{
    attr_0: 2
    shape: [1, 8, 1, 1024, 64]
    dtype: "TensorDType.BFloat16"
  }
}

layer{
  type: "SliceOp"
  top: "slice_39"
  bottom: "unsqueeze_13"
  layer_param{
    attr_0: 3
    attr_1: 0
    attr_2: 9223372036854775807
    shape: [1, 8, 1, 1024, 64]
    dtype: "TensorDType.BFloat16"
  }
}

layer{
  type: "SliceOp"
  top: "slice_40"
  bottom: "slice_39"
  layer_param{
    attr_0: 4
    attr_1: 0
    attr_2: 9223372036854775807
    shape: [1, 8, 1, 1024, 64]
    dtype: "TensorDType.BFloat16"
  }
}

layer{
  type: "ExpandOp"
  top: "expand_7"
  bottom: "slice_40"
  layer_param{
    attr_0: [1, 8, 3, 1024, 64]
    shape: [1, 8, 3, 1024, 64]
    dtype: "TensorDType.BFloat16"
  }
}

layer{
  type: "ViewOp"
  top: "_unsafe_view_4"
  bottom: "expand_7"
  layer_param{
    attr_0: [1, 24, 1024, 64]
    shape: [1, 24, 1024, 64]
    dtype: "TensorDType.BFloat16"
  }
}

layer{
  type: "SliceOp"
  top: "slice_41"
  bottom: "transpose_10"
  layer_param{
    attr_0: 0
    attr_1: 0
    attr_2: 9223372036854775807
    shape: [1, 8, 1024, 64]
    dtype: "TensorDType.BFloat16"
  }
}

layer{
  type: "SliceOp"
  top: "slice_42"
  bottom: "slice_41"
  layer_param{
    attr_0: 1
    attr_1: 0
    attr_2: 9223372036854775807
    shape: [1, 8, 1024, 64]
    dtype: "TensorDType.BFloat16"
  }
}

layer{
  type: "UnsqueezeOp"
  top: "unsqueeze_14"
  bottom: "slice_42"
  layer_param{
    attr_0: 2
    shape: [1, 8, 1, 1024, 64]
    dtype: "TensorDType.BFloat16"
  }
}

layer{
  type: "SliceOp"
  top: "slice_43"
  bottom: "unsqueeze_14"
  layer_param{
    attr_0: 3
    attr_1: 0
    attr_2: 9223372036854775807
    shape: [1, 8, 1, 1024, 64]
    dtype: "TensorDType.BFloat16"
  }
}

layer{
  type: "SliceOp"
  top: "slice_44"
  bottom: "slice_43"
  layer_param{
    attr_0: 4
    attr_1: 0
    attr_2: 9223372036854775807
    shape: [1, 8, 1, 1024, 64]
    dtype: "TensorDType.BFloat16"
  }
}

layer{
  type: "ExpandOp"
  top: "expand_8"
  bottom: "slice_44"
  layer_param{
    attr_0: [1, 8, 3, 1024, 64]
    shape: [1, 8, 3, 1024, 64]
    dtype: "TensorDType.BFloat16"
  }
}

layer{
  type: "ViewOp"
  top: "_unsafe_view_5"
  bottom: "expand_8"
  layer_param{
    attr_0: [1, 24, 1024, 64]
    shape: [1, 24, 1024, 64]
    dtype: "TensorDType.BFloat16"
  }
}

layer{
  type: "ExpandOp"
  top: "expand_9"
  bottom: "expand"
  layer_param{
    attr_0: [1, 24, 1024, 1024]
    shape: [1, 24, 1024, 1024]
    dtype: "TensorDType.BFloat16"
  }
}

layer{
  type: "ScaledDotProductFlashAttentionForCpuOp"
  top: "_scaled_dot_product_efficient_attention_2"
  bottom: "add_14"
  bottom: "_unsafe_view_4"
  bottom: "_unsafe_view_5"
  bottom: "expand_9"
  layer_param{
    attr_0: False
    shape{
      output_0: [1, 24, 1024, 64]
      output_1: [1, 24, 0]
      output_2: []
      output_3: []
    }
  }
}

layer{
  type: "GetItemOp"
  top: "getitem_8"
  bottom: "_scaled_dot_product_efficient_attention_2"
  layer_param{
    attr_0: 0
    shape: [1, 24, 1024, 64]
    dtype: "TensorDType.BFloat16"
  }
}

layer{
  type: "TransposeOp"
  top: "transpose_11"
  bottom: "getitem_8"
  layer_param{
    attr_0: 1
    attr_1: 2
    shape: [1, 1024, 24, 64]
    dtype: "TensorDType.BFloat16"
  }
}

layer{
  type: "ViewOp"
  top: "view_46"
  bottom: "transpose_11"
  layer_param{
    attr_0: [1, 1024, 1536]
    shape: [1, 1024, 1536]
    dtype: "TensorDType.BFloat16"
  }
}

layer{
  type: "TransposeOp"
  top: "t_17"
  bottom: "arg123_1"
  layer_param{
    shape: [1536, 1536]
    dtype: "TensorDType.BFloat16"
  }
}

layer{
  type: "ViewOp"
  top: "view_47"
  bottom: "view_46"
  layer_param{
    attr_0: [1024, 1536]
    shape: [1024, 1536]
    dtype: "TensorDType.BFloat16"
  }
}

layer{
  type: "MatmulOp"
  top: "mm_17"
  bottom: "view_47"
  bottom: "t_17"
  layer_param{
    shape: [1024, 1536]
    dtype: "TensorDType.BFloat16"
  }
}

layer{
  type: "ViewOp"
  top: "view_48"
  bottom: "mm_17"
  layer_param{
    attr_0: [1, 1024, 1536]
    shape: [1, 1024, 1536]
    dtype: "TensorDType.BFloat16"
  }
}

layer{
  type: "MulOp"
  top: "mul_29"
  bottom: "view_48"
  layer_param{
    attr_0: 0.1941450686788302
    shape: [1, 1024, 1536]
    dtype: "TensorDType.BFloat16"
  }
}

layer{
  type: "AddOp"
  top: "add_16"
  bottom: "add_12"
  bottom: "mul_29"
  layer_param{
    shape: [1, 1024, 1536]
    dtype: "TensorDType.BFloat16"
  }
}

layer{
  type: "TransposeOp"
  top: "t_18"
  bottom: "arg124_1"
  layer_param{
    shape: [1536, 3840]
    dtype: "TensorDType.BFloat16"
  }
}

layer{
  type: "ViewOp"
  top: "view_49"
  bottom: "fuse_ln_mul_31"
  layer_param{
    attr_0: [1024, 1536]
    shape: [1024, 1536]
    dtype: "TensorDType.BFloat16"
  }
}

layer{
  type: "MatmulOp"
  top: "mm_18"
  bottom: "view_49"
  bottom: "t_18"
  layer_param{
    shape: [1024, 3840]
    dtype: "TensorDType.BFloat16"
  }
}

layer{
  type: "ViewOp"
  top: "view_50"
  bottom: "mm_18"
  layer_param{
    attr_0: [1, 1024, 3840]
    shape: [1, 1024, 3840]
    dtype: "TensorDType.BFloat16"
  }
}

layer{
  type: "SiluOp"
  top: "silu_2"
  bottom: "view_50"
  layer_param{
    shape: [1, 1024, 3840]
    dtype: "TensorDType.BFloat16"
  }
}

layer{
  type: "TransposeOp"
  top: "t_19"
  bottom: "arg125_1"
  layer_param{
    shape: [1536, 3840]
    dtype: "TensorDType.BFloat16"
  }
}

layer{
  type: "ViewOp"
  top: "view_51"
  bottom: "fuse_ln_mul_31"
  layer_param{
    attr_0: [1024, 1536]
    shape: [1024, 1536]
    dtype: "TensorDType.BFloat16"
  }
}

layer{
  type: "MatmulOp"
  top: "mm_19"
  bottom: "view_51"
  bottom: "t_19"
  layer_param{
    shape: [1024, 3840]
    dtype: "TensorDType.BFloat16"
  }
}

layer{
  type: "ViewOp"
  top: "view_52"
  bottom: "mm_19"
  layer_param{
    attr_0: [1, 1024, 3840]
    shape: [1, 1024, 3840]
    dtype: "TensorDType.BFloat16"
  }
}

layer{
  type: "MulOp"
  top: "mul_32"
  bottom: "silu_2"
  bottom: "view_52"
  layer_param{
    shape: [1, 1024, 3840]
    dtype: "TensorDType.BFloat16"
  }
}

layer{
  type: "TransposeOp"
  top: "t_20"
  bottom: "arg126_1"
  layer_param{
    shape: [3840, 1536]
    dtype: "TensorDType.BFloat16"
  }
}

layer{
  type: "ViewOp"
  top: "view_53"
  bottom: "mul_32"
  layer_param{
    attr_0: [1024, 3840]
    shape: [1024, 3840]
    dtype: "TensorDType.BFloat16"
  }
}

layer{
  type: "MatmulOp"
  top: "mm_20"
  bottom: "view_53"
  bottom: "t_20"
  layer_param{
    shape: [1024, 1536]
    dtype: "TensorDType.BFloat16"
  }
}

layer{
  type: "ViewOp"
  top: "view_54"
  bottom: "mm_20"
  layer_param{
    attr_0: [1, 1024, 1536]
    shape: [1, 1024, 1536]
    dtype: "TensorDType.BFloat16"
  }
}

layer{
  type: "MulOp"
  top: "mul_33"
  bottom: "view_54"
  layer_param{
    attr_0: 0.1941450686788302
    shape: [1, 1024, 1536]
    dtype: "TensorDType.BFloat16"
  }
}

layer{
  type: "AddOp"
  top: "add_18"
  bottom: "add_16"
  bottom: "mul_33"
  layer_param{
    shape: [1, 1024, 1536]
    dtype: "TensorDType.BFloat16"
  }
}

layer{
  type: "TransposeOp"
  top: "t_21"
  bottom: "arg127_1"
  layer_param{
    shape: [1536, 1536]
    dtype: "TensorDType.BFloat16"
  }
}

layer{
  type: "ViewOp"
  top: "view_55"
  bottom: "fuse_ln_mul_35"
  layer_param{
    attr_0: [1024, 1536]
    shape: [1024, 1536]
    dtype: "TensorDType.BFloat16"
  }
}

layer{
  type: "MatmulOp"
  top: "mm_21"
  bottom: "view_55"
  bottom: "t_21"
  layer_param{
    shape: [1024, 1536]
    dtype: "TensorDType.BFloat16"
  }
}

layer{
  type: "ViewOp"
  top: "view_56"
  bottom: "mm_21"
  layer_param{
    attr_0: [1, 1024, 1536]
    shape: [1, 1024, 1536]
    dtype: "TensorDType.BFloat16"
  }
}

layer{
  type: "TransposeOp"
  top: "t_22"
  bottom: "arg128_1"
  layer_param{
    shape: [1536, 512]
    dtype: "TensorDType.BFloat16"
  }
}

layer{
  type: "ViewOp"
  top: "view_57"
  bottom: "fuse_ln_mul_35"
  layer_param{
    attr_0: [1024, 1536]
    shape: [1024, 1536]
    dtype: "TensorDType.BFloat16"
  }
}

layer{
  type: "MatmulOp"
  top: "mm_22"
  bottom: "view_57"
  bottom: "t_22"
  layer_param{
    shape: [1024, 512]
    dtype: "TensorDType.BFloat16"
  }
}

layer{
  type: "ViewOp"
  top: "view_58"
  bottom: "mm_22"
  layer_param{
    attr_0: [1, 1024, 512]
    shape: [1, 1024, 512]
    dtype: "TensorDType.BFloat16"
  }
}

layer{
  type: "TransposeOp"
  top: "t_23"
  bottom: "arg129_1"
  layer_param{
    shape: [1536, 512]
    dtype: "TensorDType.BFloat16"
  }
}

layer{
  type: "ViewOp"
  top: "view_59"
  bottom: "fuse_ln_mul_35"
  layer_param{
    attr_0: [1024, 1536]
    shape: [1024, 1536]
    dtype: "TensorDType.BFloat16"
  }
}

layer{
  type: "MatmulOp"
  top: "mm_23"
  bottom: "view_59"
  bottom: "t_23"
  layer_param{
    shape: [1024, 512]
    dtype: "TensorDType.BFloat16"
  }
}

layer{
  type: "ViewOp"
  top: "view_60"
  bottom: "mm_23"
  layer_param{
    attr_0: [1, 1024, 512]
    shape: [1, 1024, 512]
    dtype: "TensorDType.BFloat16"
  }
}

layer{
  type: "ViewOp"
  top: "view_61"
  bottom: "view_56"
  layer_param{
    attr_0: [1, 1024, 24, 64]
    shape: [1, 1024, 24, 64]
    dtype: "TensorDType.BFloat16"
  }
}

layer{
  type: "TransposeOp"
  top: "transpose_12"
  bottom: "view_61"
  layer_param{
    attr_0: 1
    attr_1: 2
    shape: [1, 24, 1024, 64]
    dtype: "TensorDType.BFloat16"
  }
}

layer{
  type: "ViewOp"
  top: "view_62"
  bottom: "view_58"
  layer_param{
    attr_0: [1, 1024, 8, 64]
    shape: [1, 1024, 8, 64]
    dtype: "TensorDType.BFloat16"
  }
}

layer{
  type: "TransposeOp"
  top: "transpose_13"
  bottom: "view_62"
  layer_param{
    attr_0: 1
    attr_1: 2
    shape: [1, 8, 1024, 64]
    dtype: "TensorDType.BFloat16"
  }
}

layer{
  type: "ViewOp"
  top: "view_63"
  bottom: "view_60"
  layer_param{
    attr_0: [1, 1024, 8, 64]
    shape: [1, 1024, 8, 64]
    dtype: "TensorDType.BFloat16"
  }
}

layer{
  type: "TransposeOp"
  top: "transpose_14"
  bottom: "view_63"
  layer_param{
    attr_0: 1
    attr_1: 2
    shape: [1, 8, 1024, 64]
    dtype: "TensorDType.BFloat16"
  }
}

layer{
  type: "SliceOp"
  top: "slice_45"
  bottom: "arg477_1"
  layer_param{
    attr_0: 0
    attr_1: 0
    attr_2: 1024
    shape: [1024, 64]
    dtype: "TensorDType.Float32"
  }
}

layer{
  type: "SliceOp"
  top: "slice_46"
  bottom: "arg478_1"
  layer_param{
    attr_0: 0
    attr_1: 0
    attr_2: 1024
    shape: [1024, 64]
    dtype: "TensorDType.Float32"
  }
}

layer{
  type: "IndexOp"
  top: "index_6"
  bottom: "slice_45"
  layer_param{
    attr_0: [unsqueeze]
    shape: [1, 1024, 64]
    dtype: "TensorDType.BFloat16"
  }
}

layer{
  type: "UnsqueezeOp"
  top: "unsqueeze_15"
  bottom: "index_6"
  layer_param{
    attr_0: 1
    shape: [1, 1, 1024, 64]
    dtype: "TensorDType.BFloat16"
  }
}

layer{
  type: "IndexOp"
  top: "index_7"
  bottom: "slice_46"
  layer_param{
    attr_0: [unsqueeze]
    shape: [1, 1024, 64]
    dtype: "TensorDType.BFloat16"
  }
}

layer{
  type: "UnsqueezeOp"
  top: "unsqueeze_16"
  bottom: "index_7"
  layer_param{
    attr_0: 1
    shape: [1, 1, 1024, 64]
    dtype: "TensorDType.BFloat16"
  }
}

layer{
  type: "MulOp"
  top: "mul_36"
  bottom: "transpose_12"
  bottom: "unsqueeze_15"
  layer_param{
    shape: [1, 24, 1024, 64]
    dtype: "TensorDType.Float32"
  }
}

layer{
  type: "SliceOp"
  top: "slice_47"
  bottom: "transpose_12"
  layer_param{
    attr_0: 3
    attr_1: 0
    attr_2: 32
    shape: [1, 24, 1024, 32]
    dtype: "TensorDType.Float32"
  }
}

layer{
  type: "SliceOp"
  top: "slice_48"
  bottom: "transpose_12"
  layer_param{
    attr_0: 3
    attr_1: 32
    attr_2: 9223372036854775807
    shape: [1, 24, 1024, 32]
    dtype: "TensorDType.Float32"
  }
}

layer{
  type: "NegOp"
  top: "neg_6"
  bottom: "slice_48"
  layer_param{
    shape: [1, 24, 1024, 32]
    dtype: "TensorDType.Float32"
  }
}

layer{
  type: "CatOp"
  top: "cat_6"
  bottom: "neg_6"
  bottom: "slice_47"
  layer_param{
    attr_0: -1
    shape: [1, 24, 1024, 64]
    dtype: "TensorDType.Float32"
  }
}

layer{
  type: "MulOp"
  top: "mul_37"
  bottom: "cat_6"
  bottom: "unsqueeze_16"
  layer_param{
    shape: [1, 24, 1024, 64]
    dtype: "TensorDType.Float32"
  }
}

layer{
  type: "AddOp"
  top: "add_20"
  bottom: "mul_36"
  bottom: "mul_37"
  layer_param{
    shape: [1, 24, 1024, 64]
    dtype: "TensorDType.Float32"
  }
}

layer{
  type: "MulOp"
  top: "mul_38"
  bottom: "transpose_13"
  bottom: "unsqueeze_15"
  layer_param{
    shape: [1, 8, 1024, 64]
    dtype: "TensorDType.Float32"
  }
}

layer{
  type: "SliceOp"
  top: "slice_49"
  bottom: "transpose_13"
  layer_param{
    attr_0: 3
    attr_1: 0
    attr_2: 32
    shape: [1, 8, 1024, 32]
    dtype: "TensorDType.Float32"
  }
}

layer{
  type: "SliceOp"
  top: "slice_50"
  bottom: "transpose_13"
  layer_param{
    attr_0: 3
    attr_1: 32
    attr_2: 9223372036854775807
    shape: [1, 8, 1024, 32]
    dtype: "TensorDType.Float32"
  }
}

layer{
  type: "NegOp"
  top: "neg_7"
  bottom: "slice_50"
  layer_param{
    shape: [1, 8, 1024, 32]
    dtype: "TensorDType.Float32"
  }
}

layer{
  type: "CatOp"
  top: "cat_7"
  bottom: "neg_7"
  bottom: "slice_49"
  layer_param{
    attr_0: -1
    shape: [1, 8, 1024, 64]
    dtype: "TensorDType.Float32"
  }
}

layer{
  type: "MulOp"
  top: "mul_39"
  bottom: "cat_7"
  bottom: "unsqueeze_16"
  layer_param{
    shape: [1, 8, 1024, 64]
    dtype: "TensorDType.Float32"
  }
}

layer{
  type: "AddOp"
  top: "add_21"
  bottom: "mul_38"
  bottom: "mul_39"
  layer_param{
    shape: [1, 8, 1024, 64]
    dtype: "TensorDType.Float32"
  }
}

layer{
  type: "SliceOp"
  top: "slice_51"
  bottom: "add_21"
  layer_param{
    attr_0: 0
    attr_1: 0
    attr_2: 9223372036854775807
    shape: [1, 8, 1024, 64]
    dtype: "TensorDType.BFloat16"
  }
}

layer{
  type: "SliceOp"
  top: "slice_52"
  bottom: "slice_51"
  layer_param{
    attr_0: 1
    attr_1: 0
    attr_2: 9223372036854775807
    shape: [1, 8, 1024, 64]
    dtype: "TensorDType.BFloat16"
  }
}

layer{
  type: "UnsqueezeOp"
  top: "unsqueeze_17"
  bottom: "slice_52"
  layer_param{
    attr_0: 2
    shape: [1, 8, 1, 1024, 64]
    dtype: "TensorDType.BFloat16"
  }
}

layer{
  type: "SliceOp"
  top: "slice_53"
  bottom: "unsqueeze_17"
  layer_param{
    attr_0: 3
    attr_1: 0
    attr_2: 9223372036854775807
    shape: [1, 8, 1, 1024, 64]
    dtype: "TensorDType.BFloat16"
  }
}

layer{
  type: "SliceOp"
  top: "slice_54"
  bottom: "slice_53"
  layer_param{
    attr_0: 4
    attr_1: 0
    attr_2: 9223372036854775807
    shape: [1, 8, 1, 1024, 64]
    dtype: "TensorDType.BFloat16"
  }
}

layer{
  type: "ExpandOp"
  top: "expand_10"
  bottom: "slice_54"
  layer_param{
    attr_0: [1, 8, 3, 1024, 64]
    shape: [1, 8, 3, 1024, 64]
    dtype: "TensorDType.BFloat16"
  }
}

layer{
  type: "ViewOp"
  top: "_unsafe_view_6"
  bottom: "expand_10"
  layer_param{
    attr_0: [1, 24, 1024, 64]
    shape: [1, 24, 1024, 64]
    dtype: "TensorDType.BFloat16"
  }
}

layer{
  type: "SliceOp"
  top: "slice_55"
  bottom: "transpose_14"
  layer_param{
    attr_0: 0
    attr_1: 0
    attr_2: 9223372036854775807
    shape: [1, 8, 1024, 64]
    dtype: "TensorDType.BFloat16"
  }
}

layer{
  type: "SliceOp"
  top: "slice_56"
  bottom: "slice_55"
  layer_param{
    attr_0: 1
    attr_1: 0
    attr_2: 9223372036854775807
    shape: [1, 8, 1024, 64]
    dtype: "TensorDType.BFloat16"
  }
}

layer{
  type: "UnsqueezeOp"
  top: "unsqueeze_18"
  bottom: "slice_56"
  layer_param{
    attr_0: 2
    shape: [1, 8, 1, 1024, 64]
    dtype: "TensorDType.BFloat16"
  }
}

layer{
  type: "SliceOp"
  top: "slice_57"
  bottom: "unsqueeze_18"
  layer_param{
    attr_0: 3
    attr_1: 0
    attr_2: 9223372036854775807
    shape: [1, 8, 1, 1024, 64]
    dtype: "TensorDType.BFloat16"
  }
}

layer{
  type: "SliceOp"
  top: "slice_58"
  bottom: "slice_57"
  layer_param{
    attr_0: 4
    attr_1: 0
    attr_2: 9223372036854775807
    shape: [1, 8, 1, 1024, 64]
    dtype: "TensorDType.BFloat16"
  }
}

layer{
  type: "ExpandOp"
  top: "expand_11"
  bottom: "slice_58"
  layer_param{
    attr_0: [1, 8, 3, 1024, 64]
    shape: [1, 8, 3, 1024, 64]
    dtype: "TensorDType.BFloat16"
  }
}

layer{
  type: "ViewOp"
  top: "_unsafe_view_7"
  bottom: "expand_11"
  layer_param{
    attr_0: [1, 24, 1024, 64]
    shape: [1, 24, 1024, 64]
    dtype: "TensorDType.BFloat16"
  }
}

layer{
  type: "ExpandOp"
  top: "expand_12"
  bottom: "expand"
  layer_param{
    attr_0: [1, 24, 1024, 1024]
    shape: [1, 24, 1024, 1024]
    dtype: "TensorDType.BFloat16"
  }
}

layer{
  type: "ScaledDotProductFlashAttentionForCpuOp"
  top: "_scaled_dot_product_efficient_attention_3"
  bottom: "add_20"
  bottom: "_unsafe_view_6"
  bottom: "_unsafe_view_7"
  bottom: "expand_12"
  layer_param{
    attr_0: False
    shape{
      output_0: [1, 24, 1024, 64]
      output_1: [1, 24, 0]
      output_2: []
      output_3: []
    }
  }
}

layer{
  type: "GetItemOp"
  top: "getitem_12"
  bottom: "_scaled_dot_product_efficient_attention_3"
  layer_param{
    attr_0: 0
    shape: [1, 24, 1024, 64]
    dtype: "TensorDType.BFloat16"
  }
}

layer{
  type: "TransposeOp"
  top: "transpose_15"
  bottom: "getitem_12"
  layer_param{
    attr_0: 1
    attr_1: 2
    shape: [1, 1024, 24, 64]
    dtype: "TensorDType.BFloat16"
  }
}

layer{
  type: "ViewOp"
  top: "view_64"
  bottom: "transpose_15"
  layer_param{
    attr_0: [1, 1024, 1536]
    shape: [1, 1024, 1536]
    dtype: "TensorDType.BFloat16"
  }
}

layer{
  type: "TransposeOp"
  top: "t_24"
  bottom: "arg130_1"
  layer_param{
    shape: [1536, 1536]
    dtype: "TensorDType.BFloat16"
  }
}

layer{
  type: "ViewOp"
  top: "view_65"
  bottom: "view_64"
  layer_param{
    attr_0: [1024, 1536]
    shape: [1024, 1536]
    dtype: "TensorDType.BFloat16"
  }
}

layer{
  type: "MatmulOp"
  top: "mm_24"
  bottom: "view_65"
  bottom: "t_24"
  layer_param{
    shape: [1024, 1536]
    dtype: "TensorDType.BFloat16"
  }
}

layer{
  type: "ViewOp"
  top: "view_66"
  bottom: "mm_24"
  layer_param{
    attr_0: [1, 1024, 1536]
    shape: [1, 1024, 1536]
    dtype: "TensorDType.BFloat16"
  }
}

layer{
  type: "MulOp"
  top: "mul_40"
  bottom: "view_66"
  layer_param{
    attr_0: 0.1941450686788302
    shape: [1, 1024, 1536]
    dtype: "TensorDType.BFloat16"
  }
}

layer{
  type: "AddOp"
  top: "add_22"
  bottom: "add_18"
  bottom: "mul_40"
  layer_param{
    shape: [1, 1024, 1536]
    dtype: "TensorDType.BFloat16"
  }
}

layer{
  type: "TransposeOp"
  top: "t_25"
  bottom: "arg131_1"
  layer_param{
    shape: [1536, 3840]
    dtype: "TensorDType.BFloat16"
  }
}

layer{
  type: "ViewOp"
  top: "view_67"
  bottom: "fuse_ln_mul_42"
  layer_param{
    attr_0: [1024, 1536]
    shape: [1024, 1536]
    dtype: "TensorDType.BFloat16"
  }
}

layer{
  type: "MatmulOp"
  top: "mm_25"
  bottom: "view_67"
  bottom: "t_25"
  layer_param{
    shape: [1024, 3840]
    dtype: "TensorDType.BFloat16"
  }
}

layer{
  type: "ViewOp"
  top: "view_68"
  bottom: "mm_25"
  layer_param{
    attr_0: [1, 1024, 3840]
    shape: [1, 1024, 3840]
    dtype: "TensorDType.BFloat16"
  }
}

layer{
  type: "SiluOp"
  top: "silu_3"
  bottom: "view_68"
  layer_param{
    shape: [1, 1024, 3840]
    dtype: "TensorDType.BFloat16"
  }
}

layer{
  type: "TransposeOp"
  top: "t_26"
  bottom: "arg132_1"
  layer_param{
    shape: [1536, 3840]
    dtype: "TensorDType.BFloat16"
  }
}

layer{
  type: "ViewOp"
  top: "view_69"
  bottom: "fuse_ln_mul_42"
  layer_param{
    attr_0: [1024, 1536]
    shape: [1024, 1536]
    dtype: "TensorDType.BFloat16"
  }
}

layer{
  type: "MatmulOp"
  top: "mm_26"
  bottom: "view_69"
  bottom: "t_26"
  layer_param{
    shape: [1024, 3840]
    dtype: "TensorDType.BFloat16"
  }
}

layer{
  type: "ViewOp"
  top: "view_70"
  bottom: "mm_26"
  layer_param{
    attr_0: [1, 1024, 3840]
    shape: [1, 1024, 3840]
    dtype: "TensorDType.BFloat16"
  }
}

layer{
  type: "MulOp"
  top: "mul_43"
  bottom: "silu_3"
  bottom: "view_70"
  layer_param{
    shape: [1, 1024, 3840]
    dtype: "TensorDType.BFloat16"
  }
}

layer{
  type: "TransposeOp"
  top: "t_27"
  bottom: "arg133_1"
  layer_param{
    shape: [3840, 1536]
    dtype: "TensorDType.BFloat16"
  }
}

layer{
  type: "ViewOp"
  top: "view_71"
  bottom: "mul_43"
  layer_param{
    attr_0: [1024, 3840]
    shape: [1024, 3840]
    dtype: "TensorDType.BFloat16"
  }
}

layer{
  type: "MatmulOp"
  top: "mm_27"
  bottom: "view_71"
  bottom: "t_27"
  layer_param{
    shape: [1024, 1536]
    dtype: "TensorDType.BFloat16"
  }
}

layer{
  type: "ViewOp"
  top: "view_72"
  bottom: "mm_27"
  layer_param{
    attr_0: [1, 1024, 1536]
    shape: [1, 1024, 1536]
    dtype: "TensorDType.BFloat16"
  }
}

layer{
  type: "MulOp"
  top: "mul_44"
  bottom: "view_72"
  layer_param{
    attr_0: 0.1941450686788302
    shape: [1, 1024, 1536]
    dtype: "TensorDType.BFloat16"
  }
}

layer{
  type: "AddOp"
  top: "add_24"
  bottom: "add_22"
  bottom: "mul_44"
  layer_param{
    shape: [1, 1024, 1536]
    dtype: "TensorDType.BFloat16"
  }
}

layer{
  type: "TransposeOp"
  top: "t_28"
  bottom: "arg134_1"
  layer_param{
    shape: [1536, 1536]
    dtype: "TensorDType.BFloat16"
  }
}

layer{
  type: "ViewOp"
  top: "view_73"
  bottom: "fuse_ln_mul_46"
  layer_param{
    attr_0: [1024, 1536]
    shape: [1024, 1536]
    dtype: "TensorDType.BFloat16"
  }
}

layer{
  type: "MatmulOp"
  top: "mm_28"
  bottom: "view_73"
  bottom: "t_28"
  layer_param{
    shape: [1024, 1536]
    dtype: "TensorDType.BFloat16"
  }
}

layer{
  type: "ViewOp"
  top: "view_74"
  bottom: "mm_28"
  layer_param{
    attr_0: [1, 1024, 1536]
    shape: [1, 1024, 1536]
    dtype: "TensorDType.BFloat16"
  }
}

layer{
  type: "TransposeOp"
  top: "t_29"
  bottom: "arg135_1"
  layer_param{
    shape: [1536, 512]
    dtype: "TensorDType.BFloat16"
  }
}

layer{
  type: "ViewOp"
  top: "view_75"
  bottom: "fuse_ln_mul_46"
  layer_param{
    attr_0: [1024, 1536]
    shape: [1024, 1536]
    dtype: "TensorDType.BFloat16"
  }
}

layer{
  type: "MatmulOp"
  top: "mm_29"
  bottom: "view_75"
  bottom: "t_29"
  layer_param{
    shape: [1024, 512]
    dtype: "TensorDType.BFloat16"
  }
}

layer{
  type: "ViewOp"
  top: "view_76"
  bottom: "mm_29"
  layer_param{
    attr_0: [1, 1024, 512]
    shape: [1, 1024, 512]
    dtype: "TensorDType.BFloat16"
  }
}

layer{
  type: "TransposeOp"
  top: "t_30"
  bottom: "arg136_1"
  layer_param{
    shape: [1536, 512]
    dtype: "TensorDType.BFloat16"
  }
}

layer{
  type: "ViewOp"
  top: "view_77"
  bottom: "fuse_ln_mul_46"
  layer_param{
    attr_0: [1024, 1536]
    shape: [1024, 1536]
    dtype: "TensorDType.BFloat16"
  }
}

layer{
  type: "MatmulOp"
  top: "mm_30"
  bottom: "view_77"
  bottom: "t_30"
  layer_param{
    shape: [1024, 512]
    dtype: "TensorDType.BFloat16"
  }
}

layer{
  type: "ViewOp"
  top: "view_78"
  bottom: "mm_30"
  layer_param{
    attr_0: [1, 1024, 512]
    shape: [1, 1024, 512]
    dtype: "TensorDType.BFloat16"
  }
}

layer{
  type: "ViewOp"
  top: "view_79"
  bottom: "view_74"
  layer_param{
    attr_0: [1, 1024, 24, 64]
    shape: [1, 1024, 24, 64]
    dtype: "TensorDType.BFloat16"
  }
}

layer{
  type: "TransposeOp"
  top: "transpose_16"
  bottom: "view_79"
  layer_param{
    attr_0: 1
    attr_1: 2
    shape: [1, 24, 1024, 64]
    dtype: "TensorDType.BFloat16"
  }
}

layer{
  type: "ViewOp"
  top: "view_80"
  bottom: "view_76"
  layer_param{
    attr_0: [1, 1024, 8, 64]
    shape: [1, 1024, 8, 64]
    dtype: "TensorDType.BFloat16"
  }
}

layer{
  type: "TransposeOp"
  top: "transpose_17"
  bottom: "view_80"
  layer_param{
    attr_0: 1
    attr_1: 2
    shape: [1, 8, 1024, 64]
    dtype: "TensorDType.BFloat16"
  }
}

layer{
  type: "ViewOp"
  top: "view_81"
  bottom: "view_78"
  layer_param{
    attr_0: [1, 1024, 8, 64]
    shape: [1, 1024, 8, 64]
    dtype: "TensorDType.BFloat16"
  }
}

layer{
  type: "TransposeOp"
  top: "transpose_18"
  bottom: "view_81"
  layer_param{
    attr_0: 1
    attr_1: 2
    shape: [1, 8, 1024, 64]
    dtype: "TensorDType.BFloat16"
  }
}

layer{
  type: "SliceOp"
  top: "slice_59"
  bottom: "arg479_1"
  layer_param{
    attr_0: 0
    attr_1: 0
    attr_2: 1024
    shape: [1024, 64]
    dtype: "TensorDType.Float32"
  }
}

layer{
  type: "SliceOp"
  top: "slice_60"
  bottom: "arg480_1"
  layer_param{
    attr_0: 0
    attr_1: 0
    attr_2: 1024
    shape: [1024, 64]
    dtype: "TensorDType.Float32"
  }
}

layer{
  type: "IndexOp"
  top: "index_8"
  bottom: "slice_59"
  layer_param{
    attr_0: [unsqueeze]
    shape: [1, 1024, 64]
    dtype: "TensorDType.BFloat16"
  }
}

layer{
  type: "UnsqueezeOp"
  top: "unsqueeze_19"
  bottom: "index_8"
  layer_param{
    attr_0: 1
    shape: [1, 1, 1024, 64]
    dtype: "TensorDType.BFloat16"
  }
}

layer{
  type: "IndexOp"
  top: "index_9"
  bottom: "slice_60"
  layer_param{
    attr_0: [unsqueeze]
    shape: [1, 1024, 64]
    dtype: "TensorDType.BFloat16"
  }
}

layer{
  type: "UnsqueezeOp"
  top: "unsqueeze_20"
  bottom: "index_9"
  layer_param{
    attr_0: 1
    shape: [1, 1, 1024, 64]
    dtype: "TensorDType.BFloat16"
  }
}

layer{
  type: "MulOp"
  top: "mul_47"
  bottom: "transpose_16"
  bottom: "unsqueeze_19"
  layer_param{
    shape: [1, 24, 1024, 64]
    dtype: "TensorDType.Float32"
  }
}

layer{
  type: "SliceOp"
  top: "slice_61"
  bottom: "transpose_16"
  layer_param{
    attr_0: 3
    attr_1: 0
    attr_2: 32
    shape: [1, 24, 1024, 32]
    dtype: "TensorDType.Float32"
  }
}

layer{
  type: "SliceOp"
  top: "slice_62"
  bottom: "transpose_16"
  layer_param{
    attr_0: 3
    attr_1: 32
    attr_2: 9223372036854775807
    shape: [1, 24, 1024, 32]
    dtype: "TensorDType.Float32"
  }
}

layer{
  type: "NegOp"
  top: "neg_8"
  bottom: "slice_62"
  layer_param{
    shape: [1, 24, 1024, 32]
    dtype: "TensorDType.Float32"
  }
}

layer{
  type: "CatOp"
  top: "cat_8"
  bottom: "neg_8"
  bottom: "slice_61"
  layer_param{
    attr_0: -1
    shape: [1, 24, 1024, 64]
    dtype: "TensorDType.Float32"
  }
}

layer{
  type: "MulOp"
  top: "mul_48"
  bottom: "cat_8"
  bottom: "unsqueeze_20"
  layer_param{
    shape: [1, 24, 1024, 64]
    dtype: "TensorDType.Float32"
  }
}

layer{
  type: "AddOp"
  top: "add_26"
  bottom: "mul_47"
  bottom: "mul_48"
  layer_param{
    shape: [1, 24, 1024, 64]
    dtype: "TensorDType.Float32"
  }
}

layer{
  type: "MulOp"
  top: "mul_49"
  bottom: "transpose_17"
  bottom: "unsqueeze_19"
  layer_param{
    shape: [1, 8, 1024, 64]
    dtype: "TensorDType.Float32"
  }
}

layer{
  type: "SliceOp"
  top: "slice_63"
  bottom: "transpose_17"
  layer_param{
    attr_0: 3
    attr_1: 0
    attr_2: 32
    shape: [1, 8, 1024, 32]
    dtype: "TensorDType.Float32"
  }
}

layer{
  type: "SliceOp"
  top: "slice_64"
  bottom: "transpose_17"
  layer_param{
    attr_0: 3
    attr_1: 32
    attr_2: 9223372036854775807
    shape: [1, 8, 1024, 32]
    dtype: "TensorDType.Float32"
  }
}

layer{
  type: "NegOp"
  top: "neg_9"
  bottom: "slice_64"
  layer_param{
    shape: [1, 8, 1024, 32]
    dtype: "TensorDType.Float32"
  }
}

layer{
  type: "CatOp"
  top: "cat_9"
  bottom: "neg_9"
  bottom: "slice_63"
  layer_param{
    attr_0: -1
    shape: [1, 8, 1024, 64]
    dtype: "TensorDType.Float32"
  }
}

layer{
  type: "MulOp"
  top: "mul_50"
  bottom: "cat_9"
  bottom: "unsqueeze_20"
  layer_param{
    shape: [1, 8, 1024, 64]
    dtype: "TensorDType.Float32"
  }
}

layer{
  type: "AddOp"
  top: "add_27"
  bottom: "mul_49"
  bottom: "mul_50"
  layer_param{
    shape: [1, 8, 1024, 64]
    dtype: "TensorDType.Float32"
  }
}

layer{
  type: "SliceOp"
  top: "slice_65"
  bottom: "add_27"
  layer_param{
    attr_0: 0
    attr_1: 0
    attr_2: 9223372036854775807
    shape: [1, 8, 1024, 64]
    dtype: "TensorDType.BFloat16"
  }
}

layer{
  type: "SliceOp"
  top: "slice_66"
  bottom: "slice_65"
  layer_param{
    attr_0: 1
    attr_1: 0
    attr_2: 9223372036854775807
    shape: [1, 8, 1024, 64]
    dtype: "TensorDType.BFloat16"
  }
}

layer{
  type: "UnsqueezeOp"
  top: "unsqueeze_21"
  bottom: "slice_66"
  layer_param{
    attr_0: 2
    shape: [1, 8, 1, 1024, 64]
    dtype: "TensorDType.BFloat16"
  }
}

layer{
  type: "SliceOp"
  top: "slice_67"
  bottom: "unsqueeze_21"
  layer_param{
    attr_0: 3
    attr_1: 0
    attr_2: 9223372036854775807
    shape: [1, 8, 1, 1024, 64]
    dtype: "TensorDType.BFloat16"
  }
}

layer{
  type: "SliceOp"
  top: "slice_68"
  bottom: "slice_67"
  layer_param{
    attr_0: 4
    attr_1: 0
    attr_2: 9223372036854775807
    shape: [1, 8, 1, 1024, 64]
    dtype: "TensorDType.BFloat16"
  }
}

layer{
  type: "ExpandOp"
  top: "expand_13"
  bottom: "slice_68"
  layer_param{
    attr_0: [1, 8, 3, 1024, 64]
    shape: [1, 8, 3, 1024, 64]
    dtype: "TensorDType.BFloat16"
  }
}

layer{
  type: "ViewOp"
  top: "_unsafe_view_8"
  bottom: "expand_13"
  layer_param{
    attr_0: [1, 24, 1024, 64]
    shape: [1, 24, 1024, 64]
    dtype: "TensorDType.BFloat16"
  }
}

layer{
  type: "SliceOp"
  top: "slice_69"
  bottom: "transpose_18"
  layer_param{
    attr_0: 0
    attr_1: 0
    attr_2: 9223372036854775807
    shape: [1, 8, 1024, 64]
    dtype: "TensorDType.BFloat16"
  }
}

layer{
  type: "SliceOp"
  top: "slice_70"
  bottom: "slice_69"
  layer_param{
    attr_0: 1
    attr_1: 0
    attr_2: 9223372036854775807
    shape: [1, 8, 1024, 64]
    dtype: "TensorDType.BFloat16"
  }
}

layer{
  type: "UnsqueezeOp"
  top: "unsqueeze_22"
  bottom: "slice_70"
  layer_param{
    attr_0: 2
    shape: [1, 8, 1, 1024, 64]
    dtype: "TensorDType.BFloat16"
  }
}

layer{
  type: "SliceOp"
  top: "slice_71"
  bottom: "unsqueeze_22"
  layer_param{
    attr_0: 3
    attr_1: 0
    attr_2: 9223372036854775807
    shape: [1, 8, 1, 1024, 64]
    dtype: "TensorDType.BFloat16"
  }
}

layer{
  type: "SliceOp"
  top: "slice_72"
  bottom: "slice_71"
  layer_param{
    attr_0: 4
    attr_1: 0
    attr_2: 9223372036854775807
    shape: [1, 8, 1, 1024, 64]
    dtype: "TensorDType.BFloat16"
  }
}

layer{
  type: "ExpandOp"
  top: "expand_14"
  bottom: "slice_72"
  layer_param{
    attr_0: [1, 8, 3, 1024, 64]
    shape: [1, 8, 3, 1024, 64]
    dtype: "TensorDType.BFloat16"
  }
}

layer{
  type: "ViewOp"
  top: "_unsafe_view_9"
  bottom: "expand_14"
  layer_param{
    attr_0: [1, 24, 1024, 64]
    shape: [1, 24, 1024, 64]
    dtype: "TensorDType.BFloat16"
  }
}

layer{
  type: "ExpandOp"
  top: "expand_15"
  bottom: "expand"
  layer_param{
    attr_0: [1, 24, 1024, 1024]
    shape: [1, 24, 1024, 1024]
    dtype: "TensorDType.BFloat16"
  }
}

layer{
  type: "ScaledDotProductFlashAttentionForCpuOp"
  top: "_scaled_dot_product_efficient_attention_4"
  bottom: "add_26"
  bottom: "_unsafe_view_8"
  bottom: "_unsafe_view_9"
  bottom: "expand_15"
  layer_param{
    attr_0: False
    shape{
      output_0: [1, 24, 1024, 64]
      output_1: [1, 24, 0]
      output_2: []
      output_3: []
    }
  }
}

layer{
  type: "GetItemOp"
  top: "getitem_16"
  bottom: "_scaled_dot_product_efficient_attention_4"
  layer_param{
    attr_0: 0
    shape: [1, 24, 1024, 64]
    dtype: "TensorDType.BFloat16"
  }
}

layer{
  type: "TransposeOp"
  top: "transpose_19"
  bottom: "getitem_16"
  layer_param{
    attr_0: 1
    attr_1: 2
    shape: [1, 1024, 24, 64]
    dtype: "TensorDType.BFloat16"
  }
}

layer{
  type: "ViewOp"
  top: "view_82"
  bottom: "transpose_19"
  layer_param{
    attr_0: [1, 1024, 1536]
    shape: [1, 1024, 1536]
    dtype: "TensorDType.BFloat16"
  }
}

layer{
  type: "TransposeOp"
  top: "t_31"
  bottom: "arg137_1"
  layer_param{
    shape: [1536, 1536]
    dtype: "TensorDType.BFloat16"
  }
}

layer{
  type: "ViewOp"
  top: "view_83"
  bottom: "view_82"
  layer_param{
    attr_0: [1024, 1536]
    shape: [1024, 1536]
    dtype: "TensorDType.BFloat16"
  }
}

layer{
  type: "MatmulOp"
  top: "mm_31"
  bottom: "view_83"
  bottom: "t_31"
  layer_param{
    shape: [1024, 1536]
    dtype: "TensorDType.BFloat16"
  }
}

layer{
  type: "ViewOp"
  top: "view_84"
  bottom: "mm_31"
  layer_param{
    attr_0: [1, 1024, 1536]
    shape: [1, 1024, 1536]
    dtype: "TensorDType.BFloat16"
  }
}

layer{
  type: "MulOp"
  top: "mul_51"
  bottom: "view_84"
  layer_param{
    attr_0: 0.1941450686788302
    shape: [1, 1024, 1536]
    dtype: "TensorDType.BFloat16"
  }
}

layer{
  type: "AddOp"
  top: "add_28"
  bottom: "add_24"
  bottom: "mul_51"
  layer_param{
    shape: [1, 1024, 1536]
    dtype: "TensorDType.BFloat16"
  }
}

layer{
  type: "TransposeOp"
  top: "t_32"
  bottom: "arg138_1"
  layer_param{
    shape: [1536, 3840]
    dtype: "TensorDType.BFloat16"
  }
}

layer{
  type: "ViewOp"
  top: "view_85"
  bottom: "fuse_ln_mul_53"
  layer_param{
    attr_0: [1024, 1536]
    shape: [1024, 1536]
    dtype: "TensorDType.BFloat16"
  }
}

layer{
  type: "MatmulOp"
  top: "mm_32"
  bottom: "view_85"
  bottom: "t_32"
  layer_param{
    shape: [1024, 3840]
    dtype: "TensorDType.BFloat16"
  }
}

layer{
  type: "ViewOp"
  top: "view_86"
  bottom: "mm_32"
  layer_param{
    attr_0: [1, 1024, 3840]
    shape: [1, 1024, 3840]
    dtype: "TensorDType.BFloat16"
  }
}

layer{
  type: "SiluOp"
  top: "silu_4"
  bottom: "view_86"
  layer_param{
    shape: [1, 1024, 3840]
    dtype: "TensorDType.BFloat16"
  }
}

layer{
  type: "TransposeOp"
  top: "t_33"
  bottom: "arg139_1"
  layer_param{
    shape: [1536, 3840]
    dtype: "TensorDType.BFloat16"
  }
}

layer{
  type: "ViewOp"
  top: "view_87"
  bottom: "fuse_ln_mul_53"
  layer_param{
    attr_0: [1024, 1536]
    shape: [1024, 1536]
    dtype: "TensorDType.BFloat16"
  }
}

layer{
  type: "MatmulOp"
  top: "mm_33"
  bottom: "view_87"
  bottom: "t_33"
  layer_param{
    shape: [1024, 3840]
    dtype: "TensorDType.BFloat16"
  }
}

layer{
  type: "ViewOp"
  top: "view_88"
  bottom: "mm_33"
  layer_param{
    attr_0: [1, 1024, 3840]
    shape: [1, 1024, 3840]
    dtype: "TensorDType.BFloat16"
  }
}

layer{
  type: "MulOp"
  top: "mul_54"
  bottom: "silu_4"
  bottom: "view_88"
  layer_param{
    shape: [1, 1024, 3840]
    dtype: "TensorDType.BFloat16"
  }
}

layer{
  type: "TransposeOp"
  top: "t_34"
  bottom: "arg140_1"
  layer_param{
    shape: [3840, 1536]
    dtype: "TensorDType.BFloat16"
  }
}

layer{
  type: "ViewOp"
  top: "view_89"
  bottom: "mul_54"
  layer_param{
    attr_0: [1024, 3840]
    shape: [1024, 3840]
    dtype: "TensorDType.BFloat16"
  }
}

layer{
  type: "MatmulOp"
  top: "mm_34"
  bottom: "view_89"
  bottom: "t_34"
  layer_param{
    shape: [1024, 1536]
    dtype: "TensorDType.BFloat16"
  }
}

layer{
  type: "ViewOp"
  top: "view_90"
  bottom: "mm_34"
  layer_param{
    attr_0: [1, 1024, 1536]
    shape: [1, 1024, 1536]
    dtype: "TensorDType.BFloat16"
  }
}

layer{
  type: "MulOp"
  top: "mul_55"
  bottom: "view_90"
  layer_param{
    attr_0: 0.1941450686788302
    shape: [1, 1024, 1536]
    dtype: "TensorDType.BFloat16"
  }
}

layer{
  type: "AddOp"
  top: "add_30"
  bottom: "add_28"
  bottom: "mul_55"
  layer_param{
    shape: [1, 1024, 1536]
    dtype: "TensorDType.BFloat16"
  }
}

layer{
  type: "TransposeOp"
  top: "t_35"
  bottom: "arg141_1"
  layer_param{
    shape: [1536, 1536]
    dtype: "TensorDType.BFloat16"
  }
}

layer{
  type: "ViewOp"
  top: "view_91"
  bottom: "fuse_ln_mul_57"
  layer_param{
    attr_0: [1024, 1536]
    shape: [1024, 1536]
    dtype: "TensorDType.BFloat16"
  }
}

layer{
  type: "MatmulOp"
  top: "mm_35"
  bottom: "view_91"
  bottom: "t_35"
  layer_param{
    shape: [1024, 1536]
    dtype: "TensorDType.BFloat16"
  }
}

layer{
  type: "ViewOp"
  top: "view_92"
  bottom: "mm_35"
  layer_param{
    attr_0: [1, 1024, 1536]
    shape: [1, 1024, 1536]
    dtype: "TensorDType.BFloat16"
  }
}

layer{
  type: "TransposeOp"
  top: "t_36"
  bottom: "arg142_1"
  layer_param{
    shape: [1536, 512]
    dtype: "TensorDType.BFloat16"
  }
}

layer{
  type: "ViewOp"
  top: "view_93"
  bottom: "fuse_ln_mul_57"
  layer_param{
    attr_0: [1024, 1536]
    shape: [1024, 1536]
    dtype: "TensorDType.BFloat16"
  }
}

layer{
  type: "MatmulOp"
  top: "mm_36"
  bottom: "view_93"
  bottom: "t_36"
  layer_param{
    shape: [1024, 512]
    dtype: "TensorDType.BFloat16"
  }
}

layer{
  type: "ViewOp"
  top: "view_94"
  bottom: "mm_36"
  layer_param{
    attr_0: [1, 1024, 512]
    shape: [1, 1024, 512]
    dtype: "TensorDType.BFloat16"
  }
}

layer{
  type: "TransposeOp"
  top: "t_37"
  bottom: "arg143_1"
  layer_param{
    shape: [1536, 512]
    dtype: "TensorDType.BFloat16"
  }
}

layer{
  type: "ViewOp"
  top: "view_95"
  bottom: "fuse_ln_mul_57"
  layer_param{
    attr_0: [1024, 1536]
    shape: [1024, 1536]
    dtype: "TensorDType.BFloat16"
  }
}

layer{
  type: "MatmulOp"
  top: "mm_37"
  bottom: "view_95"
  bottom: "t_37"
  layer_param{
    shape: [1024, 512]
    dtype: "TensorDType.BFloat16"
  }
}

layer{
  type: "ViewOp"
  top: "view_96"
  bottom: "mm_37"
  layer_param{
    attr_0: [1, 1024, 512]
    shape: [1, 1024, 512]
    dtype: "TensorDType.BFloat16"
  }
}

layer{
  type: "ViewOp"
  top: "view_97"
  bottom: "view_92"
  layer_param{
    attr_0: [1, 1024, 24, 64]
    shape: [1, 1024, 24, 64]
    dtype: "TensorDType.BFloat16"
  }
}

layer{
  type: "TransposeOp"
  top: "transpose_20"
  bottom: "view_97"
  layer_param{
    attr_0: 1
    attr_1: 2
    shape: [1, 24, 1024, 64]
    dtype: "TensorDType.BFloat16"
  }
}

layer{
  type: "ViewOp"
  top: "view_98"
  bottom: "view_94"
  layer_param{
    attr_0: [1, 1024, 8, 64]
    shape: [1, 1024, 8, 64]
    dtype: "TensorDType.BFloat16"
  }
}

layer{
  type: "TransposeOp"
  top: "transpose_21"
  bottom: "view_98"
  layer_param{
    attr_0: 1
    attr_1: 2
    shape: [1, 8, 1024, 64]
    dtype: "TensorDType.BFloat16"
  }
}

layer{
  type: "ViewOp"
  top: "view_99"
  bottom: "view_96"
  layer_param{
    attr_0: [1, 1024, 8, 64]
    shape: [1, 1024, 8, 64]
    dtype: "TensorDType.BFloat16"
  }
}

layer{
  type: "TransposeOp"
  top: "transpose_22"
  bottom: "view_99"
  layer_param{
    attr_0: 1
    attr_1: 2
    shape: [1, 8, 1024, 64]
    dtype: "TensorDType.BFloat16"
  }
}

layer{
  type: "SliceOp"
  top: "slice_73"
  bottom: "arg481_1"
  layer_param{
    attr_0: 0
    attr_1: 0
    attr_2: 1024
    shape: [1024, 64]
    dtype: "TensorDType.Float32"
  }
}

layer{
  type: "SliceOp"
  top: "slice_74"
  bottom: "arg482_1"
  layer_param{
    attr_0: 0
    attr_1: 0
    attr_2: 1024
    shape: [1024, 64]
    dtype: "TensorDType.Float32"
  }
}

layer{
  type: "IndexOp"
  top: "index_10"
  bottom: "slice_73"
  layer_param{
    attr_0: [unsqueeze]
    shape: [1, 1024, 64]
    dtype: "TensorDType.BFloat16"
  }
}

layer{
  type: "UnsqueezeOp"
  top: "unsqueeze_23"
  bottom: "index_10"
  layer_param{
    attr_0: 1
    shape: [1, 1, 1024, 64]
    dtype: "TensorDType.BFloat16"
  }
}

layer{
  type: "IndexOp"
  top: "index_11"
  bottom: "slice_74"
  layer_param{
    attr_0: [unsqueeze]
    shape: [1, 1024, 64]
    dtype: "TensorDType.BFloat16"
  }
}

layer{
  type: "UnsqueezeOp"
  top: "unsqueeze_24"
  bottom: "index_11"
  layer_param{
    attr_0: 1
    shape: [1, 1, 1024, 64]
    dtype: "TensorDType.BFloat16"
  }
}

layer{
  type: "MulOp"
  top: "mul_58"
  bottom: "transpose_20"
  bottom: "unsqueeze_23"
  layer_param{
    shape: [1, 24, 1024, 64]
    dtype: "TensorDType.Float32"
  }
}

layer{
  type: "SliceOp"
  top: "slice_75"
  bottom: "transpose_20"
  layer_param{
    attr_0: 3
    attr_1: 0
    attr_2: 32
    shape: [1, 24, 1024, 32]
    dtype: "TensorDType.Float32"
  }
}

layer{
  type: "SliceOp"
  top: "slice_76"
  bottom: "transpose_20"
  layer_param{
    attr_0: 3
    attr_1: 32
    attr_2: 9223372036854775807
    shape: [1, 24, 1024, 32]
    dtype: "TensorDType.Float32"
  }
}

layer{
  type: "NegOp"
  top: "neg_10"
  bottom: "slice_76"
  layer_param{
    shape: [1, 24, 1024, 32]
    dtype: "TensorDType.Float32"
  }
}

layer{
  type: "CatOp"
  top: "cat_10"
  bottom: "neg_10"
  bottom: "slice_75"
  layer_param{
    attr_0: -1
    shape: [1, 24, 1024, 64]
    dtype: "TensorDType.Float32"
  }
}

layer{
  type: "MulOp"
  top: "mul_59"
  bottom: "cat_10"
…
    dtype: "TensorDType.BFloat16"
  }
}

layer{
  type: "UnsqueezeOp"
  top: "unsqueeze_201"
  bottom: "slice_696"
  layer_param{
    attr_0: 2
    shape: [1, 8, 1, 1024, 64]
    dtype: "TensorDType.BFloat16"
  }
}

layer{
  type: "SliceOp"
  top: "slice_697"
  bottom: "unsqueeze_201"
  layer_param{
    attr_0: 3
    attr_1: 0
    attr_2: 9223372036854775807
    shape: [1, 8, 1, 1024, 64]
    dtype: "TensorDType.BFloat16"
  }
}

layer{
  type: "SliceOp"
  top: "slice_698"
  bottom: "slice_697"
  layer_param{
    attr_0: 4
    attr_1: 0
    attr_2: 9223372036854775807
    shape: [1, 8, 1, 1024, 64]
    dtype: "TensorDType.BFloat16"
  }
}

layer{
  type: "ExpandOp"
  top: "expand_148"
  bottom: "slice_698"
  layer_param{
    attr_0: [1, 8, 3, 1024, 64]
    shape: [1, 8, 3, 1024, 64]
    dtype: "TensorDType.BFloat16"
  }
}

layer{
  type: "ViewOp"
  top: "_unsafe_view_98"
  bottom: "expand_148"
  layer_param{
    attr_0: [1, 24, 1024, 64]
    shape: [1, 24, 1024, 64]
    dtype: "TensorDType.BFloat16"
  }
}

layer{
  type: "SliceOp"
  top: "slice_699"
  bottom: "transpose_198"
  layer_param{
    attr_0: 0
    attr_1: 0
    attr_2: 9223372036854775807
    shape: [1, 8, 1024, 64]
    dtype: "TensorDType.BFloat16"
  }
}

layer{
  type: "SliceOp"
  top: "slice_700"
  bottom: "slice_699"
  layer_param{
    attr_0: 1
    attr_1: 0
    attr_2: 9223372036854775807
    shape: [1, 8, 1024, 64]
    dtype: "TensorDType.BFloat16"
  }
}

layer{
  type: "UnsqueezeOp"
  top: "unsqueeze_202"
  bottom: "slice_700"
  layer_param{
    attr_0: 2
    shape: [1, 8, 1, 1024, 64]
    dtype: "TensorDType.BFloat16"
  }
}

layer{
  type: "SliceOp"
  top: "slice_701"
  bottom: "unsqueeze_202"
  layer_param{
    attr_0: 3
    attr_1: 0
    attr_2: 9223372036854775807
    shape: [1, 8, 1, 1024, 64]
    dtype: "TensorDType.BFloat16"
  }
}

layer{
  type: "SliceOp"
  top: "slice_702"
  bottom: "slice_701"
  layer_param{
    attr_0: 4
    attr_1: 0
    attr_2: 9223372036854775807
    shape: [1, 8, 1, 1024, 64]
    dtype: "TensorDType.BFloat16"
  }
}

layer{
  type: "ExpandOp"
  top: "expand_149"
  bottom: "slice_702"
  layer_param{
    attr_0: [1, 8, 3, 1024, 64]
    shape: [1, 8, 3, 1024, 64]
    dtype: "TensorDType.BFloat16"
  }
}

layer{
  type: "ViewOp"
  top: "_unsafe_view_99"
  bottom: "expand_149"
  layer_param{
    attr_0: [1, 24, 1024, 64]
    shape: [1, 24, 1024, 64]
    dtype: "TensorDType.BFloat16"
  }
}

layer{
  type: "ExpandOp"
  top: "expand_150"
  bottom: "expand"
  layer_param{
    attr_0: [1, 24, 1024, 1024]
    shape: [1, 24, 1024, 1024]
    dtype: "TensorDType.BFloat16"
  }
}

layer{
  type: "ScaledDotProductFlashAttentionForCpuOp"
  top: "_scaled_dot_product_efficient_attention_49"
  bottom: "add_296"
  bottom: "_unsafe_view_98"
  bottom: "_unsafe_view_99"
  bottom: "expand_150"
  layer_param{
    attr_0: False
    shape{
      output_0: [1, 24, 1024, 64]
      output_1: [1, 24, 0]
      output_2: []
      output_3: []
    }
  }
}

layer{
  type: "GetItemOp"
  top: "getitem_196"
  bottom: "_scaled_dot_product_efficient_attention_49"
  layer_param{
    attr_0: 0
    shape: [1, 24, 1024, 64]
    dtype: "TensorDType.BFloat16"
  }
}

layer{
  type: "TransposeOp"
  top: "transpose_199"
  bottom: "getitem_196"
  layer_param{
    attr_0: 1
    attr_1: 2
    shape: [1, 1024, 24, 64]
    dtype: "TensorDType.BFloat16"
  }
}

layer{
  type: "ViewOp"
  top: "view_892"
  bottom: "transpose_199"
  layer_param{
    attr_0: [1, 1024, 1536]
    shape: [1, 1024, 1536]
    dtype: "TensorDType.BFloat16"
  }
}

layer{
  type: "TransposeOp"
  top: "t_346"
  bottom: "arg452_1"
  layer_param{
    shape: [1536, 1536]
    dtype: "TensorDType.BFloat16"
  }
}

layer{
  type: "ViewOp"
  top: "view_893"
  bottom: "view_892"
  layer_param{
    attr_0: [1024, 1536]
    shape: [1024, 1536]
    dtype: "TensorDType.BFloat16"
  }
}

layer{
  type: "MatmulOp"
  top: "mm_346"
  bottom: "view_893"
  bottom: "t_346"
  layer_param{
    shape: [1024, 1536]
    dtype: "TensorDType.BFloat16"
  }
}

layer{
  type: "ViewOp"
  top: "view_894"
  bottom: "mm_346"
  layer_param{
    attr_0: [1, 1024, 1536]
    shape: [1, 1024, 1536]
    dtype: "TensorDType.BFloat16"
  }
}

layer{
  type: "MulOp"
  top: "mul_546"
  bottom: "view_894"
  layer_param{
    attr_0: 0.1941450686788302
    shape: [1, 1024, 1536]
    dtype: "TensorDType.BFloat16"
  }
}

layer{
  type: "AddOp"
  top: "add_298"
  bottom: "add_294"
  bottom: "mul_546"
  layer_param{
    shape: [1, 1024, 1536]
    dtype: "TensorDType.BFloat16"
  }
}

layer{
  type: "TransposeOp"
  top: "t_347"
  bottom: "arg453_1"
  layer_param{
    shape: [1536, 3840]
    dtype: "TensorDType.BFloat16"
  }
}

layer{
  type: "ViewOp"
  top: "view_895"
  bottom: "fuse_ln_mul_548"
  layer_param{
    attr_0: [1024, 1536]
    shape: [1024, 1536]
    dtype: "TensorDType.BFloat16"
  }
}

layer{
  type: "MatmulOp"
  top: "mm_347"
  bottom: "view_895"
  bottom: "t_347"
  layer_param{
    shape: [1024, 3840]
    dtype: "TensorDType.BFloat16"
  }
}

layer{
  type: "ViewOp"
  top: "view_896"
  bottom: "mm_347"
  layer_param{
    attr_0: [1, 1024, 3840]
    shape: [1, 1024, 3840]
    dtype: "TensorDType.BFloat16"
  }
}

layer{
  type: "SiluOp"
  top: "silu_49"
  bottom: "view_896"
  layer_param{
    shape: [1, 1024, 3840]
    dtype: "TensorDType.BFloat16"
  }
}

layer{
  type: "TransposeOp"
  top: "t_348"
  bottom: "arg454_1"
  layer_param{
    shape: [1536, 3840]
    dtype: "TensorDType.BFloat16"
  }
}

layer{
  type: "ViewOp"
  top: "view_897"
  bottom: "fuse_ln_mul_548"
  layer_param{
    attr_0: [1024, 1536]
    shape: [1024, 1536]
    dtype: "TensorDType.BFloat16"
  }
}

layer{
  type: "MatmulOp"
  top: "mm_348"
  bottom: "view_897"
  bottom: "t_348"
  layer_param{
    shape: [1024, 3840]
    dtype: "TensorDType.BFloat16"
  }
}

layer{
  type: "ViewOp"
  top: "view_898"
  bottom: "mm_348"
  layer_param{
    attr_0: [1, 1024, 3840]
    shape: [1, 1024, 3840]
    dtype: "TensorDType.BFloat16"
  }
}

layer{
  type: "MulOp"
  top: "mul_549"
  bottom: "silu_49"
  bottom: "view_898"
  layer_param{
    shape: [1, 1024, 3840]
    dtype: "TensorDType.BFloat16"
  }
}

layer{
  type: "TransposeOp"
  top: "t_349"
  bottom: "arg455_1"
  layer_param{
    shape: [3840, 1536]
    dtype: "TensorDType.BFloat16"
  }
}

layer{
  type: "ViewOp"
  top: "view_899"
  bottom: "mul_549"
  layer_param{
    attr_0: [1024, 3840]
    shape: [1024, 3840]
    dtype: "TensorDType.BFloat16"
  }
}

layer{
  type: "MatmulOp"
  top: "mm_349"
  bottom: "view_899"
  bottom: "t_349"
  layer_param{
    shape: [1024, 1536]
    dtype: "TensorDType.BFloat16"
  }
}

layer{
  type: "ViewOp"
  top: "view_900"
  bottom: "mm_349"
  layer_param{
    attr_0: [1, 1024, 1536]
    shape: [1, 1024, 1536]
    dtype: "TensorDType.BFloat16"
  }
}

layer{
  type: "MulOp"
  top: "mul_550"
  bottom: "view_900"
  layer_param{
    attr_0: 0.1941450686788302
    shape: [1, 1024, 1536]
    dtype: "TensorDType.BFloat16"
  }
}

layer{
  type: "AddOp"
  top: "add_300"
  bottom: "add_298"
  bottom: "mul_550"
  layer_param{
    shape: [1, 1024, 1536]
    dtype: "TensorDType.BFloat16"
  }
}

layer{
  type: "TransposeOp"
  top: "t_350"
  bottom: "arg456_1"
  layer_param{
    shape: [1536, 1536]
    dtype: "TensorDType.BFloat16"
  }
}

layer{
  type: "ViewOp"
  top: "view_901"
  bottom: "fuse_ln_mul_552"
  layer_param{
    attr_0: [1024, 1536]
    shape: [1024, 1536]
    dtype: "TensorDType.BFloat16"
  }
}

layer{
  type: "MatmulOp"
  top: "mm_350"
  bottom: "view_901"
  bottom: "t_350"
  layer_param{
    shape: [1024, 1536]
    dtype: "TensorDType.BFloat16"
  }
}

layer{
  type: "ViewOp"
  top: "view_902"
  bottom: "mm_350"
  layer_param{
    attr_0: [1, 1024, 1536]
    shape: [1, 1024, 1536]
    dtype: "TensorDType.BFloat16"
  }
}

layer{
  type: "TransposeOp"
  top: "t_351"
  bottom: "arg457_1"
  layer_param{
    shape: [1536, 512]
    dtype: "TensorDType.BFloat16"
  }
}

layer{
  type: "ViewOp"
  top: "view_903"
  bottom: "fuse_ln_mul_552"
  layer_param{
    attr_0: [1024, 1536]
    shape: [1024, 1536]
    dtype: "TensorDType.BFloat16"
  }
}

layer{
  type: "MatmulOp"
  top: "mm_351"
  bottom: "view_903"
  bottom: "t_351"
  layer_param{
    shape: [1024, 512]
    dtype: "TensorDType.BFloat16"
  }
}

layer{
  type: "ViewOp"
  top: "view_904"
  bottom: "mm_351"
  layer_param{
    attr_0: [1, 1024, 512]
    shape: [1, 1024, 512]
    dtype: "TensorDType.BFloat16"
  }
}

layer{
  type: "TransposeOp"
  top: "t_352"
  bottom: "arg458_1"
  layer_param{
    shape: [1536, 512]
    dtype: "TensorDType.BFloat16"
  }
}

layer{
  type: "ViewOp"
  top: "view_905"
  bottom: "fuse_ln_mul_552"
  layer_param{
    attr_0: [1024, 1536]
    shape: [1024, 1536]
    dtype: "TensorDType.BFloat16"
  }
}

layer{
  type: "MatmulOp"
  top: "mm_352"
  bottom: "view_905"
  bottom: "t_352"
  layer_param{
    shape: [1024, 512]
    dtype: "TensorDType.BFloat16"
  }
}

layer{
  type: "ViewOp"
  top: "view_906"
  bottom: "mm_352"
  layer_param{
    attr_0: [1, 1024, 512]
    shape: [1, 1024, 512]
    dtype: "TensorDType.BFloat16"
  }
}

layer{
  type: "ViewOp"
  top: "view_907"
  bottom: "view_902"
  layer_param{
    attr_0: [1, 1024, 24, 64]
    shape: [1, 1024, 24, 64]
    dtype: "TensorDType.BFloat16"
  }
}

layer{
  type: "TransposeOp"
  top: "transpose_200"
  bottom: "view_907"
  layer_param{
    attr_0: 1
    attr_1: 2
    shape: [1, 24, 1024, 64]
    dtype: "TensorDType.BFloat16"
  }
}

layer{
  type: "ViewOp"
  top: "view_908"
  bottom: "view_904"
  layer_param{
    attr_0: [1, 1024, 8, 64]
    shape: [1, 1024, 8, 64]
    dtype: "TensorDType.BFloat16"
  }
}

layer{
  type: "TransposeOp"
  top: "transpose_201"
  bottom: "view_908"
  layer_param{
    attr_0: 1
    attr_1: 2
    shape: [1, 8, 1024, 64]
    dtype: "TensorDType.BFloat16"
  }
}

layer{
  type: "ViewOp"
  top: "view_909"
  bottom: "view_906"
  layer_param{
    attr_0: [1, 1024, 8, 64]
    shape: [1, 1024, 8, 64]
    dtype: "TensorDType.BFloat16"
  }
}

layer{
  type: "TransposeOp"
  top: "transpose_202"
  bottom: "view_909"
  layer_param{
    attr_0: 1
    attr_1: 2
    shape: [1, 8, 1024, 64]
    dtype: "TensorDType.BFloat16"
  }
}

layer{
  type: "SliceOp"
  top: "slice_703"
  bottom: "arg571_1"
  layer_param{
    attr_0: 0
    attr_1: 0
    attr_2: 1024
    shape: [1024, 64]
    dtype: "TensorDType.Float32"
  }
}

layer{
  type: "SliceOp"
  top: "slice_704"
  bottom: "arg572_1"
  layer_param{
    attr_0: 0
    attr_1: 0
    attr_2: 1024
    shape: [1024, 64]
    dtype: "TensorDType.Float32"
  }
}

layer{
  type: "IndexOp"
  top: "index_100"
  bottom: "slice_703"
  layer_param{
    attr_0: [unsqueeze]
    shape: [1, 1024, 64]
    dtype: "TensorDType.BFloat16"
  }
}

layer{
  type: "UnsqueezeOp"
  top: "unsqueeze_203"
  bottom: "index_100"
  layer_param{
    attr_0: 1
    shape: [1, 1, 1024, 64]
    dtype: "TensorDType.BFloat16"
  }
}

layer{
  type: "IndexOp"
  top: "index_101"
  bottom: "slice_704"
  layer_param{
    attr_0: [unsqueeze]
    shape: [1, 1024, 64]
    dtype: "TensorDType.BFloat16"
  }
}

layer{
  type: "UnsqueezeOp"
  top: "unsqueeze_204"
  bottom: "index_101"
  layer_param{
    attr_0: 1
    shape: [1, 1, 1024, 64]
    dtype: "TensorDType.BFloat16"
  }
}

layer{
  type: "MulOp"
  top: "mul_553"
  bottom: "transpose_200"
  bottom: "unsqueeze_203"
  layer_param{
    shape: [1, 24, 1024, 64]
    dtype: "TensorDType.Float32"
  }
}

layer{
  type: "SliceOp"
  top: "slice_705"
  bottom: "transpose_200"
  layer_param{
    attr_0: 3
    attr_1: 0
    attr_2: 32
    shape: [1, 24, 1024, 32]
    dtype: "TensorDType.Float32"
  }
}

layer{
  type: "SliceOp"
  top: "slice_706"
  bottom: "transpose_200"
  layer_param{
    attr_0: 3
    attr_1: 32
    attr_2: 9223372036854775807
    shape: [1, 24, 1024, 32]
    dtype: "TensorDType.Float32"
  }
}

layer{
  type: "NegOp"
  top: "neg_100"
  bottom: "slice_706"
  layer_param{
    shape: [1, 24, 1024, 32]
    dtype: "TensorDType.Float32"
  }
}

layer{
  type: "CatOp"
  top: "cat_100"
  bottom: "neg_100"
  bottom: "slice_705"
  layer_param{
    attr_0: -1
    shape: [1, 24, 1024, 64]
    dtype: "TensorDType.Float32"
  }
}

layer{
  type: "MulOp"
  top: "mul_554"
  bottom: "cat_100"
  bottom: "unsqueeze_204"
  layer_param{
    shape: [1, 24, 1024, 64]
    dtype: "TensorDType.Float32"
  }
}

layer{
  type: "AddOp"
  top: "add_302"
  bottom: "mul_553"
  bottom: "mul_554"
  layer_param{
    shape: [1, 24, 1024, 64]
    dtype: "TensorDType.Float32"
  }
}

layer{
  type: "MulOp"
  top: "mul_555"
  bottom: "transpose_201"
  bottom: "unsqueeze_203"
  layer_param{
    shape: [1, 8, 1024, 64]
    dtype: "TensorDType.Float32"
  }
}

layer{
  type: "SliceOp"
  top: "slice_707"
  bottom: "transpose_201"
  layer_param{
    attr_0: 3
    attr_1: 0
    attr_2: 32
    shape: [1, 8, 1024, 32]
    dtype: "TensorDType.Float32"
  }
}

layer{
  type: "SliceOp"
  top: "slice_708"
  bottom: "transpose_201"
  layer_param{
    attr_0: 3
    attr_1: 32
    attr_2: 9223372036854775807
    shape: [1, 8, 1024, 32]
    dtype: "TensorDType.Float32"
  }
}

layer{
  type: "NegOp"
  top: "neg_101"
  bottom: "slice_708"
  layer_param{
    shape: [1, 8, 1024, 32]
    dtype: "TensorDType.Float32"
  }
}

layer{
  type: "CatOp"
  top: "cat_101"
  bottom: "neg_101"
  bottom: "slice_707"
  layer_param{
    attr_0: -1
    shape: [1, 8, 1024, 64]
    dtype: "TensorDType.Float32"
  }
}

layer{
  type: "MulOp"
  top: "mul_556"
  bottom: "cat_101"
  bottom: "unsqueeze_204"
  layer_param{
    shape: [1, 8, 1024, 64]
    dtype: "TensorDType.Float32"
  }
}

layer{
  type: "AddOp"
  top: "add_303"
  bottom: "mul_555"
  bottom: "mul_556"
  layer_param{
    shape: [1, 8, 1024, 64]
    dtype: "TensorDType.Float32"
  }
}

layer{
  type: "SliceOp"
  top: "slice_709"
  bottom: "add_303"
  layer_param{
    attr_0: 0
    attr_1: 0
    attr_2: 9223372036854775807
    shape: [1, 8, 1024, 64]
    dtype: "TensorDType.BFloat16"
  }
}

layer{
  type: "SliceOp"
  top: "slice_710"
  bottom: "slice_709"
  layer_param{
    attr_0: 1
    attr_1: 0
    attr_2: 9223372036854775807
    shape: [1, 8, 1024, 64]
    dtype: "TensorDType.BFloat16"
  }
}

layer{
  type: "UnsqueezeOp"
  top: "unsqueeze_205"
  bottom: "slice_710"
  layer_param{
    attr_0: 2
    shape: [1, 8, 1, 1024, 64]
    dtype: "TensorDType.BFloat16"
  }
}

layer{
  type: "SliceOp"
  top: "slice_711"
  bottom: "unsqueeze_205"
  layer_param{
    attr_0: 3
    attr_1: 0
    attr_2: 9223372036854775807
    shape: [1, 8, 1, 1024, 64]
    dtype: "TensorDType.BFloat16"
  }
}

layer{
  type: "SliceOp"
  top: "slice_712"
  bottom: "slice_711"
  layer_param{
    attr_0: 4
    attr_1: 0
    attr_2: 9223372036854775807
    shape: [1, 8, 1, 1024, 64]
    dtype: "TensorDType.BFloat16"
  }
}

layer{
  type: "ExpandOp"
  top: "expand_151"
  bottom: "slice_712"
  layer_param{
    attr_0: [1, 8, 3, 1024, 64]
    shape: [1, 8, 3, 1024, 64]
    dtype: "TensorDType.BFloat16"
  }
}

layer{
  type: "ViewOp"
  top: "_unsafe_view_100"
  bottom: "expand_151"
  layer_param{
    attr_0: [1, 24, 1024, 64]
    shape: [1, 24, 1024, 64]
    dtype: "TensorDType.BFloat16"
  }
}

layer{
  type: "SliceOp"
  top: "slice_713"
  bottom: "transpose_202"
  layer_param{
    attr_0: 0
    attr_1: 0
    attr_2: 9223372036854775807
    shape: [1, 8, 1024, 64]
    dtype: "TensorDType.BFloat16"
  }
}

layer{
  type: "SliceOp"
  top: "slice_714"
  bottom: "slice_713"
  layer_param{
    attr_0: 1
    attr_1: 0
    attr_2: 9223372036854775807
    shape: [1, 8, 1024, 64]
    dtype: "TensorDType.BFloat16"
  }
}

layer{
  type: "UnsqueezeOp"
  top: "unsqueeze_206"
  bottom: "slice_714"
  layer_param{
    attr_0: 2
    shape: [1, 8, 1, 1024, 64]
    dtype: "TensorDType.BFloat16"
  }
}

layer{
  type: "SliceOp"
  top: "slice_715"
  bottom: "unsqueeze_206"
  layer_param{
    attr_0: 3
    attr_1: 0
    attr_2: 9223372036854775807
    shape: [1, 8, 1, 1024, 64]
    dtype: "TensorDType.BFloat16"
  }
}

layer{
  type: "SliceOp"
  top: "slice_716"
  bottom: "slice_715"
  layer_param{
    attr_0: 4
    attr_1: 0
    attr_2: 9223372036854775807
    shape: [1, 8, 1, 1024, 64]
    dtype: "TensorDType.BFloat16"
  }
}

layer{
  type: "ExpandOp"
  top: "expand_152"
  bottom: "slice_716"
  layer_param{
    attr_0: [1, 8, 3, 1024, 64]
    shape: [1, 8, 3, 1024, 64]
    dtype: "TensorDType.BFloat16"
  }
}

layer{
  type: "ViewOp"
  top: "_unsafe_view_101"
  bottom: "expand_152"
  layer_param{
    attr_0: [1, 24, 1024, 64]
    shape: [1, 24, 1024, 64]
    dtype: "TensorDType.BFloat16"
  }
}

layer{
  type: "ExpandOp"
  top: "expand_153"
  bottom: "expand"
  layer_param{
    attr_0: [1, 24, 1024, 1024]
    shape: [1, 24, 1024, 1024]
    dtype: "TensorDType.BFloat16"
  }
}

layer{
  type: "ScaledDotProductFlashAttentionForCpuOp"
  top: "_scaled_dot_product_efficient_attention_50"
  bottom: "add_302"
  bottom: "_unsafe_view_100"
  bottom: "_unsafe_view_101"
  bottom: "expand_153"
  layer_param{
    attr_0: False
    shape{
      output_0: [1, 24, 1024, 64]
      output_1: [1, 24, 0]
      output_2: []
      output_3: []
    }
  }
}

layer{
  type: "GetItemOp"
  top: "getitem_200"
  bottom: "_scaled_dot_product_efficient_attention_50"
  layer_param{
    attr_0: 0
    shape: [1, 24, 1024, 64]
    dtype: "TensorDType.BFloat16"
  }
}

layer{
  type: "TransposeOp"
  top: "transpose_203"
  bottom: "getitem_200"
  layer_param{
    attr_0: 1
    attr_1: 2
    shape: [1, 1024, 24, 64]
    dtype: "TensorDType.BFloat16"
  }
}

layer{
  type: "ViewOp"
  top: "view_910"
  bottom: "transpose_203"
  layer_param{
    attr_0: [1, 1024, 1536]
    shape: [1, 1024, 1536]
    dtype: "TensorDType.BFloat16"
  }
}

layer{
  type: "TransposeOp"
  top: "t_353"
  bottom: "arg459_1"
  layer_param{
    shape: [1536, 1536]
    dtype: "TensorDType.BFloat16"
  }
}

layer{
  type: "ViewOp"
  top: "view_911"
  bottom: "view_910"
  layer_param{
    attr_0: [1024, 1536]
    shape: [1024, 1536]
    dtype: "TensorDType.BFloat16"
  }
}

layer{
  type: "MatmulOp"
  top: "mm_353"
  bottom: "view_911"
  bottom: "t_353"
  layer_param{
    shape: [1024, 1536]
    dtype: "TensorDType.BFloat16"
  }
}

layer{
  type: "ViewOp"
  top: "view_912"
  bottom: "mm_353"
  layer_param{
    attr_0: [1, 1024, 1536]
    shape: [1, 1024, 1536]
    dtype: "TensorDType.BFloat16"
  }
}

layer{
  type: "MulOp"
  top: "mul_557"
  bottom: "view_912"
  layer_param{
    attr_0: 0.1941450686788302
    shape: [1, 1024, 1536]
    dtype: "TensorDType.BFloat16"
  }
}

layer{
  type: "AddOp"
  top: "add_304"
  bottom: "add_300"
  bottom: "mul_557"
  layer_param{
    shape: [1, 1024, 1536]
    dtype: "TensorDType.BFloat16"
  }
}

layer{
  type: "TransposeOp"
  top: "t_354"
  bottom: "arg460_1"
  layer_param{
    shape: [1536, 3840]
    dtype: "TensorDType.BFloat16"
  }
}

layer{
  type: "ViewOp"
  top: "view_913"
  bottom: "fuse_ln_mul_559"
  layer_param{
    attr_0: [1024, 1536]
    shape: [1024, 1536]
    dtype: "TensorDType.BFloat16"
  }
}

layer{
  type: "MatmulOp"
  top: "mm_354"
  bottom: "view_913"
  bottom: "t_354"
  layer_param{
    shape: [1024, 3840]
    dtype: "TensorDType.BFloat16"
  }
}

layer{
  type: "ViewOp"
  top: "view_914"
  bottom: "mm_354"
  layer_param{
    attr_0: [1, 1024, 3840]
    shape: [1, 1024, 3840]
    dtype: "TensorDType.BFloat16"
  }
}

layer{
  type: "SiluOp"
  top: "silu_50"
  bottom: "view_914"
  layer_param{
    shape: [1, 1024, 3840]
    dtype: "TensorDType.BFloat16"
  }
}

layer{
  type: "TransposeOp"
  top: "t_355"
  bottom: "arg461_1"
  layer_param{
    shape: [1536, 3840]
    dtype: "TensorDType.BFloat16"
  }
}

layer{
  type: "ViewOp"
  top: "view_915"
  bottom: "fuse_ln_mul_559"
  layer_param{
    attr_0: [1024, 1536]
    shape: [1024, 1536]
    dtype: "TensorDType.BFloat16"
  }
}

layer{
  type: "MatmulOp"
  top: "mm_355"
  bottom: "view_915"
  bottom: "t_355"
  layer_param{
    shape: [1024, 3840]
    dtype: "TensorDType.BFloat16"
  }
}

layer{
  type: "ViewOp"
  top: "view_916"
  bottom: "mm_355"
  layer_param{
    attr_0: [1, 1024, 3840]
    shape: [1, 1024, 3840]
    dtype: "TensorDType.BFloat16"
  }
}

layer{
  type: "MulOp"
  top: "mul_560"
  bottom: "silu_50"
  bottom: "view_916"
  layer_param{
    shape: [1, 1024, 3840]
    dtype: "TensorDType.BFloat16"
  }
}

layer{
  type: "TransposeOp"
  top: "t_356"
  bottom: "arg462_1"
  layer_param{
    shape: [3840, 1536]
    dtype: "TensorDType.BFloat16"
  }
}

layer{
  type: "ViewOp"
  top: "view_917"
  bottom: "mul_560"
  layer_param{
    attr_0: [1024, 3840]
    shape: [1024, 3840]
    dtype: "TensorDType.BFloat16"
  }
}

layer{
  type: "MatmulOp"
  top: "mm_356"
  bottom: "view_917"
  bottom: "t_356"
  layer_param{
    shape: [1024, 1536]
    dtype: "TensorDType.BFloat16"
  }
}

layer{
  type: "ViewOp"
  top: "view_918"
  bottom: "mm_356"
  layer_param{
    attr_0: [1, 1024, 1536]
    shape: [1, 1024, 1536]
    dtype: "TensorDType.BFloat16"
  }
}

layer{
  type: "MulOp"
  top: "mul_561"
  bottom: "view_918"
  layer_param{
    attr_0: 0.1941450686788302
    shape: [1, 1024, 1536]
    dtype: "TensorDType.BFloat16"
  }
}

layer{
  type: "AddOp"
  top: "add_306"
  bottom: "add_304"
  bottom: "mul_561"
  layer_param{
    shape: [1, 1024, 1536]
    dtype: "TensorDType.BFloat16"
  }
}

layer{
  type: "TransposeOp"
  top: "t_357"
  bottom: "arg463_1"
  layer_param{
    shape: [1536, 1536]
    dtype: "TensorDType.BFloat16"
  }
}

layer{
  type: "ViewOp"
  top: "view_919"
  bottom: "fuse_ln_mul_563"
  layer_param{
    attr_0: [1024, 1536]
    shape: [1024, 1536]
    dtype: "TensorDType.BFloat16"
  }
}

layer{
  type: "MatmulOp"
  top: "mm_357"
  bottom: "view_919"
  bottom: "t_357"
  layer_param{
    shape: [1024, 1536]
    dtype: "TensorDType.BFloat16"
  }
}

layer{
  type: "ViewOp"
  top: "view_920"
  bottom: "mm_357"
  layer_param{
    attr_0: [1, 1024, 1536]
    shape: [1, 1024, 1536]
    dtype: "TensorDType.BFloat16"
  }
}

layer{
  type: "TransposeOp"
  top: "t_358"
  bottom: "arg464_1"
  layer_param{
    shape: [1536, 512]
    dtype: "TensorDType.BFloat16"
  }
}

layer{
  type: "ViewOp"
  top: "view_921"
  bottom: "fuse_ln_mul_563"
  layer_param{
    attr_0: [1024, 1536]
    shape: [1024, 1536]
    dtype: "TensorDType.BFloat16"
  }
}

layer{
  type: "MatmulOp"
  top: "mm_358"
  bottom: "view_921"
  bottom: "t_358"
  layer_param{
    shape: [1024, 512]
    dtype: "TensorDType.BFloat16"
  }
}

layer{
  type: "ViewOp"
  top: "view_922"
  bottom: "mm_358"
  layer_param{
    attr_0: [1, 1024, 512]
    shape: [1, 1024, 512]
    dtype: "TensorDType.BFloat16"
  }
}

layer{
  type: "TransposeOp"
  top: "t_359"
  bottom: "arg465_1"
  layer_param{
    shape: [1536, 512]
    dtype: "TensorDType.BFloat16"
  }
}

layer{
  type: "ViewOp"
  top: "view_923"
  bottom: "fuse_ln_mul_563"
  layer_param{
    attr_0: [1024, 1536]
    shape: [1024, 1536]
    dtype: "TensorDType.BFloat16"
  }
}

layer{
  type: "MatmulOp"
  top: "mm_359"
  bottom: "view_923"
  bottom: "t_359"
  layer_param{
    shape: [1024, 512]
    dtype: "TensorDType.BFloat16"
  }
}

layer{
  type: "ViewOp"
  top: "view_924"
  bottom: "mm_359"
  layer_param{
    attr_0: [1, 1024, 512]
    shape: [1, 1024, 512]
    dtype: "TensorDType.BFloat16"
  }
}

layer{
  type: "ViewOp"
  top: "view_925"
  bottom: "view_920"
  layer_param{
    attr_0: [1, 1024, 24, 64]
    shape: [1, 1024, 24, 64]
    dtype: "TensorDType.BFloat16"
  }
}

layer{
  type: "TransposeOp"
  top: "transpose_204"
  bottom: "view_925"
  layer_param{
    attr_0: 1
    attr_1: 2
    shape: [1, 24, 1024, 64]
    dtype: "TensorDType.BFloat16"
  }
}

layer{
  type: "ViewOp"
  top: "view_926"
  bottom: "view_922"
  layer_param{
    attr_0: [1, 1024, 8, 64]
    shape: [1, 1024, 8, 64]
    dtype: "TensorDType.BFloat16"
  }
}

layer{
  type: "TransposeOp"
  top: "transpose_205"
  bottom: "view_926"
  layer_param{
    attr_0: 1
    attr_1: 2
    shape: [1, 8, 1024, 64]
    dtype: "TensorDType.BFloat16"
  }
}

layer{
  type: "ViewOp"
  top: "view_927"
  bottom: "view_924"
  layer_param{
    attr_0: [1, 1024, 8, 64]
    shape: [1, 1024, 8, 64]
    dtype: "TensorDType.BFloat16"
  }
}

layer{
  type: "TransposeOp"
  top: "transpose_206"
  bottom: "view_927"
  layer_param{
    attr_0: 1
    attr_1: 2
    shape: [1, 8, 1024, 64]
    dtype: "TensorDType.BFloat16"
  }
}

layer{
  type: "SliceOp"
  top: "slice_717"
  bottom: "arg573_1"
  layer_param{
    attr_0: 0
    attr_1: 0
    attr_2: 1024
    shape: [1024, 64]
    dtype: "TensorDType.Float32"
  }
}

layer{
  type: "SliceOp"
  top: "slice_718"
  bottom: "arg574_1"
  layer_param{
    attr_0: 0
    attr_1: 0
    attr_2: 1024
    shape: [1024, 64]
    dtype: "TensorDType.Float32"
  }
}

layer{
  type: "IndexOp"
  top: "index_102"
  bottom: "slice_717"
  layer_param{
    attr_0: [unsqueeze]
    shape: [1, 1024, 64]
    dtype: "TensorDType.BFloat16"
  }
}

layer{
  type: "UnsqueezeOp"
  top: "unsqueeze_207"
  bottom: "index_102"
  layer_param{
    attr_0: 1
    shape: [1, 1, 1024, 64]
    dtype: "TensorDType.BFloat16"
  }
}

layer{
  type: "IndexOp"
  top: "index_103"
  bottom: "slice_718"
  layer_param{
    attr_0: [unsqueeze]
    shape: [1, 1024, 64]
    dtype: "TensorDType.BFloat16"
  }
}

layer{
  type: "UnsqueezeOp"
  top: "unsqueeze_208"
  bottom: "index_103"
  layer_param{
    attr_0: 1
    shape: [1, 1, 1024, 64]
    dtype: "TensorDType.BFloat16"
  }
}

layer{
  type: "MulOp"
  top: "mul_564"
  bottom: "transpose_204"
  bottom: "unsqueeze_207"
  layer_param{
    shape: [1, 24, 1024, 64]
    dtype: "TensorDType.Float32"
  }
}

layer{
  type: "SliceOp"
  top: "slice_719"
  bottom: "transpose_204"
  layer_param{
    attr_0: 3
    attr_1: 0
    attr_2: 32
    shape: [1, 24, 1024, 32]
    dtype: "TensorDType.Float32"
  }
}

layer{
  type: "SliceOp"
  top: "slice_720"
  bottom: "transpose_204"
  layer_param{
    attr_0: 3
    attr_1: 32
    attr_2: 9223372036854775807
    shape: [1, 24, 1024, 32]
    dtype: "TensorDType.Float32"
  }
}

layer{
  type: "NegOp"
  top: "neg_102"
  bottom: "slice_720"
  layer_param{
    shape: [1, 24, 1024, 32]
    dtype: "TensorDType.Float32"
  }
}

layer{
  type: "CatOp"
  top: "cat_102"
  bottom: "neg_102"
  bottom: "slice_719"
  layer_param{
    attr_0: -1
    shape: [1, 24, 1024, 64]
    dtype: "TensorDType.Float32"
  }
}

layer{
  type: "MulOp"
  top: "mul_565"
  bottom: "cat_102"
  bottom: "unsqueeze_208"
  layer_param{
    shape: [1, 24, 1024, 64]
    dtype: "TensorDType.Float32"
  }
}

layer{
  type: "AddOp"
  top: "add_308"
  bottom: "mul_564"
  bottom: "mul_565"
  layer_param{
    shape: [1, 24, 1024, 64]
    dtype: "TensorDType.Float32"
  }
}

layer{
  type: "MulOp"
  top: "mul_566"
  bottom: "transpose_205"
  bottom: "unsqueeze_207"
  layer_param{
    shape: [1, 8, 1024, 64]
    dtype: "TensorDType.Float32"
  }
}

layer{
  type: "SliceOp"
  top: "slice_721"
  bottom: "transpose_205"
  layer_param{
    attr_0: 3
    attr_1: 0
    attr_2: 32
    shape: [1, 8, 1024, 32]
    dtype: "TensorDType.Float32"
  }
}

layer{
  type: "SliceOp"
  top: "slice_722"
  bottom: "transpose_205"
  layer_param{
    attr_0: 3
    attr_1: 32
    attr_2: 9223372036854775807
    shape: [1, 8, 1024, 32]
    dtype: "TensorDType.Float32"
  }
}

layer{
  type: "NegOp"
  top: "neg_103"
  bottom: "slice_722"
  layer_param{
    shape: [1, 8, 1024, 32]
    dtype: "TensorDType.Float32"
  }
}

layer{
  type: "CatOp"
  top: "cat_103"
  bottom: "neg_103"
  bottom: "slice_721"
  layer_param{
    attr_0: -1
    shape: [1, 8, 1024, 64]
    dtype: "TensorDType.Float32"
  }
}

layer{
  type: "MulOp"
  top: "mul_567"
  bottom: "cat_103"
  bottom: "unsqueeze_208"
  layer_param{
    shape: [1, 8, 1024, 64]
    dtype: "TensorDType.Float32"
  }
}

layer{
  type: "AddOp"
  top: "add_309"
  bottom: "mul_566"
  bottom: "mul_567"
  layer_param{
    shape: [1, 8, 1024, 64]
    dtype: "TensorDType.Float32"
  }
}

layer{
  type: "SliceOp"
  top: "slice_723"
  bottom: "add_309"
  layer_param{
    attr_0: 0
    attr_1: 0
    attr_2: 9223372036854775807
    shape: [1, 8, 1024, 64]
    dtype: "TensorDType.BFloat16"
  }
}

layer{
  type: "SliceOp"
  top: "slice_724"
  bottom: "slice_723"
  layer_param{
    attr_0: 1
    attr_1: 0
    attr_2: 9223372036854775807
    shape: [1, 8, 1024, 64]
    dtype: "TensorDType.BFloat16"
  }
}

layer{
  type: "UnsqueezeOp"
  top: "unsqueeze_209"
  bottom: "slice_724"
  layer_param{
    attr_0: 2
    shape: [1, 8, 1, 1024, 64]
    dtype: "TensorDType.BFloat16"
  }
}

layer{
  type: "SliceOp"
  top: "slice_725"
  bottom: "unsqueeze_209"
  layer_param{
    attr_0: 3
    attr_1: 0
    attr_2: 9223372036854775807
    shape: [1, 8, 1, 1024, 64]
    dtype: "TensorDType.BFloat16"
  }
}

layer{
  type: "SliceOp"
  top: "slice_726"
  bottom: "slice_725"
  layer_param{
    attr_0: 4
    attr_1: 0
    attr_2: 9223372036854775807
    shape: [1, 8, 1, 1024, 64]
    dtype: "TensorDType.BFloat16"
  }
}

layer{
  type: "ExpandOp"
  top: "expand_154"
  bottom: "slice_726"
  layer_param{
    attr_0: [1, 8, 3, 1024, 64]
    shape: [1, 8, 3, 1024, 64]
    dtype: "TensorDType.BFloat16"
  }
}

layer{
  type: "ViewOp"
  top: "_unsafe_view_102"
  bottom: "expand_154"
  layer_param{
    attr_0: [1, 24, 1024, 64]
    shape: [1, 24, 1024, 64]
    dtype: "TensorDType.BFloat16"
  }
}

layer{
  type: "SliceOp"
  top: "slice_727"
  bottom: "transpose_206"
  layer_param{
    attr_0: 0
    attr_1: 0
    attr_2: 9223372036854775807
    shape: [1, 8, 1024, 64]
    dtype: "TensorDType.BFloat16"
  }
}

layer{
  type: "SliceOp"
  top: "slice_728"
  bottom: "slice_727"
  layer_param{
    attr_0: 1
    attr_1: 0
    attr_2: 9223372036854775807
    shape: [1, 8, 1024, 64]
    dtype: "TensorDType.BFloat16"
  }
}

layer{
  type: "UnsqueezeOp"
  top: "unsqueeze_210"
  bottom: "slice_728"
  layer_param{
    attr_0: 2
    shape: [1, 8, 1, 1024, 64]
    dtype: "TensorDType.BFloat16"
  }
}

layer{
  type: "SliceOp"
  top: "slice_729"
  bottom: "unsqueeze_210"
  layer_param{
    attr_0: 3
    attr_1: 0
    attr_2: 9223372036854775807
    shape: [1, 8, 1, 1024, 64]
    dtype: "TensorDType.BFloat16"
  }
}

layer{
  type: "SliceOp"
  top: "slice_730"
  bottom: "slice_729"
  layer_param{
    attr_0: 4
    attr_1: 0
    attr_2: 9223372036854775807
    shape: [1, 8, 1, 1024, 64]
    dtype: "TensorDType.BFloat16"
  }
}

layer{
  type: "ExpandOp"
  top: "expand_155"
  bottom: "slice_730"
  layer_param{
    attr_0: [1, 8, 3, 1024, 64]
    shape: [1, 8, 3, 1024, 64]
    dtype: "TensorDType.BFloat16"
  }
}

layer{
  type: "ViewOp"
  top: "_unsafe_view_103"
  bottom: "expand_155"
  layer_param{
    attr_0: [1, 24, 1024, 64]
    shape: [1, 24, 1024, 64]
    dtype: "TensorDType.BFloat16"
  }
}

layer{
  type: "ExpandOp"
  top: "expand_156"
  bottom: "expand"
  layer_param{
    attr_0: [1, 24, 1024, 1024]
    shape: [1, 24, 1024, 1024]
    dtype: "TensorDType.BFloat16"
  }
}

layer{
  type: "ScaledDotProductFlashAttentionForCpuOp"
  top: "_scaled_dot_product_efficient_attention_51"
  bottom: "add_308"
  bottom: "_unsafe_view_102"
  bottom: "_unsafe_view_103"
  bottom: "expand_156"
  layer_param{
    attr_0: False
    shape{
      output_0: [1, 24, 1024, 64]
      output_1: [1, 24, 0]
      output_2: []
      output_3: []
    }
  }
}

layer{
  type: "GetItemOp"
  top: "getitem_204"
  bottom: "_scaled_dot_product_efficient_attention_51"
  layer_param{
    attr_0: 0
    shape: [1, 24, 1024, 64]
    dtype: "TensorDType.BFloat16"
  }
}

layer{
  type: "TransposeOp"
  top: "transpose_207"
  bottom: "getitem_204"
  layer_param{
    attr_0: 1
    attr_1: 2
    shape: [1, 1024, 24, 64]
    dtype: "TensorDType.BFloat16"
  }
}

layer{
  type: "ViewOp"
  top: "view_928"
  bottom: "transpose_207"
  layer_param{
    attr_0: [1, 1024, 1536]
    shape: [1, 1024, 1536]
    dtype: "TensorDType.BFloat16"
  }
}

layer{
  type: "TransposeOp"
  top: "t_360"
  bottom: "arg466_1"
  layer_param{
    shape: [1536, 1536]
    dtype: "TensorDType.BFloat16"
  }
}

layer{
  type: "ViewOp"
  top: "view_929"
  bottom: "view_928"
  layer_param{
    attr_0: [1024, 1536]
    shape: [1024, 1536]
    dtype: "TensorDType.BFloat16"
  }
}

layer{
  type: "MatmulOp"
  top: "mm_360"
  bottom: "view_929"
  bottom: "t_360"
  layer_param{
    shape: [1024, 1536]
    dtype: "TensorDType.BFloat16"
  }
}

layer{
  type: "ViewOp"
  top: "view_930"
  bottom: "mm_360"
  layer_param{
    attr_0: [1, 1024, 1536]
    shape: [1, 1024, 1536]
    dtype: "TensorDType.BFloat16"
  }
}

layer{
  type: "MulOp"
  top: "mul_568"
  bottom: "view_930"
  layer_param{
    attr_0: 0.1941450686788302
    shape: [1, 1024, 1536]
    dtype: "TensorDType.BFloat16"
  }
}

layer{
  type: "AddOp"
  top: "add_310"
  bottom: "add_306"
  bottom: "mul_568"
  layer_param{
    shape: [1, 1024, 1536]
    dtype: "TensorDType.BFloat16"
  }
}

layer{
  type: "TransposeOp"
  top: "t_361"
  bottom: "arg467_1"
  layer_param{
    shape: [1536, 3840]
    dtype: "TensorDType.BFloat16"
  }
}

layer{
  type: "ViewOp"
  top: "view_931"
  bottom: "fuse_ln_mul_570"
  layer_param{
    attr_0: [1024, 1536]
    shape: [1024, 1536]
    dtype: "TensorDType.BFloat16"
  }
}

layer{
  type: "MatmulOp"
  top: "mm_361"
  bottom: "view_931"
  bottom: "t_361"
  layer_param{
    shape: [1024, 3840]
    dtype: "TensorDType.BFloat16"
  }
}

layer{
  type: "ViewOp"
  top: "view_932"
  bottom: "mm_361"
  layer_param{
    attr_0: [1, 1024, 3840]
    shape: [1, 1024, 3840]
    dtype: "TensorDType.BFloat16"
  }
}

layer{
  type: "SiluOp"
  top: "silu_51"
  bottom: "view_932"
  layer_param{
    shape: [1, 1024, 3840]
    dtype: "TensorDType.BFloat16"
  }
}

layer{
  type: "TransposeOp"
  top: "t_362"
  bottom: "arg468_1"
  layer_param{
    shape: [1536, 3840]
    dtype: "TensorDType.BFloat16"
  }
}

layer{
  type: "ViewOp"
  top: "view_933"
  bottom: "fuse_ln_mul_570"
  layer_param{
    attr_0: [1024, 1536]
    shape: [1024, 1536]
    dtype: "TensorDType.BFloat16"
  }
}

layer{
  type: "MatmulOp"
  top: "mm_362"
  bottom: "view_933"
  bottom: "t_362"
  layer_param{
    shape: [1024, 3840]
    dtype: "TensorDType.BFloat16"
  }
}

layer{
  type: "ViewOp"
  top: "view_934"
  bottom: "mm_362"
  layer_param{
    attr_0: [1, 1024, 3840]
    shape: [1, 1024, 3840]
    dtype: "TensorDType.BFloat16"
  }
}

layer{
  type: "MulOp"
  top: "mul_571"
  bottom: "silu_51"
  bottom: "view_934"
  layer_param{
    shape: [1, 1024, 3840]
    dtype: "TensorDType.BFloat16"
  }
}

layer{
  type: "TransposeOp"
  top: "t_363"
  bottom: "arg469_1"
  layer_param{
    shape: [3840, 1536]
    dtype: "TensorDType.BFloat16"
  }
}

layer{
  type: "ViewOp"
  top: "view_935"
  bottom: "mul_571"
  layer_param{
    attr_0: [1024, 3840]
    shape: [1024, 3840]
    dtype: "TensorDType.BFloat16"
  }
}

layer{
  type: "MatmulOp"
  top: "mm_363"
  bottom: "view_935"
  bottom: "t_363"
  layer_param{
    shape: [1024, 1536]
    dtype: "TensorDType.BFloat16"
  }
}

layer{
  type: "ViewOp"
  top: "view_936"
  bottom: "mm_363"
  layer_param{
    attr_0: [1, 1024, 1536]
    shape: [1, 1024, 1536]
    dtype: "TensorDType.BFloat16"
  }
}

layer{
  type: "MulOp"
  top: "mul_572"
  bottom: "view_936"
  layer_param{
    attr_0: 0.1941450686788302
    shape: [1, 1024, 1536]
    dtype: "TensorDType.BFloat16"
  }
}

layer{
  type: "AddOp"
  top: "add_312"
  bottom: "add_310"
  bottom: "mul_572"
  layer_param{
    shape: [1, 1024, 1536]
    dtype: "TensorDType.BFloat16"
  }
}

layer{
  type: "DivOp"
  top: "div"
  bottom: "fuse_ln_mul_574"
  layer_param{
    attr_0: 6.0
    shape: [1, 1024, 1536]
    dtype: "TensorDType.BFloat16"
  }
}

layer{
  type: "TransposeOp"
  top: "t_364"
  bottom: "arg470_1"
  layer_param{
    shape: [1536, 73440]
    dtype: "TensorDType.BFloat16"
  }
}

layer{
  type: "ViewOp"
  top: "view_937"
  bottom: "div"
  layer_param{
    attr_0: [1024, 1536]
    shape: [1024, 1536]
    dtype: "TensorDType.BFloat16"
  }
}

layer{
  type: "MatmulOp"
  top: "mm_364"
  bottom: "view_937"
  bottom: "t_364"
  layer_param{
    shape: [1024, 73440]
    dtype: "TensorDType.BFloat16"
  }
}

layer{
  type: "ViewOp"
  top: "view_938"
  bottom: "mm_364"
  layer_param{
    attr_0: [1, 1024, 73440]
    shape: [1, 1024, 73440]
    dtype: "TensorDType.BFloat16"
  }
}

layer{
  type: "OutputOp"
  top: "output"
  bottom: "view_938"
  bottom: "fuse_ln_mul_574"
}

layer{
  type: "RMSNormOp"
  top: "fuse_ln_mul_2"
  bottom: "mul"
  bottom: "arg0_1"
  layer_param{
    attr_0: 1e-05
  }
}

layer{
  type: "RMSNormOp"
  top: "fuse_ln_mul_9"
  bottom: "add_4"
  bottom: "arg1_1"
  layer_param{
    attr_0: 1e-05
  }
}

layer{
  type: "RMSNormOp"
  top: "fuse_ln_mul_13"
  bottom: "add_6"
  bottom: "arg2_1"
  layer_param{
    attr_0: 1e-05
  }
}

layer{
  type: "RMSNormOp"
  top: "fuse_ln_mul_20"
  bottom: "add_10"
  bottom: "arg3_1"
  layer_param{
    attr_0: 1e-05
  }
}

layer{
  type: "RMSNormOp"
  top: "fuse_ln_mul_24"
  bottom: "add_12"
  bottom: "arg4_1"
  layer_param{
    attr_0: 1e-05
  }
}

layer{
  type: "RMSNormOp"
  top: "fuse_ln_mul_31"
  bottom: "add_16"
  bottom: "arg5_1"
  layer_param{
    attr_0: 1e-05
  }
}

layer{
  type: "RMSNormOp"
  top: "fuse_ln_mul_35"
  bottom: "add_18"
  bottom: "arg6_1"
  layer_param{
    attr_0: 1e-05
  }
}

layer{
  type: "RMSNormOp"
  top: "fuse_ln_mul_42"
  bottom: "add_22"
  bottom: "arg7_1"
  layer_param{
    attr_0: 1e-05
  }
}

layer{
  type: "RMSNormOp"
  top: "fuse_ln_mul_46"
  bottom: "add_24"
  bottom: "arg8_1"
  layer_param{
    attr_0: 1e-05
  }
}

layer{
  type: "RMSNormOp"
  top: "fuse_ln_mul_53"
  bottom: "add_28"
  bottom: "arg9_1"
  layer_param{
    attr_0: 1e-05
  }
}

layer{
  type: "RMSNormOp"
  top: "fuse_ln_mul_57"
  bottom: "add_30"
  bottom: "arg10_1"
  layer_param{
    attr_0: 1e-05
  }
}

layer{
  type: "RMSNormOp"
  top: "fuse_ln_mul_64"
  bottom: "add_34"
  bottom: "arg11_1"
  layer_param{
    attr_0: 1e-05
  }
}

layer{
  type: "RMSNormOp"
  top: "fuse_ln_mul_68"
  bottom: "add_36"
  bottom: "arg12_1"
  layer_param{
    attr_0: 1e-05
  }
}

layer{
  type: "RMSNormOp"
  top: "fuse_ln_mul_75"
  bottom: "add_40"
  bottom: "arg13_1"
  layer_param{
    attr_0: 1e-05
  }
}

layer{
  type: "RMSNormOp"
  top: "fuse_ln_mul_79"
  bottom: "add_42"
  bottom: "arg14_1"
  layer_param{
    attr_0: 1e-05
  }
}

layer{
  type: "RMSNormOp"
  top: "fuse_ln_mul_86"
  bottom: "add_46"
  bottom: "arg15_1"
  layer_param{
    attr_0: 1e-05
  }
}

layer{
  type: "RMSNormOp"
  top: "fuse_ln_mul_90"
  bottom: "add_48"
  bottom: "arg16_1"
  layer_param{
    attr_0: 1e-05
  }
}

layer{
  type: "RMSNormOp"
  top: "fuse_ln_mul_97"
  bottom: "add_52"
  bottom: "arg17_1"
  layer_param{
    attr_0: 1e-05
  }
}

layer{
  type: "RMSNormOp"
  top: "fuse_ln_mul_101"
  bottom: "add_54"
  bottom: "arg18_1"
  layer_param{
    attr_0: 1e-05
  }
}

layer{
  type: "RMSNormOp"
  top: "fuse_ln_mul_108"
  bottom: "add_58"
  bottom: "arg19_1"
  layer_param{
    attr_0: 1e-05
  }
}

layer{
  type: "RMSNormOp"
  top: "fuse_ln_mul_112"
  bottom: "add_60"
  bottom: "arg20_1"
  layer_param{
    attr_0: 1e-05
  }
}

layer{
  type: "RMSNormOp"
  top: "fuse_ln_mul_119"
  bottom: "add_64"
  bottom: "arg21_1"
  layer_param{
    attr_0: 1e-05
  }
}

layer{
  type: "RMSNormOp"
  top: "fuse_ln_mul_123"
  bottom: "add_66"
  bottom: "arg22_1"
  layer_param{
    attr_0: 1e-05
  }
}

layer{
  type: "RMSNormOp"
  top: "fuse_ln_mul_130"
  bottom: "add_70"
  bottom: "arg23_1"
  layer_param{
    attr_0: 1e-05
  }
}

layer{
  type: "RMSNormOp"
  top: "fuse_ln_mul_134"
  bottom: "add_72"
  bottom: "arg24_1"
  layer_param{
    attr_0: 1e-05
  }
}

layer{
  type: "RMSNormOp"
  top: "fuse_ln_mul_141"
  bottom: "add_76"
  bottom: "arg25_1"
  layer_param{
    attr_0: 1e-05
  }
}

layer{
  type: "RMSNormOp"
  top: "fuse_ln_mul_145"
  bottom: "add_78"
  bottom: "arg26_1"
  layer_param{
    attr_0: 1e-05
  }
}

layer{
  type: "RMSNormOp"
  top: "fuse_ln_mul_152"
  bottom: "add_82"
  bottom: "arg27_1"
  layer_param{
    attr_0: 1e-05
  }
}

layer{
  type: "RMSNormOp"
  top: "fuse_ln_mul_156"
  bottom: "add_84"
  bottom: "arg28_1"
  layer_param{
    attr_0: 1e-05
  }
}

layer{
  type: "RMSNormOp"
  top: "fuse_ln_mul_163"
  bottom: "add_88"
  bottom: "arg29_1"
  layer_param{
    attr_0: 1e-05
  }
}

layer{
  type: "RMSNormOp"
  top: "fuse_ln_mul_167"
  bottom: "add_90"
  bottom: "arg30_1"
  layer_param{
    attr_0: 1e-05
  }
}

layer{
  type: "RMSNormOp"
  top: "fuse_ln_mul_174"
  bottom: "add_94"
  bottom: "arg31_1"
  layer_param{
    attr_0: 1e-05
  }
}

layer{
  type: "RMSNormOp"
  top: "fuse_ln_mul_178"
  bottom: "add_96"
  bottom: "arg32_1"
  layer_param{
    attr_0: 1e-05
  }
}

layer{
  type: "RMSNormOp"
  top: "fuse_ln_mul_185"
  bottom: "add_100"
  bottom: "arg33_1"
  layer_param{
    attr_0: 1e-05
  }
}

layer{
  type: "RMSNormOp"
  top: "fuse_ln_mul_189"
  bottom: "add_102"
  bottom: "arg34_1"
  layer_param{
    attr_0: 1e-05
  }
}

layer{
  type: "RMSNormOp"
  top: "fuse_ln_mul_196"
  bottom: "add_106"
  bottom: "arg35_1"
  layer_param{
    attr_0: 1e-05
  }
}

layer{
  type: "RMSNormOp"
  top: "fuse_ln_mul_200"
  bottom: "add_108"
  bottom: "arg36_1"
  layer_param{
    attr_0: 1e-05
  }
}

layer{
  type: "RMSNormOp"
  top: "fuse_ln_mul_207"
  bottom: "add_112"
  bottom: "arg37_1"
  layer_param{
    attr_0: 1e-05
  }
}

layer{
  type: "RMSNormOp"
  top: "fuse_ln_mul_211"
  bottom: "add_114"
  bottom: "arg38_1"
  layer_param{
    attr_0: 1e-05
  }
}

layer{
  type: "RMSNormOp"
  top: "fuse_ln_mul_218"
  bottom: "add_118"
  bottom: "arg39_1"
  layer_param{
    attr_0: 1e-05
  }
}

layer{
  type: "RMSNormOp"
  top: "fuse_ln_mul_222"
  bottom: "add_120"
  bottom: "arg40_1"
  layer_param{
    attr_0: 1e-05
  }
}

layer{
  type: "RMSNormOp"
  top: "fuse_ln_mul_229"
  bottom: "add_124"
  bottom: "arg41_1"
  layer_param{
    attr_0: 1e-05
  }
}

layer{
  type: "RMSNormOp"
  top: "fuse_ln_mul_233"
  bottom: "add_126"
  bottom: "arg42_1"
  layer_param{
    attr_0: 1e-05
  }
}

layer{
  type: "RMSNormOp"
  top: "fuse_ln_mul_240"
  bottom: "add_130"
  bottom: "arg43_1"
  layer_param{
    attr_0: 1e-05
  }
}

layer{
  type: "RMSNormOp"
  top: "fuse_ln_mul_244"
  bottom: "add_132"
  bottom: "arg44_1"
  layer_param{
    attr_0: 1e-05
  }
}

layer{
  type: "RMSNormOp"
  top: "fuse_ln_mul_251"
  bottom: "add_136"
  bottom: "arg45_1"
  layer_param{
    attr_0: 1e-05
  }
}

layer{
  type: "RMSNormOp"
  top: "fuse_ln_mul_255"
  bottom: "add_138"
  bottom: "arg46_1"
  layer_param{
    attr_0: 1e-05
  }
}

layer{
  type: "RMSNormOp"
  top: "fuse_ln_mul_262"
  bottom: "add_142"
  bottom: "arg47_1"
  layer_param{
    attr_0: 1e-05
  }
}

layer{
  type: "RMSNormOp"
  top: "fuse_ln_mul_266"
  bottom: "add_144"
  bottom: "arg48_1"
  layer_param{
    attr_0: 1e-05
  }
}

layer{
  type: "RMSNormOp"
  top: "fuse_ln_mul_273"
  bottom: "add_148"
  bottom: "arg49_1"
  layer_param{
    attr_0: 1e-05
  }
}

layer{
  type: "RMSNormOp"
  top: "fuse_ln_mul_277"
  bottom: "add_150"
  bottom: "arg50_1"
  layer_param{
    attr_0: 1e-05
  }
}

layer{
  type: "RMSNormOp"
  top: "fuse_ln_mul_284"
  bottom: "add_154"
  bottom: "arg51_1"
  layer_param{
    attr_0: 1e-05
  }
}

layer{
  type: "RMSNormOp"
  top: "fuse_ln_mul_288"
  bottom: "add_156"
  bottom: "arg52_1"
  layer_param{
    attr_0: 1e-05
  }
}

layer{
  type: "RMSNormOp"
  top: "fuse_ln_mul_295"
  bottom: "add_160"
  bottom: "arg53_1"
  layer_param{
    attr_0: 1e-05
  }
}

layer{
  type: "RMSNormOp"
  top: "fuse_ln_mul_299"
  bottom: "add_162"
  bottom: "arg54_1"
  layer_param{
    attr_0: 1e-05
  }
}

layer{
  type: "RMSNormOp"
  top: "fuse_ln_mul_306"
  bottom: "add_166"
  bottom: "arg55_1"
  layer_param{
    attr_0: 1e-05
  }
}

layer{
  type: "RMSNormOp"
  top: "fuse_ln_mul_310"
  bottom: "add_168"
  bottom: "arg56_1"
  layer_param{
    attr_0: 1e-05
  }
}

layer{
  type: "RMSNormOp"
  top: "fuse_ln_mul_317"
  bottom: "add_172"
  bottom: "arg57_1"
  layer_param{
    attr_0: 1e-05
  }
}

layer{
  type: "RMSNormOp"
  top: "fuse_ln_mul_321"
  bottom: "add_174"
  bottom: "arg58_1"
  layer_param{
    attr_0: 1e-05
  }
}

layer{
  type: "RMSNormOp"
  top: "fuse_ln_mul_328"
  bottom: "add_178"
  bottom: "arg59_1"
  layer_param{
    attr_0: 1e-05
  }
}

layer{
  type: "RMSNormOp"
  top: "fuse_ln_mul_332"
  bottom: "add_180"
  bottom: "arg60_1"
  layer_param{
    attr_0: 1e-05
  }
}

layer{
  type: "RMSNormOp"
  top: "fuse_ln_mul_339"
  bottom: "add_184"
  bottom: "arg61_1"
  layer_param{
    attr_0: 1e-05
  }
}

layer{
  type: "RMSNormOp"
  top: "fuse_ln_mul_343"
  bottom: "add_186"
  bottom: "arg62_1"
  layer_param{
    attr_0: 1e-05
  }
}

layer{
  type: "RMSNormOp"
  top: "fuse_ln_mul_350"
  bottom: "add_190"
  bottom: "arg63_1"
  layer_param{
    attr_0: 1e-05
  }
}

layer{
  type: "RMSNormOp"
  top: "fuse_ln_mul_354"
  bottom: "add_192"
  bottom: "arg64_1"
  layer_param{
    attr_0: 1e-05
  }
}

layer{
  type: "RMSNormOp"
  top: "fuse_ln_mul_361"
  bottom: "add_196"
  bottom: "arg65_1"
  layer_param{
    attr_0: 1e-05
  }
}

layer{
  type: "RMSNormOp"
  top: "fuse_ln_mul_365"
  bottom: "add_198"
  bottom: "arg66_1"
  layer_param{
    attr_0: 1e-05
  }
}

layer{
  type: "RMSNormOp"
  top: "fuse_ln_mul_372"
  bottom: "add_202"
  bottom: "arg67_1"
  layer_param{
    attr_0: 1e-05
  }
}

layer{
  type: "RMSNormOp"
  top: "fuse_ln_mul_376"
  bottom: "add_204"
  bottom: "arg68_1"
  layer_param{
    attr_0: 1e-05
  }
}

layer{
  type: "RMSNormOp"
  top: "fuse_ln_mul_383"
  bottom: "add_208"
  bottom: "arg69_1"
  layer_param{
    attr_0: 1e-05
  }
}

layer{
  type: "RMSNormOp"
  top: "fuse_ln_mul_387"
  bottom: "add_210"
  bottom: "arg70_1"
  layer_param{
    attr_0: 1e-05
  }
}

layer{
  type: "RMSNormOp"
  top: "fuse_ln_mul_394"
  bottom: "add_214"
  bottom: "arg71_1"
  layer_param{
    attr_0: 1e-05
  }
}

layer{
  type: "RMSNormOp"
  top: "fuse_ln_mul_398"
  bottom: "add_216"
  bottom: "arg72_1"
  layer_param{
    attr_0: 1e-05
  }
}

layer{
  type: "RMSNormOp"
  top: "fuse_ln_mul_405"
  bottom: "add_220"
  bottom: "arg73_1"
  layer_param{
    attr_0: 1e-05
  }
}

layer{
  type: "RMSNormOp"
  top: "fuse_ln_mul_409"
  bottom: "add_222"
  bottom: "arg74_1"
  layer_param{
    attr_0: 1e-05
  }
}

layer{
  type: "RMSNormOp"
  top: "fuse_ln_mul_416"
  bottom: "add_226"
  bottom: "arg75_1"
  layer_param{
    attr_0: 1e-05
  }
}

layer{
  type: "RMSNormOp"
  top: "fuse_ln_mul_420"
  bottom: "add_228"
  bottom: "arg76_1"
  layer_param{
    attr_0: 1e-05
  }
}

layer{
  type: "RMSNormOp"
  top: "fuse_ln_mul_427"
  bottom: "add_232"
  bottom: "arg77_1"
  layer_param{
    attr_0: 1e-05
  }
}

layer{
  type: "RMSNormOp"
  top: "fuse_ln_mul_431"
  bottom: "add_234"
  bottom: "arg78_1"
  layer_param{
    attr_0: 1e-05
  }
}

layer{
  type: "RMSNormOp"
  top: "fuse_ln_mul_438"
  bottom: "add_238"
  bottom: "arg79_1"
  layer_param{
    attr_0: 1e-05
  }
}

layer{
  type: "RMSNormOp"
  top: "fuse_ln_mul_442"
  bottom: "add_240"
  bottom: "arg80_1"
  layer_param{
    attr_0: 1e-05
  }
}

layer{
  type: "RMSNormOp"
  top: "fuse_ln_mul_449"
  bottom: "add_244"
  bottom: "arg81_1"
  layer_param{
    attr_0: 1e-05
  }
}

layer{
  type: "RMSNormOp"
  top: "fuse_ln_mul_453"
  bottom: "add_246"
  bottom: "arg82_1"
  layer_param{
    attr_0: 1e-05
  }
}

layer{
  type: "RMSNormOp"
  top: "fuse_ln_mul_460"
  bottom: "add_250"
  bottom: "arg83_1"
  layer_param{
    attr_0: 1e-05
  }
}

layer{
  type: "RMSNormOp"
  top: "fuse_ln_mul_464"
  bottom: "add_252"
  bottom: "arg84_1"
  layer_param{
    attr_0: 1e-05
  }
}

layer{
  type: "RMSNormOp"
  top: "fuse_ln_mul_471"
  bottom: "add_256"
  bottom: "arg85_1"
  layer_param{
    attr_0: 1e-05
  }
}

layer{
  type: "RMSNormOp"
  top: "fuse_ln_mul_475"
  bottom: "add_258"
  bottom: "arg86_1"
  layer_param{
    attr_0: 1e-05
  }
}

layer{
  type: "RMSNormOp"
  top: "fuse_ln_mul_482"
  bottom: "add_262"
  bottom: "arg87_1"
  layer_param{
    attr_0: 1e-05
  }
}

layer{
  type: "RMSNormOp"
  top: "fuse_ln_mul_486"
  bottom: "add_264"
  bottom: "arg88_1"
  layer_param{
    attr_0: 1e-05
  }
}

layer{
  type: "RMSNormOp"
  top: "fuse_ln_mul_493"
  bottom: "add_268"
  bottom: "arg89_1"
  layer_param{
    attr_0: 1e-05
  }
}

layer{
  type: "RMSNormOp"
  top: "fuse_ln_mul_497"
  bottom: "add_270"
  bottom: "arg90_1"
  layer_param{
    attr_0: 1e-05
  }
}

layer{
  type: "RMSNormOp"
  top: "fuse_ln_mul_504"
  bottom: "add_274"
  bottom: "arg91_1"
  layer_param{
    attr_0: 1e-05
  }
}

layer{
  type: "RMSNormOp"
  top: "fuse_ln_mul_508"
  bottom: "add_276"
  bottom: "arg92_1"
  layer_param{
    attr_0: 1e-05
  }
}

layer{
  type: "RMSNormOp"
  top: "fuse_ln_mul_515"
  bottom: "add_280"
  bottom: "arg93_1"
  layer_param{
    attr_0: 1e-05
  }
}

layer{
  type: "RMSNormOp"
  top: "fuse_ln_mul_519"
  bottom: "add_282"
  bottom: "arg94_1"
  layer_param{
    attr_0: 1e-05
  }
}

layer{
  type: "RMSNormOp"
  top: "fuse_ln_mul_526"
  bottom: "add_286"
  bottom: "arg95_1"
  layer_param{
    attr_0: 1e-05
  }
}

layer{
  type: "RMSNormOp"
  top: "fuse_ln_mul_530"
  bottom: "add_288"
  bottom: "arg96_1"
  layer_param{
    attr_0: 1e-05
  }
}

layer{
  type: "RMSNormOp"
  top: "fuse_ln_mul_537"
  bottom: "add_292"
  bottom: "arg97_1"
  layer_param{
    attr_0: 1e-05
  }
}

layer{
  type: "RMSNormOp"
  top: "fuse_ln_mul_541"
  bottom: "add_294"
  bottom: "arg98_1"
  layer_param{
    attr_0: 1e-05
  }
}

layer{
  type: "RMSNormOp"
  top: "fuse_ln_mul_548"
  bottom: "add_298"
  bottom: "arg99_1"
  layer_param{
    attr_0: 1e-05
  }
}

layer{
  type: "RMSNormOp"
  top: "fuse_ln_mul_552"
  bottom: "add_300"
  bottom: "arg100_1"
  layer_param{
    attr_0: 1e-05
  }
}

layer{
  type: "RMSNormOp"
  top: "fuse_ln_mul_559"
  bottom: "add_304"
  bottom: "arg101_1"
  layer_param{
    attr_0: 1e-05
  }
}

layer{
  type: "RMSNormOp"
  top: "fuse_ln_mul_563"
  bottom: "add_306"
  bottom: "arg102_1"
  layer_param{
    attr_0: 1e-05
  }
}

layer{
  type: "RMSNormOp"
  top: "fuse_ln_mul_570"
  bottom: "add_310"
  bottom: "arg103_1"
  layer_param{
    attr_0: 1e-05
  }
}

layer{
  type: "RMSNormOp"
  top: "fuse_ln_mul_574"
  bottom: "add_312"
  bottom: "arg104_1"
  layer_param{
    attr_0: 1e-05
  }
}
